program(1.0)
[buildInfo = dict<tensor<string, []>, tensor<string, []>>({{"coremlc-component-MIL", "3401.3.1"}, {"coremlc-version", "3401.4.1"}, {"coremltools-component-torch", "2.5.0"}, {"coremltools-source-dialect", "TorchScript"}, {"coremltools-version", "8.2"}})]
{
    func main<ios16>(tensor<int32, [1]> cache_length, tensor<fp16, [1, 448]> decoder_key_padding_mask, tensor<fp16, [1, 1024, 1, 1500]> encoder_output_embeds, tensor<int32, [1]> input_ids, tensor<fp16, [1, 24576, 1, 448]> key_cache, tensor<fp16, [1, 448]> kv_cache_update_mask, tensor<fp16, [1, 24576, 1, 448]> value_cache) {
            tensor<int32, []> var_64_axis_0 = const()[name = tensor<string, []>("op_64_axis_0"), val = tensor<int32, []>(0)];
            tensor<int32, []> var_64_batch_dims_0 = const()[name = tensor<string, []>("op_64_batch_dims_0"), val = tensor<int32, []>(0)];
            tensor<fp16, [51865, 1024]> embed_tokens_weight_to_fp16 = const()[name = tensor<string, []>("embed_tokens_weight_to_fp16"), val = tensor<fp16, [51865, 1024]>(BLOBFILE(path = tensor<string, []>("@model_path/weights/weight.bin"), offset = tensor<uint64, []>(64)))];
            tensor<fp16, [1, 1024]> var_64_cast_fp16 = gather(axis = var_64_axis_0, batch_dims = var_64_batch_dims_0, indices = input_ids, x = embed_tokens_weight_to_fp16)[name = tensor<string, []>("op_64_cast_fp16")];
            tensor<int32, []> var_68_axis_0 = const()[name = tensor<string, []>("op_68_axis_0"), val = tensor<int32, []>(0)];
            tensor<int32, []> var_68_batch_dims_0 = const()[name = tensor<string, []>("op_68_batch_dims_0"), val = tensor<int32, []>(0)];
            tensor<fp16, [448, 1024]> embed_positions_weight_to_fp16 = const()[name = tensor<string, []>("embed_positions_weight_to_fp16"), val = tensor<fp16, [448, 1024]>(BLOBFILE(path = tensor<string, []>("@model_path/weights/weight.bin"), offset = tensor<uint64, []>(106219648)))];
            tensor<fp16, [1, 1024]> var_68_cast_fp16 = gather(axis = var_68_axis_0, batch_dims = var_68_batch_dims_0, indices = cache_length, x = embed_positions_weight_to_fp16)[name = tensor<string, []>("op_68_cast_fp16")];
            tensor<fp16, [1, 1024]> hidden_states_1_cast_fp16 = add(x = var_64_cast_fp16, y = var_68_cast_fp16)[name = tensor<string, []>("hidden_states_1_cast_fp16")];
            tensor<int32, [1]> var_82_axes_0 = const()[name = tensor<string, []>("op_82_axes_0"), val = tensor<int32, [1]>([2])];
            tensor<fp16, [1, 1024, 1]> var_82_cast_fp16 = expand_dims(axes = var_82_axes_0, x = hidden_states_1_cast_fp16)[name = tensor<string, []>("op_82_cast_fp16")];
            tensor<int32, [1]> inputs_1_axes_0 = const()[name = tensor<string, []>("inputs_1_axes_0"), val = tensor<int32, [1]>([3])];
            tensor<fp16, [1, 1024, 1, 1]> inputs_1_cast_fp16 = expand_dims(axes = inputs_1_axes_0, x = var_82_cast_fp16)[name = tensor<string, []>("inputs_1_cast_fp16")];
            tensor<int32, [24]> tile_0 = const()[name = tensor<string, []>("tile_0"), val = tensor<int32, [24]>([1024, 1024, 1024, 1024, 1024, 1024, 1024, 1024, 1024, 1024, 1024, 1024, 1024, 1024, 1024, 1024, 1024, 1024, 1024, 1024, 1024, 1024, 1024, 1024])];
            tensor<int32, []> var_87_axis_0 = const()[name = tensor<string, []>("op_87_axis_0"), val = tensor<int32, []>(1)];
            tensor<fp16, [1, 1024, 1, 448]> var_87_cast_fp16_0, tensor<fp16, [1, 1024, 1, 448]> var_87_cast_fp16_1, tensor<fp16, [1, 1024, 1, 448]> var_87_cast_fp16_2, tensor<fp16, [1, 1024, 1, 448]> var_87_cast_fp16_3, tensor<fp16, [1, 1024, 1, 448]> var_87_cast_fp16_4, tensor<fp16, [1, 1024, 1, 448]> var_87_cast_fp16_5, tensor<fp16, [1, 1024, 1, 448]> var_87_cast_fp16_6, tensor<fp16, [1, 1024, 1, 448]> var_87_cast_fp16_7, tensor<fp16, [1, 1024, 1, 448]> var_87_cast_fp16_8, tensor<fp16, [1, 1024, 1, 448]> var_87_cast_fp16_9, tensor<fp16, [1, 1024, 1, 448]> var_87_cast_fp16_10, tensor<fp16, [1, 1024, 1, 448]> var_87_cast_fp16_11, tensor<fp16, [1, 1024, 1, 448]> var_87_cast_fp16_12, tensor<fp16, [1, 1024, 1, 448]> var_87_cast_fp16_13, tensor<fp16, [1, 1024, 1, 448]> var_87_cast_fp16_14, tensor<fp16, [1, 1024, 1, 448]> var_87_cast_fp16_15, tensor<fp16, [1, 1024, 1, 448]> var_87_cast_fp16_16, tensor<fp16, [1, 1024, 1, 448]> var_87_cast_fp16_17, tensor<fp16, [1, 1024, 1, 448]> var_87_cast_fp16_18, tensor<fp16, [1, 1024, 1, 448]> var_87_cast_fp16_19, tensor<fp16, [1, 1024, 1, 448]> var_87_cast_fp16_20, tensor<fp16, [1, 1024, 1, 448]> var_87_cast_fp16_21, tensor<fp16, [1, 1024, 1, 448]> var_87_cast_fp16_22, tensor<fp16, [1, 1024, 1, 448]> var_87_cast_fp16_23 = split(axis = var_87_axis_0, split_sizes = tile_0, x = key_cache)[name = tensor<string, []>("op_87_cast_fp16")];
            tensor<int32, [24]> tile_1 = const()[name = tensor<string, []>("tile_1"), val = tensor<int32, [24]>([1024, 1024, 1024, 1024, 1024, 1024, 1024, 1024, 1024, 1024, 1024, 1024, 1024, 1024, 1024, 1024, 1024, 1024, 1024, 1024, 1024, 1024, 1024, 1024])];
            tensor<int32, []> var_114_axis_0 = const()[name = tensor<string, []>("op_114_axis_0"), val = tensor<int32, []>(1)];
            tensor<fp16, [1, 1024, 1, 448]> var_114_cast_fp16_0, tensor<fp16, [1, 1024, 1, 448]> var_114_cast_fp16_1, tensor<fp16, [1, 1024, 1, 448]> var_114_cast_fp16_2, tensor<fp16, [1, 1024, 1, 448]> var_114_cast_fp16_3, tensor<fp16, [1, 1024, 1, 448]> var_114_cast_fp16_4, tensor<fp16, [1, 1024, 1, 448]> var_114_cast_fp16_5, tensor<fp16, [1, 1024, 1, 448]> var_114_cast_fp16_6, tensor<fp16, [1, 1024, 1, 448]> var_114_cast_fp16_7, tensor<fp16, [1, 1024, 1, 448]> var_114_cast_fp16_8, tensor<fp16, [1, 1024, 1, 448]> var_114_cast_fp16_9, tensor<fp16, [1, 1024, 1, 448]> var_114_cast_fp16_10, tensor<fp16, [1, 1024, 1, 448]> var_114_cast_fp16_11, tensor<fp16, [1, 1024, 1, 448]> var_114_cast_fp16_12, tensor<fp16, [1, 1024, 1, 448]> var_114_cast_fp16_13, tensor<fp16, [1, 1024, 1, 448]> var_114_cast_fp16_14, tensor<fp16, [1, 1024, 1, 448]> var_114_cast_fp16_15, tensor<fp16, [1, 1024, 1, 448]> var_114_cast_fp16_16, tensor<fp16, [1, 1024, 1, 448]> var_114_cast_fp16_17, tensor<fp16, [1, 1024, 1, 448]> var_114_cast_fp16_18, tensor<fp16, [1, 1024, 1, 448]> var_114_cast_fp16_19, tensor<fp16, [1, 1024, 1, 448]> var_114_cast_fp16_20, tensor<fp16, [1, 1024, 1, 448]> var_114_cast_fp16_21, tensor<fp16, [1, 1024, 1, 448]> var_114_cast_fp16_22, tensor<fp16, [1, 1024, 1, 448]> var_114_cast_fp16_23 = split(axis = var_114_axis_0, split_sizes = tile_1, x = value_cache)[name = tensor<string, []>("op_114_cast_fp16")];
            tensor<int32, []> var_144 = const()[name = tensor<string, []>("op_144"), val = tensor<int32, []>(3)];
            tensor<int32, [1]> out_1_axes_0 = const()[name = tensor<string, []>("out_1_axes_0"), val = tensor<int32, [1]>([1])];
            tensor<fp16, []> var_169_to_fp16 = const()[name = tensor<string, []>("op_169_to_fp16"), val = tensor<fp16, []>(0x1.5p-17)];
            tensor<fp16, [1, 1024, 1, 1]> out_1_cast_fp16 = layer_norm(axes = out_1_axes_0, epsilon = var_169_to_fp16, x = inputs_1_cast_fp16)[name = tensor<string, []>("out_1_cast_fp16")];
            tensor<fp16, [1024]> obj_1_mean_0_to_fp16 = const()[name = tensor<string, []>("obj_1_mean_0_to_fp16"), val = tensor<fp16, [1024]>(BLOBFILE(path = tensor<string, []>("@model_path/weights/weight.bin"), offset = tensor<uint64, []>(107137216)))];
            tensor<fp16, [1024]> obj_1_variance_0_to_fp16 = const()[name = tensor<string, []>("obj_1_variance_0_to_fp16"), val = tensor<fp16, [1024]>(BLOBFILE(path = tensor<string, []>("@model_path/weights/weight.bin"), offset = tensor<uint64, []>(107139328)))];
            tensor<fp16, [1024]> obj_1_gamma_0_to_fp16 = const()[name = tensor<string, []>("obj_1_gamma_0_to_fp16"), val = tensor<fp16, [1024]>(BLOBFILE(path = tensor<string, []>("@model_path/weights/weight.bin"), offset = tensor<uint64, []>(107141440)))];
            tensor<fp16, [1024]> obj_1_beta_0_to_fp16 = const()[name = tensor<string, []>("obj_1_beta_0_to_fp16"), val = tensor<fp16, [1024]>(BLOBFILE(path = tensor<string, []>("@model_path/weights/weight.bin"), offset = tensor<uint64, []>(107143552)))];
            tensor<fp16, []> obj_1_epsilon_0_to_fp16 = const()[name = tensor<string, []>("obj_1_epsilon_0_to_fp16"), val = tensor<fp16, []>(0x1.5p-17)];
            tensor<fp16, [1, 1024, 1, 1]> obj_1_cast_fp16 = batch_norm(beta = obj_1_beta_0_to_fp16, epsilon = obj_1_epsilon_0_to_fp16, gamma = obj_1_gamma_0_to_fp16, mean = obj_1_mean_0_to_fp16, variance = obj_1_variance_0_to_fp16, x = out_1_cast_fp16)[name = tensor<string, []>("obj_1_cast_fp16")];
            tensor<string, []> query_1_pad_type_0 = const()[name = tensor<string, []>("query_1_pad_type_0"), val = tensor<string, []>("valid")];
            tensor<int32, [2]> query_1_strides_0 = const()[name = tensor<string, []>("query_1_strides_0"), val = tensor<int32, [2]>([1, 1])];
            tensor<int32, [4]> query_1_pad_0 = const()[name = tensor<string, []>("query_1_pad_0"), val = tensor<int32, [4]>([0, 0, 0, 0])];
            tensor<int32, [2]> query_1_dilations_0 = const()[name = tensor<string, []>("query_1_dilations_0"), val = tensor<int32, [2]>([1, 1])];
            tensor<int32, []> query_1_groups_0 = const()[name = tensor<string, []>("query_1_groups_0"), val = tensor<int32, []>(1)];
            tensor<fp16, [1024, 1024, 1, 1]> layers_0_self_attn_q_proj_weight_to_fp16 = const()[name = tensor<string, []>("layers_0_self_attn_q_proj_weight_to_fp16"), val = tensor<fp16, [1024, 1024, 1, 1]>(BLOBFILE(path = tensor<string, []>("@model_path/weights/weight.bin"), offset = tensor<uint64, []>(107145664)))];
            tensor<fp16, [1024]> layers_0_self_attn_q_proj_bias_to_fp16 = const()[name = tensor<string, []>("layers_0_self_attn_q_proj_bias_to_fp16"), val = tensor<fp16, [1024]>(BLOBFILE(path = tensor<string, []>("@model_path/weights/weight.bin"), offset = tensor<uint64, []>(109242880)))];
            tensor<fp16, [1, 1024, 1, 1]> query_1_cast_fp16 = conv(bias = layers_0_self_attn_q_proj_bias_to_fp16, dilations = query_1_dilations_0, groups = query_1_groups_0, pad = query_1_pad_0, pad_type = query_1_pad_type_0, strides = query_1_strides_0, weight = layers_0_self_attn_q_proj_weight_to_fp16, x = obj_1_cast_fp16)[name = tensor<string, []>("query_1_cast_fp16")];
            tensor<string, []> current_key_1_pad_type_0 = const()[name = tensor<string, []>("current_key_1_pad_type_0"), val = tensor<string, []>("valid")];
            tensor<int32, [2]> current_key_1_strides_0 = const()[name = tensor<string, []>("current_key_1_strides_0"), val = tensor<int32, [2]>([1, 1])];
            tensor<int32, [4]> current_key_1_pad_0 = const()[name = tensor<string, []>("current_key_1_pad_0"), val = tensor<int32, [4]>([0, 0, 0, 0])];
            tensor<int32, [2]> current_key_1_dilations_0 = const()[name = tensor<string, []>("current_key_1_dilations_0"), val = tensor<int32, [2]>([1, 1])];
            tensor<int32, []> current_key_1_groups_0 = const()[name = tensor<string, []>("current_key_1_groups_0"), val = tensor<int32, []>(1)];
            tensor<fp16, [1024, 1024, 1, 1]> layers_0_self_attn_k_proj_weight_to_fp16 = const()[name = tensor<string, []>("layers_0_self_attn_k_proj_weight_to_fp16"), val = tensor<fp16, [1024, 1024, 1, 1]>(BLOBFILE(path = tensor<string, []>("@model_path/weights/weight.bin"), offset = tensor<uint64, []>(109244992)))];
            tensor<fp16, [1, 1024, 1, 1]> current_key_1_cast_fp16 = conv(dilations = current_key_1_dilations_0, groups = current_key_1_groups_0, pad = current_key_1_pad_0, pad_type = current_key_1_pad_type_0, strides = current_key_1_strides_0, weight = layers_0_self_attn_k_proj_weight_to_fp16, x = obj_1_cast_fp16)[name = tensor<string, []>("current_key_1_cast_fp16")];
            tensor<string, []> current_value_1_pad_type_0 = const()[name = tensor<string, []>("current_value_1_pad_type_0"), val = tensor<string, []>("valid")];
            tensor<int32, [2]> current_value_1_strides_0 = const()[name = tensor<string, []>("current_value_1_strides_0"), val = tensor<int32, [2]>([1, 1])];
            tensor<int32, [4]> current_value_1_pad_0 = const()[name = tensor<string, []>("current_value_1_pad_0"), val = tensor<int32, [4]>([0, 0, 0, 0])];
            tensor<int32, [2]> current_value_1_dilations_0 = const()[name = tensor<string, []>("current_value_1_dilations_0"), val = tensor<int32, [2]>([1, 1])];
            tensor<int32, []> current_value_1_groups_0 = const()[name = tensor<string, []>("current_value_1_groups_0"), val = tensor<int32, []>(1)];
            tensor<fp16, [1024, 1024, 1, 1]> layers_0_self_attn_v_proj_weight_to_fp16 = const()[name = tensor<string, []>("layers_0_self_attn_v_proj_weight_to_fp16"), val = tensor<fp16, [1024, 1024, 1, 1]>(BLOBFILE(path = tensor<string, []>("@model_path/weights/weight.bin"), offset = tensor<uint64, []>(111342208)))];
            tensor<fp16, [1024]> layers_0_self_attn_v_proj_bias_to_fp16 = const()[name = tensor<string, []>("layers_0_self_attn_v_proj_bias_to_fp16"), val = tensor<fp16, [1024]>(BLOBFILE(path = tensor<string, []>("@model_path/weights/weight.bin"), offset = tensor<uint64, []>(113439424)))];
            tensor<fp16, [1, 1024, 1, 1]> current_value_1_cast_fp16 = conv(bias = layers_0_self_attn_v_proj_bias_to_fp16, dilations = current_value_1_dilations_0, groups = current_value_1_groups_0, pad = current_value_1_pad_0, pad_type = current_value_1_pad_type_0, strides = current_value_1_strides_0, weight = layers_0_self_attn_v_proj_weight_to_fp16, x = obj_1_cast_fp16)[name = tensor<string, []>("current_value_1_cast_fp16")];
            tensor<int32, [1]> var_204_axes_0 = const()[name = tensor<string, []>("op_204_axes_0"), val = tensor<int32, [1]>([1])];
            tensor<fp16, [1, 1, 448]> var_204_cast_fp16 = expand_dims(axes = var_204_axes_0, x = kv_cache_update_mask)[name = tensor<string, []>("op_204_cast_fp16")];
            tensor<int32, [1]> var_205_axes_0 = const()[name = tensor<string, []>("op_205_axes_0"), val = tensor<int32, [1]>([2])];
            tensor<fp16, [1, 1, 1, 448]> var_205_cast_fp16 = expand_dims(axes = var_205_axes_0, x = var_204_cast_fp16)[name = tensor<string, []>("op_205_cast_fp16")];
            tensor<fp16, []> var_145_to_fp16 = const()[name = tensor<string, []>("op_145_to_fp16"), val = tensor<fp16, []>(0x1p+0)];
            tensor<fp16, [1, 1, 1, 448]> var_207_cast_fp16 = sub(x = var_145_to_fp16, y = var_205_cast_fp16)[name = tensor<string, []>("op_207_cast_fp16")];
            tensor<fp16, [1, 1024, 1, 448]> var_208_cast_fp16 = mul(x = var_87_cast_fp16_0, y = var_207_cast_fp16)[name = tensor<string, []>("op_208_cast_fp16")];
            tensor<fp16, [1, 1024, 1, 448]> var_209_cast_fp16 = mul(x = current_key_1_cast_fp16, y = var_205_cast_fp16)[name = tensor<string, []>("op_209_cast_fp16")];
            tensor<fp16, [1, 1024, 1, 448]> key_1_cast_fp16 = add(x = var_208_cast_fp16, y = var_209_cast_fp16)[name = tensor<string, []>("key_1_cast_fp16")];
            tensor<fp16, [1, 1024, 1, 448]> var_212_cast_fp16 = mul(x = var_114_cast_fp16_0, y = var_207_cast_fp16)[name = tensor<string, []>("op_212_cast_fp16")];
            tensor<fp16, [1, 1024, 1, 448]> var_213_cast_fp16 = mul(x = current_value_1_cast_fp16, y = var_205_cast_fp16)[name = tensor<string, []>("op_213_cast_fp16")];
            tensor<fp16, [1, 1024, 1, 448]> value_1_cast_fp16 = add(x = var_212_cast_fp16, y = var_213_cast_fp16)[name = tensor<string, []>("value_1_cast_fp16")];
            tensor<int32, [4]> var_217 = const()[name = tensor<string, []>("op_217"), val = tensor<int32, [4]>([1, 16, 64, 1])];
            tensor<fp16, [1, 16, 64, 1]> mh_q_1_cast_fp16 = reshape(shape = var_217, x = query_1_cast_fp16)[name = tensor<string, []>("mh_q_1_cast_fp16")];
            tensor<fp16, []> var_219_to_fp16 = const()[name = tensor<string, []>("op_219_to_fp16"), val = tensor<fp16, []>(0x1p-3)];
            tensor<fp16, [1, 16, 64, 1]> var_220_cast_fp16 = mul(x = mh_q_1_cast_fp16, y = var_219_to_fp16)[name = tensor<string, []>("op_220_cast_fp16")];
            tensor<int32, [4]> var_223 = const()[name = tensor<string, []>("op_223"), val = tensor<int32, [4]>([1, 16, 64, 448])];
            tensor<fp16, [1, 16, 64, 448]> var_224_cast_fp16 = reshape(shape = var_223, x = key_1_cast_fp16)[name = tensor<string, []>("op_224_cast_fp16")];
            tensor<bool, []> mh_w_1_transpose_x_0 = const()[name = tensor<string, []>("mh_w_1_transpose_x_0"), val = tensor<bool, []>(true)];
            tensor<bool, []> mh_w_1_transpose_y_0 = const()[name = tensor<string, []>("mh_w_1_transpose_y_0"), val = tensor<bool, []>(false)];
            tensor<fp16, [1, 16, 1, 448]> mh_w_1_cast_fp16 = matmul(transpose_x = mh_w_1_transpose_x_0, transpose_y = mh_w_1_transpose_y_0, x = var_220_cast_fp16, y = var_224_cast_fp16)[name = tensor<string, []>("mh_w_1_cast_fp16")];
            tensor<int32, [1]> var_228_axes_0 = const()[name = tensor<string, []>("op_228_axes_0"), val = tensor<int32, [1]>([1])];
            tensor<fp16, [1, 1, 448]> var_228_cast_fp16 = expand_dims(axes = var_228_axes_0, x = decoder_key_padding_mask)[name = tensor<string, []>("op_228_cast_fp16")];
            tensor<int32, [1]> var_229_axes_0 = const()[name = tensor<string, []>("op_229_axes_0"), val = tensor<int32, [1]>([2])];
            tensor<fp16, [1, 1, 1, 448]> var_229_cast_fp16 = expand_dims(axes = var_229_axes_0, x = var_228_cast_fp16)[name = tensor<string, []>("op_229_cast_fp16")];
            tensor<fp16, [1, 16, 1, 448]> mh_w_3_cast_fp16 = add(x = mh_w_1_cast_fp16, y = var_229_cast_fp16)[name = tensor<string, []>("mh_w_3_cast_fp16")];
            tensor<fp16, [1, 16, 1, 448]> var_232_cast_fp16 = softmax(axis = var_144, x = mh_w_3_cast_fp16)[name = tensor<string, []>("op_232_cast_fp16")];
            tensor<int32, [4]> var_233 = const()[name = tensor<string, []>("op_233"), val = tensor<int32, [4]>([1, 16, 64, 448])];
            tensor<fp16, [1, 16, 64, 448]> var_234_cast_fp16 = reshape(shape = var_233, x = value_1_cast_fp16)[name = tensor<string, []>("op_234_cast_fp16")];
            tensor<bool, []> attn_1_transpose_x_0 = const()[name = tensor<string, []>("attn_1_transpose_x_0"), val = tensor<bool, []>(false)];
            tensor<bool, []> attn_1_transpose_y_0 = const()[name = tensor<string, []>("attn_1_transpose_y_0"), val = tensor<bool, []>(true)];
            tensor<fp16, [1, 16, 64, 1]> attn_1_cast_fp16 = matmul(transpose_x = attn_1_transpose_x_0, transpose_y = attn_1_transpose_y_0, x = var_234_cast_fp16, y = var_232_cast_fp16)[name = tensor<string, []>("attn_1_cast_fp16")];
            tensor<int32, [4]> var_237 = const()[name = tensor<string, []>("op_237"), val = tensor<int32, [4]>([1, 1024, 1, 1])];
            tensor<fp16, [1, 1024, 1, 1]> input_1_cast_fp16 = reshape(shape = var_237, x = attn_1_cast_fp16)[name = tensor<string, []>("input_1_cast_fp16")];
            tensor<string, []> obj_7_pad_type_0 = const()[name = tensor<string, []>("obj_7_pad_type_0"), val = tensor<string, []>("valid")];
            tensor<int32, [2]> obj_7_strides_0 = const()[name = tensor<string, []>("obj_7_strides_0"), val = tensor<int32, [2]>([1, 1])];
            tensor<int32, [4]> obj_7_pad_0 = const()[name = tensor<string, []>("obj_7_pad_0"), val = tensor<int32, [4]>([0, 0, 0, 0])];
            tensor<int32, [2]> obj_7_dilations_0 = const()[name = tensor<string, []>("obj_7_dilations_0"), val = tensor<int32, [2]>([1, 1])];
            tensor<int32, []> obj_7_groups_0 = const()[name = tensor<string, []>("obj_7_groups_0"), val = tensor<int32, []>(1)];
            tensor<fp16, [1024, 1024, 1, 1]> layers_0_self_attn_o_proj_weight_to_fp16 = const()[name = tensor<string, []>("layers_0_self_attn_o_proj_weight_to_fp16"), val = tensor<fp16, [1024, 1024, 1, 1]>(BLOBFILE(path = tensor<string, []>("@model_path/weights/weight.bin"), offset = tensor<uint64, []>(113441536)))];
            tensor<fp16, [1024]> layers_0_self_attn_o_proj_bias_to_fp16 = const()[name = tensor<string, []>("layers_0_self_attn_o_proj_bias_to_fp16"), val = tensor<fp16, [1024]>(BLOBFILE(path = tensor<string, []>("@model_path/weights/weight.bin"), offset = tensor<uint64, []>(115538752)))];
            tensor<fp16, [1, 1024, 1, 1]> obj_7_cast_fp16 = conv(bias = layers_0_self_attn_o_proj_bias_to_fp16, dilations = obj_7_dilations_0, groups = obj_7_groups_0, pad = obj_7_pad_0, pad_type = obj_7_pad_type_0, strides = obj_7_strides_0, weight = layers_0_self_attn_o_proj_weight_to_fp16, x = input_1_cast_fp16)[name = tensor<string, []>("obj_7_cast_fp16")];
            tensor<fp16, [1, 1024, 1, 1]> inputs_3_cast_fp16 = add(x = inputs_1_cast_fp16, y = obj_7_cast_fp16)[name = tensor<string, []>("inputs_3_cast_fp16")];
            tensor<int32, [1]> out_3_axes_0 = const()[name = tensor<string, []>("out_3_axes_0"), val = tensor<int32, [1]>([1])];
            tensor<fp16, []> var_259_to_fp16 = const()[name = tensor<string, []>("op_259_to_fp16"), val = tensor<fp16, []>(0x1.5p-17)];
            tensor<fp16, [1, 1024, 1, 1]> out_3_cast_fp16 = layer_norm(axes = out_3_axes_0, epsilon = var_259_to_fp16, x = inputs_3_cast_fp16)[name = tensor<string, []>("out_3_cast_fp16")];
            tensor<fp16, [1024]> obj_9_gamma_0_to_fp16 = const()[name = tensor<string, []>("obj_9_gamma_0_to_fp16"), val = tensor<fp16, [1024]>(BLOBFILE(path = tensor<string, []>("@model_path/weights/weight.bin"), offset = tensor<uint64, []>(115540864)))];
            tensor<fp16, [1024]> obj_9_beta_0_to_fp16 = const()[name = tensor<string, []>("obj_9_beta_0_to_fp16"), val = tensor<fp16, [1024]>(BLOBFILE(path = tensor<string, []>("@model_path/weights/weight.bin"), offset = tensor<uint64, []>(115542976)))];
            tensor<fp16, []> obj_9_epsilon_0_to_fp16 = const()[name = tensor<string, []>("obj_9_epsilon_0_to_fp16"), val = tensor<fp16, []>(0x1.5p-17)];
            tensor<fp16, [1, 1024, 1, 1]> obj_9_cast_fp16 = batch_norm(beta = obj_9_beta_0_to_fp16, epsilon = obj_9_epsilon_0_to_fp16, gamma = obj_9_gamma_0_to_fp16, mean = obj_1_mean_0_to_fp16, variance = obj_1_variance_0_to_fp16, x = out_3_cast_fp16)[name = tensor<string, []>("obj_9_cast_fp16")];
            tensor<string, []> query_3_pad_type_0 = const()[name = tensor<string, []>("query_3_pad_type_0"), val = tensor<string, []>("valid")];
            tensor<int32, [2]> query_3_strides_0 = const()[name = tensor<string, []>("query_3_strides_0"), val = tensor<int32, [2]>([1, 1])];
            tensor<int32, [4]> query_3_pad_0 = const()[name = tensor<string, []>("query_3_pad_0"), val = tensor<int32, [4]>([0, 0, 0, 0])];
            tensor<int32, [2]> query_3_dilations_0 = const()[name = tensor<string, []>("query_3_dilations_0"), val = tensor<int32, [2]>([1, 1])];
            tensor<int32, []> query_3_groups_0 = const()[name = tensor<string, []>("query_3_groups_0"), val = tensor<int32, []>(1)];
            tensor<fp16, [1024, 1024, 1, 1]> layers_0_encoder_attn_q_proj_weight_to_fp16 = const()[name = tensor<string, []>("layers_0_encoder_attn_q_proj_weight_to_fp16"), val = tensor<fp16, [1024, 1024, 1, 1]>(BLOBFILE(path = tensor<string, []>("@model_path/weights/weight.bin"), offset = tensor<uint64, []>(115545088)))];
            tensor<fp16, [1024]> layers_0_encoder_attn_q_proj_bias_to_fp16 = const()[name = tensor<string, []>("layers_0_encoder_attn_q_proj_bias_to_fp16"), val = tensor<fp16, [1024]>(BLOBFILE(path = tensor<string, []>("@model_path/weights/weight.bin"), offset = tensor<uint64, []>(117642304)))];
            tensor<fp16, [1, 1024, 1, 1]> query_3_cast_fp16 = conv(bias = layers_0_encoder_attn_q_proj_bias_to_fp16, dilations = query_3_dilations_0, groups = query_3_groups_0, pad = query_3_pad_0, pad_type = query_3_pad_type_0, strides = query_3_strides_0, weight = layers_0_encoder_attn_q_proj_weight_to_fp16, x = obj_9_cast_fp16)[name = tensor<string, []>("query_3_cast_fp16")];
            tensor<string, []> key_3_pad_type_0 = const()[name = tensor<string, []>("key_3_pad_type_0"), val = tensor<string, []>("valid")];
            tensor<int32, [2]> key_3_strides_0 = const()[name = tensor<string, []>("key_3_strides_0"), val = tensor<int32, [2]>([1, 1])];
            tensor<int32, [4]> key_3_pad_0 = const()[name = tensor<string, []>("key_3_pad_0"), val = tensor<int32, [4]>([0, 0, 0, 0])];
            tensor<int32, [2]> key_3_dilations_0 = const()[name = tensor<string, []>("key_3_dilations_0"), val = tensor<int32, [2]>([1, 1])];
            tensor<int32, []> key_3_groups_0 = const()[name = tensor<string, []>("key_3_groups_0"), val = tensor<int32, []>(1)];
            tensor<fp16, [1024, 1024, 1, 1]> layers_0_encoder_attn_k_proj_weight_to_fp16 = const()[name = tensor<string, []>("layers_0_encoder_attn_k_proj_weight_to_fp16"), val = tensor<fp16, [1024, 1024, 1, 1]>(BLOBFILE(path = tensor<string, []>("@model_path/weights/weight.bin"), offset = tensor<uint64, []>(117644416)))];
            tensor<fp16, [1, 1024, 1, 1500]> key_3_cast_fp16 = conv(dilations = key_3_dilations_0, groups = key_3_groups_0, pad = key_3_pad_0, pad_type = key_3_pad_type_0, strides = key_3_strides_0, weight = layers_0_encoder_attn_k_proj_weight_to_fp16, x = encoder_output_embeds)[name = tensor<string, []>("key_3_cast_fp16")];
            tensor<string, []> value_3_pad_type_0 = const()[name = tensor<string, []>("value_3_pad_type_0"), val = tensor<string, []>("valid")];
            tensor<int32, [2]> value_3_strides_0 = const()[name = tensor<string, []>("value_3_strides_0"), val = tensor<int32, [2]>([1, 1])];
            tensor<int32, [4]> value_3_pad_0 = const()[name = tensor<string, []>("value_3_pad_0"), val = tensor<int32, [4]>([0, 0, 0, 0])];
            tensor<int32, [2]> value_3_dilations_0 = const()[name = tensor<string, []>("value_3_dilations_0"), val = tensor<int32, [2]>([1, 1])];
            tensor<int32, []> value_3_groups_0 = const()[name = tensor<string, []>("value_3_groups_0"), val = tensor<int32, []>(1)];
            tensor<fp16, [1024, 1024, 1, 1]> layers_0_encoder_attn_v_proj_weight_to_fp16 = const()[name = tensor<string, []>("layers_0_encoder_attn_v_proj_weight_to_fp16"), val = tensor<fp16, [1024, 1024, 1, 1]>(BLOBFILE(path = tensor<string, []>("@model_path/weights/weight.bin"), offset = tensor<uint64, []>(119741632)))];
            tensor<fp16, [1024]> layers_0_encoder_attn_v_proj_bias_to_fp16 = const()[name = tensor<string, []>("layers_0_encoder_attn_v_proj_bias_to_fp16"), val = tensor<fp16, [1024]>(BLOBFILE(path = tensor<string, []>("@model_path/weights/weight.bin"), offset = tensor<uint64, []>(121838848)))];
            tensor<fp16, [1, 1024, 1, 1500]> value_3_cast_fp16 = conv(bias = layers_0_encoder_attn_v_proj_bias_to_fp16, dilations = value_3_dilations_0, groups = value_3_groups_0, pad = value_3_pad_0, pad_type = value_3_pad_type_0, strides = value_3_strides_0, weight = layers_0_encoder_attn_v_proj_weight_to_fp16, x = encoder_output_embeds)[name = tensor<string, []>("value_3_cast_fp16")];
            tensor<int32, [4]> var_295 = const()[name = tensor<string, []>("op_295"), val = tensor<int32, [4]>([1, 16, 64, 1])];
            tensor<fp16, [1, 16, 64, 1]> mh_q_3_cast_fp16 = reshape(shape = var_295, x = query_3_cast_fp16)[name = tensor<string, []>("mh_q_3_cast_fp16")];
            tensor<fp16, []> var_297_to_fp16 = const()[name = tensor<string, []>("op_297_to_fp16"), val = tensor<fp16, []>(0x1p-3)];
            tensor<fp16, [1, 16, 64, 1]> var_298_cast_fp16 = mul(x = mh_q_3_cast_fp16, y = var_297_to_fp16)[name = tensor<string, []>("op_298_cast_fp16")];
            tensor<int32, [4]> var_301 = const()[name = tensor<string, []>("op_301"), val = tensor<int32, [4]>([1, 16, 64, 1500])];
            tensor<fp16, [1, 16, 64, 1500]> var_302_cast_fp16 = reshape(shape = var_301, x = key_3_cast_fp16)[name = tensor<string, []>("op_302_cast_fp16")];
            tensor<bool, []> mh_w_5_transpose_x_0 = const()[name = tensor<string, []>("mh_w_5_transpose_x_0"), val = tensor<bool, []>(true)];
            tensor<bool, []> mh_w_5_transpose_y_0 = const()[name = tensor<string, []>("mh_w_5_transpose_y_0"), val = tensor<bool, []>(false)];
            tensor<fp16, [1, 16, 1, 1500]> mh_w_5_cast_fp16 = matmul(transpose_x = mh_w_5_transpose_x_0, transpose_y = mh_w_5_transpose_y_0, x = var_298_cast_fp16, y = var_302_cast_fp16)[name = tensor<string, []>("mh_w_5_cast_fp16")];
            tensor<fp16, [1, 16, 1, 1500]> obj_13_cast_fp16 = softmax(axis = var_144, x = mh_w_5_cast_fp16)[name = tensor<string, []>("obj_13_cast_fp16")];
            tensor<int32, [4]> var_306 = const()[name = tensor<string, []>("op_306"), val = tensor<int32, [4]>([1, 16, 64, 1500])];
            tensor<fp16, [1, 16, 64, 1500]> var_307_cast_fp16 = reshape(shape = var_306, x = value_3_cast_fp16)[name = tensor<string, []>("op_307_cast_fp16")];
            tensor<bool, []> attn_3_transpose_x_0 = const()[name = tensor<string, []>("attn_3_transpose_x_0"), val = tensor<bool, []>(false)];
            tensor<bool, []> attn_3_transpose_y_0 = const()[name = tensor<string, []>("attn_3_transpose_y_0"), val = tensor<bool, []>(true)];
            tensor<fp16, [1, 16, 64, 1]> attn_3_cast_fp16 = matmul(transpose_x = attn_3_transpose_x_0, transpose_y = attn_3_transpose_y_0, x = var_307_cast_fp16, y = obj_13_cast_fp16)[name = tensor<string, []>("attn_3_cast_fp16")];
            tensor<int32, [4]> var_310 = const()[name = tensor<string, []>("op_310"), val = tensor<int32, [4]>([1, 1024, 1, 1])];
            tensor<fp16, [1, 1024, 1, 1]> input_3_cast_fp16 = reshape(shape = var_310, x = attn_3_cast_fp16)[name = tensor<string, []>("input_3_cast_fp16")];
            tensor<string, []> obj_11_pad_type_0 = const()[name = tensor<string, []>("obj_11_pad_type_0"), val = tensor<string, []>("valid")];
            tensor<int32, [2]> obj_11_strides_0 = const()[name = tensor<string, []>("obj_11_strides_0"), val = tensor<int32, [2]>([1, 1])];
            tensor<int32, [4]> obj_11_pad_0 = const()[name = tensor<string, []>("obj_11_pad_0"), val = tensor<int32, [4]>([0, 0, 0, 0])];
            tensor<int32, [2]> obj_11_dilations_0 = const()[name = tensor<string, []>("obj_11_dilations_0"), val = tensor<int32, [2]>([1, 1])];
            tensor<int32, []> obj_11_groups_0 = const()[name = tensor<string, []>("obj_11_groups_0"), val = tensor<int32, []>(1)];
            tensor<fp16, [1024, 1024, 1, 1]> layers_0_encoder_attn_o_proj_weight_to_fp16 = const()[name = tensor<string, []>("layers_0_encoder_attn_o_proj_weight_to_fp16"), val = tensor<fp16, [1024, 1024, 1, 1]>(BLOBFILE(path = tensor<string, []>("@model_path/weights/weight.bin"), offset = tensor<uint64, []>(121840960)))];
            tensor<fp16, [1024]> layers_0_encoder_attn_o_proj_bias_to_fp16 = const()[name = tensor<string, []>("layers_0_encoder_attn_o_proj_bias_to_fp16"), val = tensor<fp16, [1024]>(BLOBFILE(path = tensor<string, []>("@model_path/weights/weight.bin"), offset = tensor<uint64, []>(123938176)))];
            tensor<fp16, [1, 1024, 1, 1]> obj_11_cast_fp16 = conv(bias = layers_0_encoder_attn_o_proj_bias_to_fp16, dilations = obj_11_dilations_0, groups = obj_11_groups_0, pad = obj_11_pad_0, pad_type = obj_11_pad_type_0, strides = obj_11_strides_0, weight = layers_0_encoder_attn_o_proj_weight_to_fp16, x = input_3_cast_fp16)[name = tensor<string, []>("obj_11_cast_fp16")];
            tensor<fp16, [1, 1024, 1, 1]> inputs_5_cast_fp16 = add(x = inputs_3_cast_fp16, y = obj_11_cast_fp16)[name = tensor<string, []>("inputs_5_cast_fp16")];
            tensor<int32, [1]> out_5_axes_0 = const()[name = tensor<string, []>("out_5_axes_0"), val = tensor<int32, [1]>([1])];
            tensor<fp16, []> var_328_to_fp16 = const()[name = tensor<string, []>("op_328_to_fp16"), val = tensor<fp16, []>(0x1.5p-17)];
            tensor<fp16, [1, 1024, 1, 1]> out_5_cast_fp16 = layer_norm(axes = out_5_axes_0, epsilon = var_328_to_fp16, x = inputs_5_cast_fp16)[name = tensor<string, []>("out_5_cast_fp16")];
            tensor<fp16, [1024]> input_5_gamma_0_to_fp16 = const()[name = tensor<string, []>("input_5_gamma_0_to_fp16"), val = tensor<fp16, [1024]>(BLOBFILE(path = tensor<string, []>("@model_path/weights/weight.bin"), offset = tensor<uint64, []>(123940288)))];
            tensor<fp16, [1024]> input_5_beta_0_to_fp16 = const()[name = tensor<string, []>("input_5_beta_0_to_fp16"), val = tensor<fp16, [1024]>(BLOBFILE(path = tensor<string, []>("@model_path/weights/weight.bin"), offset = tensor<uint64, []>(123942400)))];
            tensor<fp16, []> input_5_epsilon_0_to_fp16 = const()[name = tensor<string, []>("input_5_epsilon_0_to_fp16"), val = tensor<fp16, []>(0x1.5p-17)];
            tensor<fp16, [1, 1024, 1, 1]> input_5_cast_fp16 = batch_norm(beta = input_5_beta_0_to_fp16, epsilon = input_5_epsilon_0_to_fp16, gamma = input_5_gamma_0_to_fp16, mean = obj_1_mean_0_to_fp16, variance = obj_1_variance_0_to_fp16, x = out_5_cast_fp16)[name = tensor<string, []>("input_5_cast_fp16")];
            tensor<string, []> input_7_pad_type_0 = const()[name = tensor<string, []>("input_7_pad_type_0"), val = tensor<string, []>("valid")];
            tensor<int32, [2]> input_7_strides_0 = const()[name = tensor<string, []>("input_7_strides_0"), val = tensor<int32, [2]>([1, 1])];
            tensor<int32, [4]> input_7_pad_0 = const()[name = tensor<string, []>("input_7_pad_0"), val = tensor<int32, [4]>([0, 0, 0, 0])];
            tensor<int32, [2]> input_7_dilations_0 = const()[name = tensor<string, []>("input_7_dilations_0"), val = tensor<int32, [2]>([1, 1])];
            tensor<int32, []> input_7_groups_0 = const()[name = tensor<string, []>("input_7_groups_0"), val = tensor<int32, []>(1)];
            tensor<fp16, [4096, 1024, 1, 1]> layers_0_fc1_weight_to_fp16 = const()[name = tensor<string, []>("layers_0_fc1_weight_to_fp16"), val = tensor<fp16, [4096, 1024, 1, 1]>(BLOBFILE(path = tensor<string, []>("@model_path/weights/weight.bin"), offset = tensor<uint64, []>(123944512)))];
            tensor<fp16, [4096]> layers_0_fc1_bias_to_fp16 = const()[name = tensor<string, []>("layers_0_fc1_bias_to_fp16"), val = tensor<fp16, [4096]>(BLOBFILE(path = tensor<string, []>("@model_path/weights/weight.bin"), offset = tensor<uint64, []>(132333184)))];
            tensor<fp16, [1, 4096, 1, 1]> input_7_cast_fp16 = conv(bias = layers_0_fc1_bias_to_fp16, dilations = input_7_dilations_0, groups = input_7_groups_0, pad = input_7_pad_0, pad_type = input_7_pad_type_0, strides = input_7_strides_0, weight = layers_0_fc1_weight_to_fp16, x = input_5_cast_fp16)[name = tensor<string, []>("input_7_cast_fp16")];
            tensor<string, []> input_9_mode_0 = const()[name = tensor<string, []>("input_9_mode_0"), val = tensor<string, []>("EXACT")];
            tensor<fp16, [1, 4096, 1, 1]> input_9_cast_fp16 = gelu(mode = input_9_mode_0, x = input_7_cast_fp16)[name = tensor<string, []>("input_9_cast_fp16")];
            tensor<string, []> hidden_states_3_pad_type_0 = const()[name = tensor<string, []>("hidden_states_3_pad_type_0"), val = tensor<string, []>("valid")];
            tensor<int32, [2]> hidden_states_3_strides_0 = const()[name = tensor<string, []>("hidden_states_3_strides_0"), val = tensor<int32, [2]>([1, 1])];
            tensor<int32, [4]> hidden_states_3_pad_0 = const()[name = tensor<string, []>("hidden_states_3_pad_0"), val = tensor<int32, [4]>([0, 0, 0, 0])];
            tensor<int32, [2]> hidden_states_3_dilations_0 = const()[name = tensor<string, []>("hidden_states_3_dilations_0"), val = tensor<int32, [2]>([1, 1])];
            tensor<int32, []> hidden_states_3_groups_0 = const()[name = tensor<string, []>("hidden_states_3_groups_0"), val = tensor<int32, []>(1)];
            tensor<fp16, [1024, 4096, 1, 1]> layers_0_fc2_weight_to_fp16 = const()[name = tensor<string, []>("layers_0_fc2_weight_to_fp16"), val = tensor<fp16, [1024, 4096, 1, 1]>(BLOBFILE(path = tensor<string, []>("@model_path/weights/weight.bin"), offset = tensor<uint64, []>(132341440)))];
            tensor<fp16, [1024]> layers_0_fc2_bias_to_fp16 = const()[name = tensor<string, []>("layers_0_fc2_bias_to_fp16"), val = tensor<fp16, [1024]>(BLOBFILE(path = tensor<string, []>("@model_path/weights/weight.bin"), offset = tensor<uint64, []>(140730112)))];
            tensor<fp16, [1, 1024, 1, 1]> hidden_states_3_cast_fp16 = conv(bias = layers_0_fc2_bias_to_fp16, dilations = hidden_states_3_dilations_0, groups = hidden_states_3_groups_0, pad = hidden_states_3_pad_0, pad_type = hidden_states_3_pad_type_0, strides = hidden_states_3_strides_0, weight = layers_0_fc2_weight_to_fp16, x = input_9_cast_fp16)[name = tensor<string, []>("hidden_states_3_cast_fp16")];
            tensor<fp16, [1, 1024, 1, 1]> inputs_7_cast_fp16 = add(x = inputs_5_cast_fp16, y = hidden_states_3_cast_fp16)[name = tensor<string, []>("inputs_7_cast_fp16")];
            tensor<int32, []> var_363 = const()[name = tensor<string, []>("op_363"), val = tensor<int32, []>(3)];
            tensor<int32, [1]> out_7_axes_0 = const()[name = tensor<string, []>("out_7_axes_0"), val = tensor<int32, [1]>([1])];
            tensor<fp16, []> var_388_to_fp16 = const()[name = tensor<string, []>("op_388_to_fp16"), val = tensor<fp16, []>(0x1.5p-17)];
            tensor<fp16, [1, 1024, 1, 1]> out_7_cast_fp16 = layer_norm(axes = out_7_axes_0, epsilon = var_388_to_fp16, x = inputs_7_cast_fp16)[name = tensor<string, []>("out_7_cast_fp16")];
            tensor<fp16, [1024]> obj_15_gamma_0_to_fp16 = const()[name = tensor<string, []>("obj_15_gamma_0_to_fp16"), val = tensor<fp16, [1024]>(BLOBFILE(path = tensor<string, []>("@model_path/weights/weight.bin"), offset = tensor<uint64, []>(140732224)))];
            tensor<fp16, [1024]> obj_15_beta_0_to_fp16 = const()[name = tensor<string, []>("obj_15_beta_0_to_fp16"), val = tensor<fp16, [1024]>(BLOBFILE(path = tensor<string, []>("@model_path/weights/weight.bin"), offset = tensor<uint64, []>(140734336)))];
            tensor<fp16, []> obj_15_epsilon_0_to_fp16 = const()[name = tensor<string, []>("obj_15_epsilon_0_to_fp16"), val = tensor<fp16, []>(0x1.5p-17)];
            tensor<fp16, [1, 1024, 1, 1]> obj_15_cast_fp16 = batch_norm(beta = obj_15_beta_0_to_fp16, epsilon = obj_15_epsilon_0_to_fp16, gamma = obj_15_gamma_0_to_fp16, mean = obj_1_mean_0_to_fp16, variance = obj_1_variance_0_to_fp16, x = out_7_cast_fp16)[name = tensor<string, []>("obj_15_cast_fp16")];
            tensor<string, []> query_5_pad_type_0 = const()[name = tensor<string, []>("query_5_pad_type_0"), val = tensor<string, []>("valid")];
            tensor<int32, [2]> query_5_strides_0 = const()[name = tensor<string, []>("query_5_strides_0"), val = tensor<int32, [2]>([1, 1])];
            tensor<int32, [4]> query_5_pad_0 = const()[name = tensor<string, []>("query_5_pad_0"), val = tensor<int32, [4]>([0, 0, 0, 0])];
            tensor<int32, [2]> query_5_dilations_0 = const()[name = tensor<string, []>("query_5_dilations_0"), val = tensor<int32, [2]>([1, 1])];
            tensor<int32, []> query_5_groups_0 = const()[name = tensor<string, []>("query_5_groups_0"), val = tensor<int32, []>(1)];
            tensor<fp16, [1024, 1024, 1, 1]> layers_1_self_attn_q_proj_weight_to_fp16 = const()[name = tensor<string, []>("layers_1_self_attn_q_proj_weight_to_fp16"), val = tensor<fp16, [1024, 1024, 1, 1]>(BLOBFILE(path = tensor<string, []>("@model_path/weights/weight.bin"), offset = tensor<uint64, []>(140736448)))];
            tensor<fp16, [1024]> layers_1_self_attn_q_proj_bias_to_fp16 = const()[name = tensor<string, []>("layers_1_self_attn_q_proj_bias_to_fp16"), val = tensor<fp16, [1024]>(BLOBFILE(path = tensor<string, []>("@model_path/weights/weight.bin"), offset = tensor<uint64, []>(142833664)))];
            tensor<fp16, [1, 1024, 1, 1]> query_5_cast_fp16 = conv(bias = layers_1_self_attn_q_proj_bias_to_fp16, dilations = query_5_dilations_0, groups = query_5_groups_0, pad = query_5_pad_0, pad_type = query_5_pad_type_0, strides = query_5_strides_0, weight = layers_1_self_attn_q_proj_weight_to_fp16, x = obj_15_cast_fp16)[name = tensor<string, []>("query_5_cast_fp16")];
            tensor<string, []> current_key_3_pad_type_0 = const()[name = tensor<string, []>("current_key_3_pad_type_0"), val = tensor<string, []>("valid")];
            tensor<int32, [2]> current_key_3_strides_0 = const()[name = tensor<string, []>("current_key_3_strides_0"), val = tensor<int32, [2]>([1, 1])];
            tensor<int32, [4]> current_key_3_pad_0 = const()[name = tensor<string, []>("current_key_3_pad_0"), val = tensor<int32, [4]>([0, 0, 0, 0])];
            tensor<int32, [2]> current_key_3_dilations_0 = const()[name = tensor<string, []>("current_key_3_dilations_0"), val = tensor<int32, [2]>([1, 1])];
            tensor<int32, []> current_key_3_groups_0 = const()[name = tensor<string, []>("current_key_3_groups_0"), val = tensor<int32, []>(1)];
            tensor<fp16, [1024, 1024, 1, 1]> layers_1_self_attn_k_proj_weight_to_fp16 = const()[name = tensor<string, []>("layers_1_self_attn_k_proj_weight_to_fp16"), val = tensor<fp16, [1024, 1024, 1, 1]>(BLOBFILE(path = tensor<string, []>("@model_path/weights/weight.bin"), offset = tensor<uint64, []>(142835776)))];
            tensor<fp16, [1, 1024, 1, 1]> current_key_3_cast_fp16 = conv(dilations = current_key_3_dilations_0, groups = current_key_3_groups_0, pad = current_key_3_pad_0, pad_type = current_key_3_pad_type_0, strides = current_key_3_strides_0, weight = layers_1_self_attn_k_proj_weight_to_fp16, x = obj_15_cast_fp16)[name = tensor<string, []>("current_key_3_cast_fp16")];
            tensor<string, []> current_value_3_pad_type_0 = const()[name = tensor<string, []>("current_value_3_pad_type_0"), val = tensor<string, []>("valid")];
            tensor<int32, [2]> current_value_3_strides_0 = const()[name = tensor<string, []>("current_value_3_strides_0"), val = tensor<int32, [2]>([1, 1])];
            tensor<int32, [4]> current_value_3_pad_0 = const()[name = tensor<string, []>("current_value_3_pad_0"), val = tensor<int32, [4]>([0, 0, 0, 0])];
            tensor<int32, [2]> current_value_3_dilations_0 = const()[name = tensor<string, []>("current_value_3_dilations_0"), val = tensor<int32, [2]>([1, 1])];
            tensor<int32, []> current_value_3_groups_0 = const()[name = tensor<string, []>("current_value_3_groups_0"), val = tensor<int32, []>(1)];
            tensor<fp16, [1024, 1024, 1, 1]> layers_1_self_attn_v_proj_weight_to_fp16 = const()[name = tensor<string, []>("layers_1_self_attn_v_proj_weight_to_fp16"), val = tensor<fp16, [1024, 1024, 1, 1]>(BLOBFILE(path = tensor<string, []>("@model_path/weights/weight.bin"), offset = tensor<uint64, []>(144932992)))];
            tensor<fp16, [1024]> layers_1_self_attn_v_proj_bias_to_fp16 = const()[name = tensor<string, []>("layers_1_self_attn_v_proj_bias_to_fp16"), val = tensor<fp16, [1024]>(BLOBFILE(path = tensor<string, []>("@model_path/weights/weight.bin"), offset = tensor<uint64, []>(147030208)))];
            tensor<fp16, [1, 1024, 1, 1]> current_value_3_cast_fp16 = conv(bias = layers_1_self_attn_v_proj_bias_to_fp16, dilations = current_value_3_dilations_0, groups = current_value_3_groups_0, pad = current_value_3_pad_0, pad_type = current_value_3_pad_type_0, strides = current_value_3_strides_0, weight = layers_1_self_attn_v_proj_weight_to_fp16, x = obj_15_cast_fp16)[name = tensor<string, []>("current_value_3_cast_fp16")];
            tensor<fp16, [1, 1024, 1, 448]> var_427_cast_fp16 = mul(x = var_87_cast_fp16_1, y = var_207_cast_fp16)[name = tensor<string, []>("op_427_cast_fp16")];
            tensor<fp16, [1, 1024, 1, 448]> var_428_cast_fp16 = mul(x = current_key_3_cast_fp16, y = var_205_cast_fp16)[name = tensor<string, []>("op_428_cast_fp16")];
            tensor<fp16, [1, 1024, 1, 448]> key_5_cast_fp16 = add(x = var_427_cast_fp16, y = var_428_cast_fp16)[name = tensor<string, []>("key_5_cast_fp16")];
            tensor<fp16, [1, 1024, 1, 448]> var_431_cast_fp16 = mul(x = var_114_cast_fp16_1, y = var_207_cast_fp16)[name = tensor<string, []>("op_431_cast_fp16")];
            tensor<fp16, [1, 1024, 1, 448]> var_432_cast_fp16 = mul(x = current_value_3_cast_fp16, y = var_205_cast_fp16)[name = tensor<string, []>("op_432_cast_fp16")];
            tensor<fp16, [1, 1024, 1, 448]> value_5_cast_fp16 = add(x = var_431_cast_fp16, y = var_432_cast_fp16)[name = tensor<string, []>("value_5_cast_fp16")];
            tensor<int32, [4]> var_436 = const()[name = tensor<string, []>("op_436"), val = tensor<int32, [4]>([1, 16, 64, 1])];
            tensor<fp16, [1, 16, 64, 1]> mh_q_5_cast_fp16 = reshape(shape = var_436, x = query_5_cast_fp16)[name = tensor<string, []>("mh_q_5_cast_fp16")];
            tensor<fp16, []> var_438_to_fp16 = const()[name = tensor<string, []>("op_438_to_fp16"), val = tensor<fp16, []>(0x1p-3)];
            tensor<fp16, [1, 16, 64, 1]> var_439_cast_fp16 = mul(x = mh_q_5_cast_fp16, y = var_438_to_fp16)[name = tensor<string, []>("op_439_cast_fp16")];
            tensor<int32, [4]> var_442 = const()[name = tensor<string, []>("op_442"), val = tensor<int32, [4]>([1, 16, 64, 448])];
            tensor<fp16, [1, 16, 64, 448]> var_443_cast_fp16 = reshape(shape = var_442, x = key_5_cast_fp16)[name = tensor<string, []>("op_443_cast_fp16")];
            tensor<bool, []> mh_w_7_transpose_x_0 = const()[name = tensor<string, []>("mh_w_7_transpose_x_0"), val = tensor<bool, []>(true)];
            tensor<bool, []> mh_w_7_transpose_y_0 = const()[name = tensor<string, []>("mh_w_7_transpose_y_0"), val = tensor<bool, []>(false)];
            tensor<fp16, [1, 16, 1, 448]> mh_w_7_cast_fp16 = matmul(transpose_x = mh_w_7_transpose_x_0, transpose_y = mh_w_7_transpose_y_0, x = var_439_cast_fp16, y = var_443_cast_fp16)[name = tensor<string, []>("mh_w_7_cast_fp16")];
            tensor<fp16, [1, 16, 1, 448]> mh_w_9_cast_fp16 = add(x = mh_w_7_cast_fp16, y = var_229_cast_fp16)[name = tensor<string, []>("mh_w_9_cast_fp16")];
            tensor<fp16, [1, 16, 1, 448]> var_451_cast_fp16 = softmax(axis = var_363, x = mh_w_9_cast_fp16)[name = tensor<string, []>("op_451_cast_fp16")];
            tensor<int32, [4]> var_452 = const()[name = tensor<string, []>("op_452"), val = tensor<int32, [4]>([1, 16, 64, 448])];
            tensor<fp16, [1, 16, 64, 448]> var_453_cast_fp16 = reshape(shape = var_452, x = value_5_cast_fp16)[name = tensor<string, []>("op_453_cast_fp16")];
            tensor<bool, []> attn_5_transpose_x_0 = const()[name = tensor<string, []>("attn_5_transpose_x_0"), val = tensor<bool, []>(false)];
            tensor<bool, []> attn_5_transpose_y_0 = const()[name = tensor<string, []>("attn_5_transpose_y_0"), val = tensor<bool, []>(true)];
            tensor<fp16, [1, 16, 64, 1]> attn_5_cast_fp16 = matmul(transpose_x = attn_5_transpose_x_0, transpose_y = attn_5_transpose_y_0, x = var_453_cast_fp16, y = var_451_cast_fp16)[name = tensor<string, []>("attn_5_cast_fp16")];
            tensor<int32, [4]> var_456 = const()[name = tensor<string, []>("op_456"), val = tensor<int32, [4]>([1, 1024, 1, 1])];
            tensor<fp16, [1, 1024, 1, 1]> input_11_cast_fp16 = reshape(shape = var_456, x = attn_5_cast_fp16)[name = tensor<string, []>("input_11_cast_fp16")];
            tensor<string, []> obj_21_pad_type_0 = const()[name = tensor<string, []>("obj_21_pad_type_0"), val = tensor<string, []>("valid")];
            tensor<int32, [2]> obj_21_strides_0 = const()[name = tensor<string, []>("obj_21_strides_0"), val = tensor<int32, [2]>([1, 1])];
            tensor<int32, [4]> obj_21_pad_0 = const()[name = tensor<string, []>("obj_21_pad_0"), val = tensor<int32, [4]>([0, 0, 0, 0])];
            tensor<int32, [2]> obj_21_dilations_0 = const()[name = tensor<string, []>("obj_21_dilations_0"), val = tensor<int32, [2]>([1, 1])];
            tensor<int32, []> obj_21_groups_0 = const()[name = tensor<string, []>("obj_21_groups_0"), val = tensor<int32, []>(1)];
            tensor<fp16, [1024, 1024, 1, 1]> layers_1_self_attn_o_proj_weight_to_fp16 = const()[name = tensor<string, []>("layers_1_self_attn_o_proj_weight_to_fp16"), val = tensor<fp16, [1024, 1024, 1, 1]>(BLOBFILE(path = tensor<string, []>("@model_path/weights/weight.bin"), offset = tensor<uint64, []>(147032320)))];
            tensor<fp16, [1024]> layers_1_self_attn_o_proj_bias_to_fp16 = const()[name = tensor<string, []>("layers_1_self_attn_o_proj_bias_to_fp16"), val = tensor<fp16, [1024]>(BLOBFILE(path = tensor<string, []>("@model_path/weights/weight.bin"), offset = tensor<uint64, []>(149129536)))];
            tensor<fp16, [1, 1024, 1, 1]> obj_21_cast_fp16 = conv(bias = layers_1_self_attn_o_proj_bias_to_fp16, dilations = obj_21_dilations_0, groups = obj_21_groups_0, pad = obj_21_pad_0, pad_type = obj_21_pad_type_0, strides = obj_21_strides_0, weight = layers_1_self_attn_o_proj_weight_to_fp16, x = input_11_cast_fp16)[name = tensor<string, []>("obj_21_cast_fp16")];
            tensor<fp16, [1, 1024, 1, 1]> inputs_9_cast_fp16 = add(x = inputs_7_cast_fp16, y = obj_21_cast_fp16)[name = tensor<string, []>("inputs_9_cast_fp16")];
            tensor<int32, [1]> out_9_axes_0 = const()[name = tensor<string, []>("out_9_axes_0"), val = tensor<int32, [1]>([1])];
            tensor<fp16, []> var_478_to_fp16 = const()[name = tensor<string, []>("op_478_to_fp16"), val = tensor<fp16, []>(0x1.5p-17)];
            tensor<fp16, [1, 1024, 1, 1]> out_9_cast_fp16 = layer_norm(axes = out_9_axes_0, epsilon = var_478_to_fp16, x = inputs_9_cast_fp16)[name = tensor<string, []>("out_9_cast_fp16")];
            tensor<fp16, [1024]> obj_23_gamma_0_to_fp16 = const()[name = tensor<string, []>("obj_23_gamma_0_to_fp16"), val = tensor<fp16, [1024]>(BLOBFILE(path = tensor<string, []>("@model_path/weights/weight.bin"), offset = tensor<uint64, []>(149131648)))];
            tensor<fp16, [1024]> obj_23_beta_0_to_fp16 = const()[name = tensor<string, []>("obj_23_beta_0_to_fp16"), val = tensor<fp16, [1024]>(BLOBFILE(path = tensor<string, []>("@model_path/weights/weight.bin"), offset = tensor<uint64, []>(149133760)))];
            tensor<fp16, []> obj_23_epsilon_0_to_fp16 = const()[name = tensor<string, []>("obj_23_epsilon_0_to_fp16"), val = tensor<fp16, []>(0x1.5p-17)];
            tensor<fp16, [1, 1024, 1, 1]> obj_23_cast_fp16 = batch_norm(beta = obj_23_beta_0_to_fp16, epsilon = obj_23_epsilon_0_to_fp16, gamma = obj_23_gamma_0_to_fp16, mean = obj_1_mean_0_to_fp16, variance = obj_1_variance_0_to_fp16, x = out_9_cast_fp16)[name = tensor<string, []>("obj_23_cast_fp16")];
            tensor<string, []> query_7_pad_type_0 = const()[name = tensor<string, []>("query_7_pad_type_0"), val = tensor<string, []>("valid")];
            tensor<int32, [2]> query_7_strides_0 = const()[name = tensor<string, []>("query_7_strides_0"), val = tensor<int32, [2]>([1, 1])];
            tensor<int32, [4]> query_7_pad_0 = const()[name = tensor<string, []>("query_7_pad_0"), val = tensor<int32, [4]>([0, 0, 0, 0])];
            tensor<int32, [2]> query_7_dilations_0 = const()[name = tensor<string, []>("query_7_dilations_0"), val = tensor<int32, [2]>([1, 1])];
            tensor<int32, []> query_7_groups_0 = const()[name = tensor<string, []>("query_7_groups_0"), val = tensor<int32, []>(1)];
            tensor<fp16, [1024, 1024, 1, 1]> layers_1_encoder_attn_q_proj_weight_to_fp16 = const()[name = tensor<string, []>("layers_1_encoder_attn_q_proj_weight_to_fp16"), val = tensor<fp16, [1024, 1024, 1, 1]>(BLOBFILE(path = tensor<string, []>("@model_path/weights/weight.bin"), offset = tensor<uint64, []>(149135872)))];
            tensor<fp16, [1024]> layers_1_encoder_attn_q_proj_bias_to_fp16 = const()[name = tensor<string, []>("layers_1_encoder_attn_q_proj_bias_to_fp16"), val = tensor<fp16, [1024]>(BLOBFILE(path = tensor<string, []>("@model_path/weights/weight.bin"), offset = tensor<uint64, []>(151233088)))];
            tensor<fp16, [1, 1024, 1, 1]> query_7_cast_fp16 = conv(bias = layers_1_encoder_attn_q_proj_bias_to_fp16, dilations = query_7_dilations_0, groups = query_7_groups_0, pad = query_7_pad_0, pad_type = query_7_pad_type_0, strides = query_7_strides_0, weight = layers_1_encoder_attn_q_proj_weight_to_fp16, x = obj_23_cast_fp16)[name = tensor<string, []>("query_7_cast_fp16")];
            tensor<string, []> key_7_pad_type_0 = const()[name = tensor<string, []>("key_7_pad_type_0"), val = tensor<string, []>("valid")];
            tensor<int32, [2]> key_7_strides_0 = const()[name = tensor<string, []>("key_7_strides_0"), val = tensor<int32, [2]>([1, 1])];
            tensor<int32, [4]> key_7_pad_0 = const()[name = tensor<string, []>("key_7_pad_0"), val = tensor<int32, [4]>([0, 0, 0, 0])];
            tensor<int32, [2]> key_7_dilations_0 = const()[name = tensor<string, []>("key_7_dilations_0"), val = tensor<int32, [2]>([1, 1])];
            tensor<int32, []> key_7_groups_0 = const()[name = tensor<string, []>("key_7_groups_0"), val = tensor<int32, []>(1)];
            tensor<fp16, [1024, 1024, 1, 1]> layers_1_encoder_attn_k_proj_weight_to_fp16 = const()[name = tensor<string, []>("layers_1_encoder_attn_k_proj_weight_to_fp16"), val = tensor<fp16, [1024, 1024, 1, 1]>(BLOBFILE(path = tensor<string, []>("@model_path/weights/weight.bin"), offset = tensor<uint64, []>(151235200)))];
            tensor<fp16, [1, 1024, 1, 1500]> key_7_cast_fp16 = conv(dilations = key_7_dilations_0, groups = key_7_groups_0, pad = key_7_pad_0, pad_type = key_7_pad_type_0, strides = key_7_strides_0, weight = layers_1_encoder_attn_k_proj_weight_to_fp16, x = encoder_output_embeds)[name = tensor<string, []>("key_7_cast_fp16")];
            tensor<string, []> value_7_pad_type_0 = const()[name = tensor<string, []>("value_7_pad_type_0"), val = tensor<string, []>("valid")];
            tensor<int32, [2]> value_7_strides_0 = const()[name = tensor<string, []>("value_7_strides_0"), val = tensor<int32, [2]>([1, 1])];
            tensor<int32, [4]> value_7_pad_0 = const()[name = tensor<string, []>("value_7_pad_0"), val = tensor<int32, [4]>([0, 0, 0, 0])];
            tensor<int32, [2]> value_7_dilations_0 = const()[name = tensor<string, []>("value_7_dilations_0"), val = tensor<int32, [2]>([1, 1])];
            tensor<int32, []> value_7_groups_0 = const()[name = tensor<string, []>("value_7_groups_0"), val = tensor<int32, []>(1)];
            tensor<fp16, [1024, 1024, 1, 1]> layers_1_encoder_attn_v_proj_weight_to_fp16 = const()[name = tensor<string, []>("layers_1_encoder_attn_v_proj_weight_to_fp16"), val = tensor<fp16, [1024, 1024, 1, 1]>(BLOBFILE(path = tensor<string, []>("@model_path/weights/weight.bin"), offset = tensor<uint64, []>(153332416)))];
            tensor<fp16, [1024]> layers_1_encoder_attn_v_proj_bias_to_fp16 = const()[name = tensor<string, []>("layers_1_encoder_attn_v_proj_bias_to_fp16"), val = tensor<fp16, [1024]>(BLOBFILE(path = tensor<string, []>("@model_path/weights/weight.bin"), offset = tensor<uint64, []>(155429632)))];
            tensor<fp16, [1, 1024, 1, 1500]> value_7_cast_fp16 = conv(bias = layers_1_encoder_attn_v_proj_bias_to_fp16, dilations = value_7_dilations_0, groups = value_7_groups_0, pad = value_7_pad_0, pad_type = value_7_pad_type_0, strides = value_7_strides_0, weight = layers_1_encoder_attn_v_proj_weight_to_fp16, x = encoder_output_embeds)[name = tensor<string, []>("value_7_cast_fp16")];
            tensor<int32, [4]> var_514 = const()[name = tensor<string, []>("op_514"), val = tensor<int32, [4]>([1, 16, 64, 1])];
            tensor<fp16, [1, 16, 64, 1]> mh_q_7_cast_fp16 = reshape(shape = var_514, x = query_7_cast_fp16)[name = tensor<string, []>("mh_q_7_cast_fp16")];
            tensor<fp16, []> var_516_to_fp16 = const()[name = tensor<string, []>("op_516_to_fp16"), val = tensor<fp16, []>(0x1p-3)];
            tensor<fp16, [1, 16, 64, 1]> var_517_cast_fp16 = mul(x = mh_q_7_cast_fp16, y = var_516_to_fp16)[name = tensor<string, []>("op_517_cast_fp16")];
            tensor<int32, [4]> var_520 = const()[name = tensor<string, []>("op_520"), val = tensor<int32, [4]>([1, 16, 64, 1500])];
            tensor<fp16, [1, 16, 64, 1500]> var_521_cast_fp16 = reshape(shape = var_520, x = key_7_cast_fp16)[name = tensor<string, []>("op_521_cast_fp16")];
            tensor<bool, []> mh_w_11_transpose_x_0 = const()[name = tensor<string, []>("mh_w_11_transpose_x_0"), val = tensor<bool, []>(true)];
            tensor<bool, []> mh_w_11_transpose_y_0 = const()[name = tensor<string, []>("mh_w_11_transpose_y_0"), val = tensor<bool, []>(false)];
            tensor<fp16, [1, 16, 1, 1500]> mh_w_11_cast_fp16 = matmul(transpose_x = mh_w_11_transpose_x_0, transpose_y = mh_w_11_transpose_y_0, x = var_517_cast_fp16, y = var_521_cast_fp16)[name = tensor<string, []>("mh_w_11_cast_fp16")];
            tensor<fp16, [1, 16, 1, 1500]> obj_27_cast_fp16 = softmax(axis = var_363, x = mh_w_11_cast_fp16)[name = tensor<string, []>("obj_27_cast_fp16")];
            tensor<int32, [4]> var_525 = const()[name = tensor<string, []>("op_525"), val = tensor<int32, [4]>([1, 16, 64, 1500])];
            tensor<fp16, [1, 16, 64, 1500]> var_526_cast_fp16 = reshape(shape = var_525, x = value_7_cast_fp16)[name = tensor<string, []>("op_526_cast_fp16")];
            tensor<bool, []> attn_7_transpose_x_0 = const()[name = tensor<string, []>("attn_7_transpose_x_0"), val = tensor<bool, []>(false)];
            tensor<bool, []> attn_7_transpose_y_0 = const()[name = tensor<string, []>("attn_7_transpose_y_0"), val = tensor<bool, []>(true)];
            tensor<fp16, [1, 16, 64, 1]> attn_7_cast_fp16 = matmul(transpose_x = attn_7_transpose_x_0, transpose_y = attn_7_transpose_y_0, x = var_526_cast_fp16, y = obj_27_cast_fp16)[name = tensor<string, []>("attn_7_cast_fp16")];
            tensor<int32, [4]> var_529 = const()[name = tensor<string, []>("op_529"), val = tensor<int32, [4]>([1, 1024, 1, 1])];
            tensor<fp16, [1, 1024, 1, 1]> input_13_cast_fp16 = reshape(shape = var_529, x = attn_7_cast_fp16)[name = tensor<string, []>("input_13_cast_fp16")];
            tensor<string, []> obj_25_pad_type_0 = const()[name = tensor<string, []>("obj_25_pad_type_0"), val = tensor<string, []>("valid")];
            tensor<int32, [2]> obj_25_strides_0 = const()[name = tensor<string, []>("obj_25_strides_0"), val = tensor<int32, [2]>([1, 1])];
            tensor<int32, [4]> obj_25_pad_0 = const()[name = tensor<string, []>("obj_25_pad_0"), val = tensor<int32, [4]>([0, 0, 0, 0])];
            tensor<int32, [2]> obj_25_dilations_0 = const()[name = tensor<string, []>("obj_25_dilations_0"), val = tensor<int32, [2]>([1, 1])];
            tensor<int32, []> obj_25_groups_0 = const()[name = tensor<string, []>("obj_25_groups_0"), val = tensor<int32, []>(1)];
            tensor<fp16, [1024, 1024, 1, 1]> layers_1_encoder_attn_o_proj_weight_to_fp16 = const()[name = tensor<string, []>("layers_1_encoder_attn_o_proj_weight_to_fp16"), val = tensor<fp16, [1024, 1024, 1, 1]>(BLOBFILE(path = tensor<string, []>("@model_path/weights/weight.bin"), offset = tensor<uint64, []>(155431744)))];
            tensor<fp16, [1024]> layers_1_encoder_attn_o_proj_bias_to_fp16 = const()[name = tensor<string, []>("layers_1_encoder_attn_o_proj_bias_to_fp16"), val = tensor<fp16, [1024]>(BLOBFILE(path = tensor<string, []>("@model_path/weights/weight.bin"), offset = tensor<uint64, []>(157528960)))];
            tensor<fp16, [1, 1024, 1, 1]> obj_25_cast_fp16 = conv(bias = layers_1_encoder_attn_o_proj_bias_to_fp16, dilations = obj_25_dilations_0, groups = obj_25_groups_0, pad = obj_25_pad_0, pad_type = obj_25_pad_type_0, strides = obj_25_strides_0, weight = layers_1_encoder_attn_o_proj_weight_to_fp16, x = input_13_cast_fp16)[name = tensor<string, []>("obj_25_cast_fp16")];
            tensor<fp16, [1, 1024, 1, 1]> inputs_11_cast_fp16 = add(x = inputs_9_cast_fp16, y = obj_25_cast_fp16)[name = tensor<string, []>("inputs_11_cast_fp16")];
            tensor<int32, [1]> out_11_axes_0 = const()[name = tensor<string, []>("out_11_axes_0"), val = tensor<int32, [1]>([1])];
            tensor<fp16, []> var_547_to_fp16 = const()[name = tensor<string, []>("op_547_to_fp16"), val = tensor<fp16, []>(0x1.5p-17)];
            tensor<fp16, [1, 1024, 1, 1]> out_11_cast_fp16 = layer_norm(axes = out_11_axes_0, epsilon = var_547_to_fp16, x = inputs_11_cast_fp16)[name = tensor<string, []>("out_11_cast_fp16")];
            tensor<fp16, [1024]> input_15_gamma_0_to_fp16 = const()[name = tensor<string, []>("input_15_gamma_0_to_fp16"), val = tensor<fp16, [1024]>(BLOBFILE(path = tensor<string, []>("@model_path/weights/weight.bin"), offset = tensor<uint64, []>(157531072)))];
            tensor<fp16, [1024]> input_15_beta_0_to_fp16 = const()[name = tensor<string, []>("input_15_beta_0_to_fp16"), val = tensor<fp16, [1024]>(BLOBFILE(path = tensor<string, []>("@model_path/weights/weight.bin"), offset = tensor<uint64, []>(157533184)))];
            tensor<fp16, []> input_15_epsilon_0_to_fp16 = const()[name = tensor<string, []>("input_15_epsilon_0_to_fp16"), val = tensor<fp16, []>(0x1.5p-17)];
            tensor<fp16, [1, 1024, 1, 1]> input_15_cast_fp16 = batch_norm(beta = input_15_beta_0_to_fp16, epsilon = input_15_epsilon_0_to_fp16, gamma = input_15_gamma_0_to_fp16, mean = obj_1_mean_0_to_fp16, variance = obj_1_variance_0_to_fp16, x = out_11_cast_fp16)[name = tensor<string, []>("input_15_cast_fp16")];
            tensor<string, []> input_17_pad_type_0 = const()[name = tensor<string, []>("input_17_pad_type_0"), val = tensor<string, []>("valid")];
            tensor<int32, [2]> input_17_strides_0 = const()[name = tensor<string, []>("input_17_strides_0"), val = tensor<int32, [2]>([1, 1])];
            tensor<int32, [4]> input_17_pad_0 = const()[name = tensor<string, []>("input_17_pad_0"), val = tensor<int32, [4]>([0, 0, 0, 0])];
            tensor<int32, [2]> input_17_dilations_0 = const()[name = tensor<string, []>("input_17_dilations_0"), val = tensor<int32, [2]>([1, 1])];
            tensor<int32, []> input_17_groups_0 = const()[name = tensor<string, []>("input_17_groups_0"), val = tensor<int32, []>(1)];
            tensor<fp16, [4096, 1024, 1, 1]> layers_1_fc1_weight_to_fp16 = const()[name = tensor<string, []>("layers_1_fc1_weight_to_fp16"), val = tensor<fp16, [4096, 1024, 1, 1]>(BLOBFILE(path = tensor<string, []>("@model_path/weights/weight.bin"), offset = tensor<uint64, []>(157535296)))];
            tensor<fp16, [4096]> layers_1_fc1_bias_to_fp16 = const()[name = tensor<string, []>("layers_1_fc1_bias_to_fp16"), val = tensor<fp16, [4096]>(BLOBFILE(path = tensor<string, []>("@model_path/weights/weight.bin"), offset = tensor<uint64, []>(165923968)))];
            tensor<fp16, [1, 4096, 1, 1]> input_17_cast_fp16 = conv(bias = layers_1_fc1_bias_to_fp16, dilations = input_17_dilations_0, groups = input_17_groups_0, pad = input_17_pad_0, pad_type = input_17_pad_type_0, strides = input_17_strides_0, weight = layers_1_fc1_weight_to_fp16, x = input_15_cast_fp16)[name = tensor<string, []>("input_17_cast_fp16")];
            tensor<string, []> input_19_mode_0 = const()[name = tensor<string, []>("input_19_mode_0"), val = tensor<string, []>("EXACT")];
            tensor<fp16, [1, 4096, 1, 1]> input_19_cast_fp16 = gelu(mode = input_19_mode_0, x = input_17_cast_fp16)[name = tensor<string, []>("input_19_cast_fp16")];
            tensor<string, []> hidden_states_5_pad_type_0 = const()[name = tensor<string, []>("hidden_states_5_pad_type_0"), val = tensor<string, []>("valid")];
            tensor<int32, [2]> hidden_states_5_strides_0 = const()[name = tensor<string, []>("hidden_states_5_strides_0"), val = tensor<int32, [2]>([1, 1])];
            tensor<int32, [4]> hidden_states_5_pad_0 = const()[name = tensor<string, []>("hidden_states_5_pad_0"), val = tensor<int32, [4]>([0, 0, 0, 0])];
            tensor<int32, [2]> hidden_states_5_dilations_0 = const()[name = tensor<string, []>("hidden_states_5_dilations_0"), val = tensor<int32, [2]>([1, 1])];
            tensor<int32, []> hidden_states_5_groups_0 = const()[name = tensor<string, []>("hidden_states_5_groups_0"), val = tensor<int32, []>(1)];
            tensor<fp16, [1024, 4096, 1, 1]> layers_1_fc2_weight_to_fp16 = const()[name = tensor<string, []>("layers_1_fc2_weight_to_fp16"), val = tensor<fp16, [1024, 4096, 1, 1]>(BLOBFILE(path = tensor<string, []>("@model_path/weights/weight.bin"), offset = tensor<uint64, []>(165932224)))];
            tensor<fp16, [1024]> layers_1_fc2_bias_to_fp16 = const()[name = tensor<string, []>("layers_1_fc2_bias_to_fp16"), val = tensor<fp16, [1024]>(BLOBFILE(path = tensor<string, []>("@model_path/weights/weight.bin"), offset = tensor<uint64, []>(174320896)))];
            tensor<fp16, [1, 1024, 1, 1]> hidden_states_5_cast_fp16 = conv(bias = layers_1_fc2_bias_to_fp16, dilations = hidden_states_5_dilations_0, groups = hidden_states_5_groups_0, pad = hidden_states_5_pad_0, pad_type = hidden_states_5_pad_type_0, strides = hidden_states_5_strides_0, weight = layers_1_fc2_weight_to_fp16, x = input_19_cast_fp16)[name = tensor<string, []>("hidden_states_5_cast_fp16")];
            tensor<fp16, [1, 1024, 1, 1]> inputs_13_cast_fp16 = add(x = inputs_11_cast_fp16, y = hidden_states_5_cast_fp16)[name = tensor<string, []>("inputs_13_cast_fp16")];
            tensor<int32, []> var_582 = const()[name = tensor<string, []>("op_582"), val = tensor<int32, []>(3)];
            tensor<int32, [1]> out_13_axes_0 = const()[name = tensor<string, []>("out_13_axes_0"), val = tensor<int32, [1]>([1])];
            tensor<fp16, []> var_607_to_fp16 = const()[name = tensor<string, []>("op_607_to_fp16"), val = tensor<fp16, []>(0x1.5p-17)];
            tensor<fp16, [1, 1024, 1, 1]> out_13_cast_fp16 = layer_norm(axes = out_13_axes_0, epsilon = var_607_to_fp16, x = inputs_13_cast_fp16)[name = tensor<string, []>("out_13_cast_fp16")];
            tensor<fp16, [1024]> obj_29_gamma_0_to_fp16 = const()[name = tensor<string, []>("obj_29_gamma_0_to_fp16"), val = tensor<fp16, [1024]>(BLOBFILE(path = tensor<string, []>("@model_path/weights/weight.bin"), offset = tensor<uint64, []>(174323008)))];
            tensor<fp16, [1024]> obj_29_beta_0_to_fp16 = const()[name = tensor<string, []>("obj_29_beta_0_to_fp16"), val = tensor<fp16, [1024]>(BLOBFILE(path = tensor<string, []>("@model_path/weights/weight.bin"), offset = tensor<uint64, []>(174325120)))];
            tensor<fp16, []> obj_29_epsilon_0_to_fp16 = const()[name = tensor<string, []>("obj_29_epsilon_0_to_fp16"), val = tensor<fp16, []>(0x1.5p-17)];
            tensor<fp16, [1, 1024, 1, 1]> obj_29_cast_fp16 = batch_norm(beta = obj_29_beta_0_to_fp16, epsilon = obj_29_epsilon_0_to_fp16, gamma = obj_29_gamma_0_to_fp16, mean = obj_1_mean_0_to_fp16, variance = obj_1_variance_0_to_fp16, x = out_13_cast_fp16)[name = tensor<string, []>("obj_29_cast_fp16")];
            tensor<string, []> query_9_pad_type_0 = const()[name = tensor<string, []>("query_9_pad_type_0"), val = tensor<string, []>("valid")];
            tensor<int32, [2]> query_9_strides_0 = const()[name = tensor<string, []>("query_9_strides_0"), val = tensor<int32, [2]>([1, 1])];
            tensor<int32, [4]> query_9_pad_0 = const()[name = tensor<string, []>("query_9_pad_0"), val = tensor<int32, [4]>([0, 0, 0, 0])];
            tensor<int32, [2]> query_9_dilations_0 = const()[name = tensor<string, []>("query_9_dilations_0"), val = tensor<int32, [2]>([1, 1])];
            tensor<int32, []> query_9_groups_0 = const()[name = tensor<string, []>("query_9_groups_0"), val = tensor<int32, []>(1)];
            tensor<fp16, [1024, 1024, 1, 1]> layers_2_self_attn_q_proj_weight_to_fp16 = const()[name = tensor<string, []>("layers_2_self_attn_q_proj_weight_to_fp16"), val = tensor<fp16, [1024, 1024, 1, 1]>(BLOBFILE(path = tensor<string, []>("@model_path/weights/weight.bin"), offset = tensor<uint64, []>(174327232)))];
            tensor<fp16, [1024]> layers_2_self_attn_q_proj_bias_to_fp16 = const()[name = tensor<string, []>("layers_2_self_attn_q_proj_bias_to_fp16"), val = tensor<fp16, [1024]>(BLOBFILE(path = tensor<string, []>("@model_path/weights/weight.bin"), offset = tensor<uint64, []>(176424448)))];
            tensor<fp16, [1, 1024, 1, 1]> query_9_cast_fp16 = conv(bias = layers_2_self_attn_q_proj_bias_to_fp16, dilations = query_9_dilations_0, groups = query_9_groups_0, pad = query_9_pad_0, pad_type = query_9_pad_type_0, strides = query_9_strides_0, weight = layers_2_self_attn_q_proj_weight_to_fp16, x = obj_29_cast_fp16)[name = tensor<string, []>("query_9_cast_fp16")];
            tensor<string, []> current_key_5_pad_type_0 = const()[name = tensor<string, []>("current_key_5_pad_type_0"), val = tensor<string, []>("valid")];
            tensor<int32, [2]> current_key_5_strides_0 = const()[name = tensor<string, []>("current_key_5_strides_0"), val = tensor<int32, [2]>([1, 1])];
            tensor<int32, [4]> current_key_5_pad_0 = const()[name = tensor<string, []>("current_key_5_pad_0"), val = tensor<int32, [4]>([0, 0, 0, 0])];
            tensor<int32, [2]> current_key_5_dilations_0 = const()[name = tensor<string, []>("current_key_5_dilations_0"), val = tensor<int32, [2]>([1, 1])];
            tensor<int32, []> current_key_5_groups_0 = const()[name = tensor<string, []>("current_key_5_groups_0"), val = tensor<int32, []>(1)];
            tensor<fp16, [1024, 1024, 1, 1]> layers_2_self_attn_k_proj_weight_to_fp16 = const()[name = tensor<string, []>("layers_2_self_attn_k_proj_weight_to_fp16"), val = tensor<fp16, [1024, 1024, 1, 1]>(BLOBFILE(path = tensor<string, []>("@model_path/weights/weight.bin"), offset = tensor<uint64, []>(176426560)))];
            tensor<fp16, [1, 1024, 1, 1]> current_key_5_cast_fp16 = conv(dilations = current_key_5_dilations_0, groups = current_key_5_groups_0, pad = current_key_5_pad_0, pad_type = current_key_5_pad_type_0, strides = current_key_5_strides_0, weight = layers_2_self_attn_k_proj_weight_to_fp16, x = obj_29_cast_fp16)[name = tensor<string, []>("current_key_5_cast_fp16")];
            tensor<string, []> current_value_5_pad_type_0 = const()[name = tensor<string, []>("current_value_5_pad_type_0"), val = tensor<string, []>("valid")];
            tensor<int32, [2]> current_value_5_strides_0 = const()[name = tensor<string, []>("current_value_5_strides_0"), val = tensor<int32, [2]>([1, 1])];
            tensor<int32, [4]> current_value_5_pad_0 = const()[name = tensor<string, []>("current_value_5_pad_0"), val = tensor<int32, [4]>([0, 0, 0, 0])];
            tensor<int32, [2]> current_value_5_dilations_0 = const()[name = tensor<string, []>("current_value_5_dilations_0"), val = tensor<int32, [2]>([1, 1])];
            tensor<int32, []> current_value_5_groups_0 = const()[name = tensor<string, []>("current_value_5_groups_0"), val = tensor<int32, []>(1)];
            tensor<fp16, [1024, 1024, 1, 1]> layers_2_self_attn_v_proj_weight_to_fp16 = const()[name = tensor<string, []>("layers_2_self_attn_v_proj_weight_to_fp16"), val = tensor<fp16, [1024, 1024, 1, 1]>(BLOBFILE(path = tensor<string, []>("@model_path/weights/weight.bin"), offset = tensor<uint64, []>(178523776)))];
            tensor<fp16, [1024]> layers_2_self_attn_v_proj_bias_to_fp16 = const()[name = tensor<string, []>("layers_2_self_attn_v_proj_bias_to_fp16"), val = tensor<fp16, [1024]>(BLOBFILE(path = tensor<string, []>("@model_path/weights/weight.bin"), offset = tensor<uint64, []>(180620992)))];
            tensor<fp16, [1, 1024, 1, 1]> current_value_5_cast_fp16 = conv(bias = layers_2_self_attn_v_proj_bias_to_fp16, dilations = current_value_5_dilations_0, groups = current_value_5_groups_0, pad = current_value_5_pad_0, pad_type = current_value_5_pad_type_0, strides = current_value_5_strides_0, weight = layers_2_self_attn_v_proj_weight_to_fp16, x = obj_29_cast_fp16)[name = tensor<string, []>("current_value_5_cast_fp16")];
            tensor<fp16, [1, 1024, 1, 448]> var_646_cast_fp16 = mul(x = var_87_cast_fp16_2, y = var_207_cast_fp16)[name = tensor<string, []>("op_646_cast_fp16")];
            tensor<fp16, [1, 1024, 1, 448]> var_647_cast_fp16 = mul(x = current_key_5_cast_fp16, y = var_205_cast_fp16)[name = tensor<string, []>("op_647_cast_fp16")];
            tensor<fp16, [1, 1024, 1, 448]> key_9_cast_fp16 = add(x = var_646_cast_fp16, y = var_647_cast_fp16)[name = tensor<string, []>("key_9_cast_fp16")];
            tensor<fp16, [1, 1024, 1, 448]> var_650_cast_fp16 = mul(x = var_114_cast_fp16_2, y = var_207_cast_fp16)[name = tensor<string, []>("op_650_cast_fp16")];
            tensor<fp16, [1, 1024, 1, 448]> var_651_cast_fp16 = mul(x = current_value_5_cast_fp16, y = var_205_cast_fp16)[name = tensor<string, []>("op_651_cast_fp16")];
            tensor<fp16, [1, 1024, 1, 448]> value_9_cast_fp16 = add(x = var_650_cast_fp16, y = var_651_cast_fp16)[name = tensor<string, []>("value_9_cast_fp16")];
            tensor<int32, [4]> var_655 = const()[name = tensor<string, []>("op_655"), val = tensor<int32, [4]>([1, 16, 64, 1])];
            tensor<fp16, [1, 16, 64, 1]> mh_q_9_cast_fp16 = reshape(shape = var_655, x = query_9_cast_fp16)[name = tensor<string, []>("mh_q_9_cast_fp16")];
            tensor<fp16, []> var_657_to_fp16 = const()[name = tensor<string, []>("op_657_to_fp16"), val = tensor<fp16, []>(0x1p-3)];
            tensor<fp16, [1, 16, 64, 1]> var_658_cast_fp16 = mul(x = mh_q_9_cast_fp16, y = var_657_to_fp16)[name = tensor<string, []>("op_658_cast_fp16")];
            tensor<int32, [4]> var_661 = const()[name = tensor<string, []>("op_661"), val = tensor<int32, [4]>([1, 16, 64, 448])];
            tensor<fp16, [1, 16, 64, 448]> var_662_cast_fp16 = reshape(shape = var_661, x = key_9_cast_fp16)[name = tensor<string, []>("op_662_cast_fp16")];
            tensor<bool, []> mh_w_13_transpose_x_0 = const()[name = tensor<string, []>("mh_w_13_transpose_x_0"), val = tensor<bool, []>(true)];
            tensor<bool, []> mh_w_13_transpose_y_0 = const()[name = tensor<string, []>("mh_w_13_transpose_y_0"), val = tensor<bool, []>(false)];
            tensor<fp16, [1, 16, 1, 448]> mh_w_13_cast_fp16 = matmul(transpose_x = mh_w_13_transpose_x_0, transpose_y = mh_w_13_transpose_y_0, x = var_658_cast_fp16, y = var_662_cast_fp16)[name = tensor<string, []>("mh_w_13_cast_fp16")];
            tensor<fp16, [1, 16, 1, 448]> mh_w_15_cast_fp16 = add(x = mh_w_13_cast_fp16, y = var_229_cast_fp16)[name = tensor<string, []>("mh_w_15_cast_fp16")];
            tensor<fp16, [1, 16, 1, 448]> var_670_cast_fp16 = softmax(axis = var_582, x = mh_w_15_cast_fp16)[name = tensor<string, []>("op_670_cast_fp16")];
            tensor<int32, [4]> var_671 = const()[name = tensor<string, []>("op_671"), val = tensor<int32, [4]>([1, 16, 64, 448])];
            tensor<fp16, [1, 16, 64, 448]> var_672_cast_fp16 = reshape(shape = var_671, x = value_9_cast_fp16)[name = tensor<string, []>("op_672_cast_fp16")];
            tensor<bool, []> attn_9_transpose_x_0 = const()[name = tensor<string, []>("attn_9_transpose_x_0"), val = tensor<bool, []>(false)];
            tensor<bool, []> attn_9_transpose_y_0 = const()[name = tensor<string, []>("attn_9_transpose_y_0"), val = tensor<bool, []>(true)];
            tensor<fp16, [1, 16, 64, 1]> attn_9_cast_fp16 = matmul(transpose_x = attn_9_transpose_x_0, transpose_y = attn_9_transpose_y_0, x = var_672_cast_fp16, y = var_670_cast_fp16)[name = tensor<string, []>("attn_9_cast_fp16")];
            tensor<int32, [4]> var_675 = const()[name = tensor<string, []>("op_675"), val = tensor<int32, [4]>([1, 1024, 1, 1])];
            tensor<fp16, [1, 1024, 1, 1]> input_21_cast_fp16 = reshape(shape = var_675, x = attn_9_cast_fp16)[name = tensor<string, []>("input_21_cast_fp16")];
            tensor<string, []> obj_35_pad_type_0 = const()[name = tensor<string, []>("obj_35_pad_type_0"), val = tensor<string, []>("valid")];
            tensor<int32, [2]> obj_35_strides_0 = const()[name = tensor<string, []>("obj_35_strides_0"), val = tensor<int32, [2]>([1, 1])];
            tensor<int32, [4]> obj_35_pad_0 = const()[name = tensor<string, []>("obj_35_pad_0"), val = tensor<int32, [4]>([0, 0, 0, 0])];
            tensor<int32, [2]> obj_35_dilations_0 = const()[name = tensor<string, []>("obj_35_dilations_0"), val = tensor<int32, [2]>([1, 1])];
            tensor<int32, []> obj_35_groups_0 = const()[name = tensor<string, []>("obj_35_groups_0"), val = tensor<int32, []>(1)];
            tensor<fp16, [1024, 1024, 1, 1]> layers_2_self_attn_o_proj_weight_to_fp16 = const()[name = tensor<string, []>("layers_2_self_attn_o_proj_weight_to_fp16"), val = tensor<fp16, [1024, 1024, 1, 1]>(BLOBFILE(path = tensor<string, []>("@model_path/weights/weight.bin"), offset = tensor<uint64, []>(180623104)))];
            tensor<fp16, [1024]> layers_2_self_attn_o_proj_bias_to_fp16 = const()[name = tensor<string, []>("layers_2_self_attn_o_proj_bias_to_fp16"), val = tensor<fp16, [1024]>(BLOBFILE(path = tensor<string, []>("@model_path/weights/weight.bin"), offset = tensor<uint64, []>(182720320)))];
            tensor<fp16, [1, 1024, 1, 1]> obj_35_cast_fp16 = conv(bias = layers_2_self_attn_o_proj_bias_to_fp16, dilations = obj_35_dilations_0, groups = obj_35_groups_0, pad = obj_35_pad_0, pad_type = obj_35_pad_type_0, strides = obj_35_strides_0, weight = layers_2_self_attn_o_proj_weight_to_fp16, x = input_21_cast_fp16)[name = tensor<string, []>("obj_35_cast_fp16")];
            tensor<fp16, [1, 1024, 1, 1]> inputs_15_cast_fp16 = add(x = inputs_13_cast_fp16, y = obj_35_cast_fp16)[name = tensor<string, []>("inputs_15_cast_fp16")];
            tensor<int32, [1]> out_15_axes_0 = const()[name = tensor<string, []>("out_15_axes_0"), val = tensor<int32, [1]>([1])];
            tensor<fp16, []> var_697_to_fp16 = const()[name = tensor<string, []>("op_697_to_fp16"), val = tensor<fp16, []>(0x1.5p-17)];
            tensor<fp16, [1, 1024, 1, 1]> out_15_cast_fp16 = layer_norm(axes = out_15_axes_0, epsilon = var_697_to_fp16, x = inputs_15_cast_fp16)[name = tensor<string, []>("out_15_cast_fp16")];
            tensor<fp16, [1024]> obj_37_gamma_0_to_fp16 = const()[name = tensor<string, []>("obj_37_gamma_0_to_fp16"), val = tensor<fp16, [1024]>(BLOBFILE(path = tensor<string, []>("@model_path/weights/weight.bin"), offset = tensor<uint64, []>(182722432)))];
            tensor<fp16, [1024]> obj_37_beta_0_to_fp16 = const()[name = tensor<string, []>("obj_37_beta_0_to_fp16"), val = tensor<fp16, [1024]>(BLOBFILE(path = tensor<string, []>("@model_path/weights/weight.bin"), offset = tensor<uint64, []>(182724544)))];
            tensor<fp16, []> obj_37_epsilon_0_to_fp16 = const()[name = tensor<string, []>("obj_37_epsilon_0_to_fp16"), val = tensor<fp16, []>(0x1.5p-17)];
            tensor<fp16, [1, 1024, 1, 1]> obj_37_cast_fp16 = batch_norm(beta = obj_37_beta_0_to_fp16, epsilon = obj_37_epsilon_0_to_fp16, gamma = obj_37_gamma_0_to_fp16, mean = obj_1_mean_0_to_fp16, variance = obj_1_variance_0_to_fp16, x = out_15_cast_fp16)[name = tensor<string, []>("obj_37_cast_fp16")];
            tensor<string, []> query_11_pad_type_0 = const()[name = tensor<string, []>("query_11_pad_type_0"), val = tensor<string, []>("valid")];
            tensor<int32, [2]> query_11_strides_0 = const()[name = tensor<string, []>("query_11_strides_0"), val = tensor<int32, [2]>([1, 1])];
            tensor<int32, [4]> query_11_pad_0 = const()[name = tensor<string, []>("query_11_pad_0"), val = tensor<int32, [4]>([0, 0, 0, 0])];
            tensor<int32, [2]> query_11_dilations_0 = const()[name = tensor<string, []>("query_11_dilations_0"), val = tensor<int32, [2]>([1, 1])];
            tensor<int32, []> query_11_groups_0 = const()[name = tensor<string, []>("query_11_groups_0"), val = tensor<int32, []>(1)];
            tensor<fp16, [1024, 1024, 1, 1]> layers_2_encoder_attn_q_proj_weight_to_fp16 = const()[name = tensor<string, []>("layers_2_encoder_attn_q_proj_weight_to_fp16"), val = tensor<fp16, [1024, 1024, 1, 1]>(BLOBFILE(path = tensor<string, []>("@model_path/weights/weight.bin"), offset = tensor<uint64, []>(182726656)))];
            tensor<fp16, [1024]> layers_2_encoder_attn_q_proj_bias_to_fp16 = const()[name = tensor<string, []>("layers_2_encoder_attn_q_proj_bias_to_fp16"), val = tensor<fp16, [1024]>(BLOBFILE(path = tensor<string, []>("@model_path/weights/weight.bin"), offset = tensor<uint64, []>(184823872)))];
            tensor<fp16, [1, 1024, 1, 1]> query_11_cast_fp16 = conv(bias = layers_2_encoder_attn_q_proj_bias_to_fp16, dilations = query_11_dilations_0, groups = query_11_groups_0, pad = query_11_pad_0, pad_type = query_11_pad_type_0, strides = query_11_strides_0, weight = layers_2_encoder_attn_q_proj_weight_to_fp16, x = obj_37_cast_fp16)[name = tensor<string, []>("query_11_cast_fp16")];
            tensor<string, []> key_11_pad_type_0 = const()[name = tensor<string, []>("key_11_pad_type_0"), val = tensor<string, []>("valid")];
            tensor<int32, [2]> key_11_strides_0 = const()[name = tensor<string, []>("key_11_strides_0"), val = tensor<int32, [2]>([1, 1])];
            tensor<int32, [4]> key_11_pad_0 = const()[name = tensor<string, []>("key_11_pad_0"), val = tensor<int32, [4]>([0, 0, 0, 0])];
            tensor<int32, [2]> key_11_dilations_0 = const()[name = tensor<string, []>("key_11_dilations_0"), val = tensor<int32, [2]>([1, 1])];
            tensor<int32, []> key_11_groups_0 = const()[name = tensor<string, []>("key_11_groups_0"), val = tensor<int32, []>(1)];
            tensor<fp16, [1024, 1024, 1, 1]> layers_2_encoder_attn_k_proj_weight_to_fp16 = const()[name = tensor<string, []>("layers_2_encoder_attn_k_proj_weight_to_fp16"), val = tensor<fp16, [1024, 1024, 1, 1]>(BLOBFILE(path = tensor<string, []>("@model_path/weights/weight.bin"), offset = tensor<uint64, []>(184825984)))];
            tensor<fp16, [1, 1024, 1, 1500]> key_11_cast_fp16 = conv(dilations = key_11_dilations_0, groups = key_11_groups_0, pad = key_11_pad_0, pad_type = key_11_pad_type_0, strides = key_11_strides_0, weight = layers_2_encoder_attn_k_proj_weight_to_fp16, x = encoder_output_embeds)[name = tensor<string, []>("key_11_cast_fp16")];
            tensor<string, []> value_11_pad_type_0 = const()[name = tensor<string, []>("value_11_pad_type_0"), val = tensor<string, []>("valid")];
            tensor<int32, [2]> value_11_strides_0 = const()[name = tensor<string, []>("value_11_strides_0"), val = tensor<int32, [2]>([1, 1])];
            tensor<int32, [4]> value_11_pad_0 = const()[name = tensor<string, []>("value_11_pad_0"), val = tensor<int32, [4]>([0, 0, 0, 0])];
            tensor<int32, [2]> value_11_dilations_0 = const()[name = tensor<string, []>("value_11_dilations_0"), val = tensor<int32, [2]>([1, 1])];
            tensor<int32, []> value_11_groups_0 = const()[name = tensor<string, []>("value_11_groups_0"), val = tensor<int32, []>(1)];
            tensor<fp16, [1024, 1024, 1, 1]> layers_2_encoder_attn_v_proj_weight_to_fp16 = const()[name = tensor<string, []>("layers_2_encoder_attn_v_proj_weight_to_fp16"), val = tensor<fp16, [1024, 1024, 1, 1]>(BLOBFILE(path = tensor<string, []>("@model_path/weights/weight.bin"), offset = tensor<uint64, []>(186923200)))];
            tensor<fp16, [1024]> layers_2_encoder_attn_v_proj_bias_to_fp16 = const()[name = tensor<string, []>("layers_2_encoder_attn_v_proj_bias_to_fp16"), val = tensor<fp16, [1024]>(BLOBFILE(path = tensor<string, []>("@model_path/weights/weight.bin"), offset = tensor<uint64, []>(189020416)))];
            tensor<fp16, [1, 1024, 1, 1500]> value_11_cast_fp16 = conv(bias = layers_2_encoder_attn_v_proj_bias_to_fp16, dilations = value_11_dilations_0, groups = value_11_groups_0, pad = value_11_pad_0, pad_type = value_11_pad_type_0, strides = value_11_strides_0, weight = layers_2_encoder_attn_v_proj_weight_to_fp16, x = encoder_output_embeds)[name = tensor<string, []>("value_11_cast_fp16")];
            tensor<int32, [4]> var_733 = const()[name = tensor<string, []>("op_733"), val = tensor<int32, [4]>([1, 16, 64, 1])];
            tensor<fp16, [1, 16, 64, 1]> mh_q_11_cast_fp16 = reshape(shape = var_733, x = query_11_cast_fp16)[name = tensor<string, []>("mh_q_11_cast_fp16")];
            tensor<fp16, []> var_735_to_fp16 = const()[name = tensor<string, []>("op_735_to_fp16"), val = tensor<fp16, []>(0x1p-3)];
            tensor<fp16, [1, 16, 64, 1]> var_736_cast_fp16 = mul(x = mh_q_11_cast_fp16, y = var_735_to_fp16)[name = tensor<string, []>("op_736_cast_fp16")];
            tensor<int32, [4]> var_739 = const()[name = tensor<string, []>("op_739"), val = tensor<int32, [4]>([1, 16, 64, 1500])];
            tensor<fp16, [1, 16, 64, 1500]> var_740_cast_fp16 = reshape(shape = var_739, x = key_11_cast_fp16)[name = tensor<string, []>("op_740_cast_fp16")];
            tensor<bool, []> mh_w_17_transpose_x_0 = const()[name = tensor<string, []>("mh_w_17_transpose_x_0"), val = tensor<bool, []>(true)];
            tensor<bool, []> mh_w_17_transpose_y_0 = const()[name = tensor<string, []>("mh_w_17_transpose_y_0"), val = tensor<bool, []>(false)];
            tensor<fp16, [1, 16, 1, 1500]> mh_w_17_cast_fp16 = matmul(transpose_x = mh_w_17_transpose_x_0, transpose_y = mh_w_17_transpose_y_0, x = var_736_cast_fp16, y = var_740_cast_fp16)[name = tensor<string, []>("mh_w_17_cast_fp16")];
            tensor<fp16, [1, 16, 1, 1500]> obj_41_cast_fp16 = softmax(axis = var_582, x = mh_w_17_cast_fp16)[name = tensor<string, []>("obj_41_cast_fp16")];
            tensor<int32, [4]> var_744 = const()[name = tensor<string, []>("op_744"), val = tensor<int32, [4]>([1, 16, 64, 1500])];
            tensor<fp16, [1, 16, 64, 1500]> var_745_cast_fp16 = reshape(shape = var_744, x = value_11_cast_fp16)[name = tensor<string, []>("op_745_cast_fp16")];
            tensor<bool, []> attn_11_transpose_x_0 = const()[name = tensor<string, []>("attn_11_transpose_x_0"), val = tensor<bool, []>(false)];
            tensor<bool, []> attn_11_transpose_y_0 = const()[name = tensor<string, []>("attn_11_transpose_y_0"), val = tensor<bool, []>(true)];
            tensor<fp16, [1, 16, 64, 1]> attn_11_cast_fp16 = matmul(transpose_x = attn_11_transpose_x_0, transpose_y = attn_11_transpose_y_0, x = var_745_cast_fp16, y = obj_41_cast_fp16)[name = tensor<string, []>("attn_11_cast_fp16")];
            tensor<int32, [4]> var_748 = const()[name = tensor<string, []>("op_748"), val = tensor<int32, [4]>([1, 1024, 1, 1])];
            tensor<fp16, [1, 1024, 1, 1]> input_23_cast_fp16 = reshape(shape = var_748, x = attn_11_cast_fp16)[name = tensor<string, []>("input_23_cast_fp16")];
            tensor<string, []> obj_39_pad_type_0 = const()[name = tensor<string, []>("obj_39_pad_type_0"), val = tensor<string, []>("valid")];
            tensor<int32, [2]> obj_39_strides_0 = const()[name = tensor<string, []>("obj_39_strides_0"), val = tensor<int32, [2]>([1, 1])];
            tensor<int32, [4]> obj_39_pad_0 = const()[name = tensor<string, []>("obj_39_pad_0"), val = tensor<int32, [4]>([0, 0, 0, 0])];
            tensor<int32, [2]> obj_39_dilations_0 = const()[name = tensor<string, []>("obj_39_dilations_0"), val = tensor<int32, [2]>([1, 1])];
            tensor<int32, []> obj_39_groups_0 = const()[name = tensor<string, []>("obj_39_groups_0"), val = tensor<int32, []>(1)];
            tensor<fp16, [1024, 1024, 1, 1]> layers_2_encoder_attn_o_proj_weight_to_fp16 = const()[name = tensor<string, []>("layers_2_encoder_attn_o_proj_weight_to_fp16"), val = tensor<fp16, [1024, 1024, 1, 1]>(BLOBFILE(path = tensor<string, []>("@model_path/weights/weight.bin"), offset = tensor<uint64, []>(189022528)))];
            tensor<fp16, [1024]> layers_2_encoder_attn_o_proj_bias_to_fp16 = const()[name = tensor<string, []>("layers_2_encoder_attn_o_proj_bias_to_fp16"), val = tensor<fp16, [1024]>(BLOBFILE(path = tensor<string, []>("@model_path/weights/weight.bin"), offset = tensor<uint64, []>(191119744)))];
            tensor<fp16, [1, 1024, 1, 1]> obj_39_cast_fp16 = conv(bias = layers_2_encoder_attn_o_proj_bias_to_fp16, dilations = obj_39_dilations_0, groups = obj_39_groups_0, pad = obj_39_pad_0, pad_type = obj_39_pad_type_0, strides = obj_39_strides_0, weight = layers_2_encoder_attn_o_proj_weight_to_fp16, x = input_23_cast_fp16)[name = tensor<string, []>("obj_39_cast_fp16")];
            tensor<fp16, [1, 1024, 1, 1]> inputs_17_cast_fp16 = add(x = inputs_15_cast_fp16, y = obj_39_cast_fp16)[name = tensor<string, []>("inputs_17_cast_fp16")];
            tensor<int32, [1]> out_17_axes_0 = const()[name = tensor<string, []>("out_17_axes_0"), val = tensor<int32, [1]>([1])];
            tensor<fp16, []> var_766_to_fp16 = const()[name = tensor<string, []>("op_766_to_fp16"), val = tensor<fp16, []>(0x1.5p-17)];
            tensor<fp16, [1, 1024, 1, 1]> out_17_cast_fp16 = layer_norm(axes = out_17_axes_0, epsilon = var_766_to_fp16, x = inputs_17_cast_fp16)[name = tensor<string, []>("out_17_cast_fp16")];
            tensor<fp16, [1024]> input_25_gamma_0_to_fp16 = const()[name = tensor<string, []>("input_25_gamma_0_to_fp16"), val = tensor<fp16, [1024]>(BLOBFILE(path = tensor<string, []>("@model_path/weights/weight.bin"), offset = tensor<uint64, []>(191121856)))];
            tensor<fp16, [1024]> input_25_beta_0_to_fp16 = const()[name = tensor<string, []>("input_25_beta_0_to_fp16"), val = tensor<fp16, [1024]>(BLOBFILE(path = tensor<string, []>("@model_path/weights/weight.bin"), offset = tensor<uint64, []>(191123968)))];
            tensor<fp16, []> input_25_epsilon_0_to_fp16 = const()[name = tensor<string, []>("input_25_epsilon_0_to_fp16"), val = tensor<fp16, []>(0x1.5p-17)];
            tensor<fp16, [1, 1024, 1, 1]> input_25_cast_fp16 = batch_norm(beta = input_25_beta_0_to_fp16, epsilon = input_25_epsilon_0_to_fp16, gamma = input_25_gamma_0_to_fp16, mean = obj_1_mean_0_to_fp16, variance = obj_1_variance_0_to_fp16, x = out_17_cast_fp16)[name = tensor<string, []>("input_25_cast_fp16")];
            tensor<string, []> input_27_pad_type_0 = const()[name = tensor<string, []>("input_27_pad_type_0"), val = tensor<string, []>("valid")];
            tensor<int32, [2]> input_27_strides_0 = const()[name = tensor<string, []>("input_27_strides_0"), val = tensor<int32, [2]>([1, 1])];
            tensor<int32, [4]> input_27_pad_0 = const()[name = tensor<string, []>("input_27_pad_0"), val = tensor<int32, [4]>([0, 0, 0, 0])];
            tensor<int32, [2]> input_27_dilations_0 = const()[name = tensor<string, []>("input_27_dilations_0"), val = tensor<int32, [2]>([1, 1])];
            tensor<int32, []> input_27_groups_0 = const()[name = tensor<string, []>("input_27_groups_0"), val = tensor<int32, []>(1)];
            tensor<fp16, [4096, 1024, 1, 1]> layers_2_fc1_weight_to_fp16 = const()[name = tensor<string, []>("layers_2_fc1_weight_to_fp16"), val = tensor<fp16, [4096, 1024, 1, 1]>(BLOBFILE(path = tensor<string, []>("@model_path/weights/weight.bin"), offset = tensor<uint64, []>(191126080)))];
            tensor<fp16, [4096]> layers_2_fc1_bias_to_fp16 = const()[name = tensor<string, []>("layers_2_fc1_bias_to_fp16"), val = tensor<fp16, [4096]>(BLOBFILE(path = tensor<string, []>("@model_path/weights/weight.bin"), offset = tensor<uint64, []>(199514752)))];
            tensor<fp16, [1, 4096, 1, 1]> input_27_cast_fp16 = conv(bias = layers_2_fc1_bias_to_fp16, dilations = input_27_dilations_0, groups = input_27_groups_0, pad = input_27_pad_0, pad_type = input_27_pad_type_0, strides = input_27_strides_0, weight = layers_2_fc1_weight_to_fp16, x = input_25_cast_fp16)[name = tensor<string, []>("input_27_cast_fp16")];
            tensor<string, []> input_29_mode_0 = const()[name = tensor<string, []>("input_29_mode_0"), val = tensor<string, []>("EXACT")];
            tensor<fp16, [1, 4096, 1, 1]> input_29_cast_fp16 = gelu(mode = input_29_mode_0, x = input_27_cast_fp16)[name = tensor<string, []>("input_29_cast_fp16")];
            tensor<string, []> hidden_states_7_pad_type_0 = const()[name = tensor<string, []>("hidden_states_7_pad_type_0"), val = tensor<string, []>("valid")];
            tensor<int32, [2]> hidden_states_7_strides_0 = const()[name = tensor<string, []>("hidden_states_7_strides_0"), val = tensor<int32, [2]>([1, 1])];
            tensor<int32, [4]> hidden_states_7_pad_0 = const()[name = tensor<string, []>("hidden_states_7_pad_0"), val = tensor<int32, [4]>([0, 0, 0, 0])];
            tensor<int32, [2]> hidden_states_7_dilations_0 = const()[name = tensor<string, []>("hidden_states_7_dilations_0"), val = tensor<int32, [2]>([1, 1])];
            tensor<int32, []> hidden_states_7_groups_0 = const()[name = tensor<string, []>("hidden_states_7_groups_0"), val = tensor<int32, []>(1)];
            tensor<fp16, [1024, 4096, 1, 1]> layers_2_fc2_weight_to_fp16 = const()[name = tensor<string, []>("layers_2_fc2_weight_to_fp16"), val = tensor<fp16, [1024, 4096, 1, 1]>(BLOBFILE(path = tensor<string, []>("@model_path/weights/weight.bin"), offset = tensor<uint64, []>(199523008)))];
            tensor<fp16, [1024]> layers_2_fc2_bias_to_fp16 = const()[name = tensor<string, []>("layers_2_fc2_bias_to_fp16"), val = tensor<fp16, [1024]>(BLOBFILE(path = tensor<string, []>("@model_path/weights/weight.bin"), offset = tensor<uint64, []>(207911680)))];
            tensor<fp16, [1, 1024, 1, 1]> hidden_states_7_cast_fp16 = conv(bias = layers_2_fc2_bias_to_fp16, dilations = hidden_states_7_dilations_0, groups = hidden_states_7_groups_0, pad = hidden_states_7_pad_0, pad_type = hidden_states_7_pad_type_0, strides = hidden_states_7_strides_0, weight = layers_2_fc2_weight_to_fp16, x = input_29_cast_fp16)[name = tensor<string, []>("hidden_states_7_cast_fp16")];
            tensor<fp16, [1, 1024, 1, 1]> inputs_19_cast_fp16 = add(x = inputs_17_cast_fp16, y = hidden_states_7_cast_fp16)[name = tensor<string, []>("inputs_19_cast_fp16")];
            tensor<int32, []> var_801 = const()[name = tensor<string, []>("op_801"), val = tensor<int32, []>(3)];
            tensor<int32, [1]> out_19_axes_0 = const()[name = tensor<string, []>("out_19_axes_0"), val = tensor<int32, [1]>([1])];
            tensor<fp16, []> var_826_to_fp16 = const()[name = tensor<string, []>("op_826_to_fp16"), val = tensor<fp16, []>(0x1.5p-17)];
            tensor<fp16, [1, 1024, 1, 1]> out_19_cast_fp16 = layer_norm(axes = out_19_axes_0, epsilon = var_826_to_fp16, x = inputs_19_cast_fp16)[name = tensor<string, []>("out_19_cast_fp16")];
            tensor<fp16, [1024]> obj_43_gamma_0_to_fp16 = const()[name = tensor<string, []>("obj_43_gamma_0_to_fp16"), val = tensor<fp16, [1024]>(BLOBFILE(path = tensor<string, []>("@model_path/weights/weight.bin"), offset = tensor<uint64, []>(207913792)))];
            tensor<fp16, [1024]> obj_43_beta_0_to_fp16 = const()[name = tensor<string, []>("obj_43_beta_0_to_fp16"), val = tensor<fp16, [1024]>(BLOBFILE(path = tensor<string, []>("@model_path/weights/weight.bin"), offset = tensor<uint64, []>(207915904)))];
            tensor<fp16, []> obj_43_epsilon_0_to_fp16 = const()[name = tensor<string, []>("obj_43_epsilon_0_to_fp16"), val = tensor<fp16, []>(0x1.5p-17)];
            tensor<fp16, [1, 1024, 1, 1]> obj_43_cast_fp16 = batch_norm(beta = obj_43_beta_0_to_fp16, epsilon = obj_43_epsilon_0_to_fp16, gamma = obj_43_gamma_0_to_fp16, mean = obj_1_mean_0_to_fp16, variance = obj_1_variance_0_to_fp16, x = out_19_cast_fp16)[name = tensor<string, []>("obj_43_cast_fp16")];
            tensor<string, []> query_13_pad_type_0 = const()[name = tensor<string, []>("query_13_pad_type_0"), val = tensor<string, []>("valid")];
            tensor<int32, [2]> query_13_strides_0 = const()[name = tensor<string, []>("query_13_strides_0"), val = tensor<int32, [2]>([1, 1])];
            tensor<int32, [4]> query_13_pad_0 = const()[name = tensor<string, []>("query_13_pad_0"), val = tensor<int32, [4]>([0, 0, 0, 0])];
            tensor<int32, [2]> query_13_dilations_0 = const()[name = tensor<string, []>("query_13_dilations_0"), val = tensor<int32, [2]>([1, 1])];
            tensor<int32, []> query_13_groups_0 = const()[name = tensor<string, []>("query_13_groups_0"), val = tensor<int32, []>(1)];
            tensor<fp16, [1024, 1024, 1, 1]> layers_3_self_attn_q_proj_weight_to_fp16 = const()[name = tensor<string, []>("layers_3_self_attn_q_proj_weight_to_fp16"), val = tensor<fp16, [1024, 1024, 1, 1]>(BLOBFILE(path = tensor<string, []>("@model_path/weights/weight.bin"), offset = tensor<uint64, []>(207918016)))];
            tensor<fp16, [1024]> layers_3_self_attn_q_proj_bias_to_fp16 = const()[name = tensor<string, []>("layers_3_self_attn_q_proj_bias_to_fp16"), val = tensor<fp16, [1024]>(BLOBFILE(path = tensor<string, []>("@model_path/weights/weight.bin"), offset = tensor<uint64, []>(210015232)))];
            tensor<fp16, [1, 1024, 1, 1]> query_13_cast_fp16 = conv(bias = layers_3_self_attn_q_proj_bias_to_fp16, dilations = query_13_dilations_0, groups = query_13_groups_0, pad = query_13_pad_0, pad_type = query_13_pad_type_0, strides = query_13_strides_0, weight = layers_3_self_attn_q_proj_weight_to_fp16, x = obj_43_cast_fp16)[name = tensor<string, []>("query_13_cast_fp16")];
            tensor<string, []> current_key_7_pad_type_0 = const()[name = tensor<string, []>("current_key_7_pad_type_0"), val = tensor<string, []>("valid")];
            tensor<int32, [2]> current_key_7_strides_0 = const()[name = tensor<string, []>("current_key_7_strides_0"), val = tensor<int32, [2]>([1, 1])];
            tensor<int32, [4]> current_key_7_pad_0 = const()[name = tensor<string, []>("current_key_7_pad_0"), val = tensor<int32, [4]>([0, 0, 0, 0])];
            tensor<int32, [2]> current_key_7_dilations_0 = const()[name = tensor<string, []>("current_key_7_dilations_0"), val = tensor<int32, [2]>([1, 1])];
            tensor<int32, []> current_key_7_groups_0 = const()[name = tensor<string, []>("current_key_7_groups_0"), val = tensor<int32, []>(1)];
            tensor<fp16, [1024, 1024, 1, 1]> layers_3_self_attn_k_proj_weight_to_fp16 = const()[name = tensor<string, []>("layers_3_self_attn_k_proj_weight_to_fp16"), val = tensor<fp16, [1024, 1024, 1, 1]>(BLOBFILE(path = tensor<string, []>("@model_path/weights/weight.bin"), offset = tensor<uint64, []>(210017344)))];
            tensor<fp16, [1, 1024, 1, 1]> current_key_7_cast_fp16 = conv(dilations = current_key_7_dilations_0, groups = current_key_7_groups_0, pad = current_key_7_pad_0, pad_type = current_key_7_pad_type_0, strides = current_key_7_strides_0, weight = layers_3_self_attn_k_proj_weight_to_fp16, x = obj_43_cast_fp16)[name = tensor<string, []>("current_key_7_cast_fp16")];
            tensor<string, []> current_value_7_pad_type_0 = const()[name = tensor<string, []>("current_value_7_pad_type_0"), val = tensor<string, []>("valid")];
            tensor<int32, [2]> current_value_7_strides_0 = const()[name = tensor<string, []>("current_value_7_strides_0"), val = tensor<int32, [2]>([1, 1])];
            tensor<int32, [4]> current_value_7_pad_0 = const()[name = tensor<string, []>("current_value_7_pad_0"), val = tensor<int32, [4]>([0, 0, 0, 0])];
            tensor<int32, [2]> current_value_7_dilations_0 = const()[name = tensor<string, []>("current_value_7_dilations_0"), val = tensor<int32, [2]>([1, 1])];
            tensor<int32, []> current_value_7_groups_0 = const()[name = tensor<string, []>("current_value_7_groups_0"), val = tensor<int32, []>(1)];
            tensor<fp16, [1024, 1024, 1, 1]> layers_3_self_attn_v_proj_weight_to_fp16 = const()[name = tensor<string, []>("layers_3_self_attn_v_proj_weight_to_fp16"), val = tensor<fp16, [1024, 1024, 1, 1]>(BLOBFILE(path = tensor<string, []>("@model_path/weights/weight.bin"), offset = tensor<uint64, []>(212114560)))];
            tensor<fp16, [1024]> layers_3_self_attn_v_proj_bias_to_fp16 = const()[name = tensor<string, []>("layers_3_self_attn_v_proj_bias_to_fp16"), val = tensor<fp16, [1024]>(BLOBFILE(path = tensor<string, []>("@model_path/weights/weight.bin"), offset = tensor<uint64, []>(214211776)))];
            tensor<fp16, [1, 1024, 1, 1]> current_value_7_cast_fp16 = conv(bias = layers_3_self_attn_v_proj_bias_to_fp16, dilations = current_value_7_dilations_0, groups = current_value_7_groups_0, pad = current_value_7_pad_0, pad_type = current_value_7_pad_type_0, strides = current_value_7_strides_0, weight = layers_3_self_attn_v_proj_weight_to_fp16, x = obj_43_cast_fp16)[name = tensor<string, []>("current_value_7_cast_fp16")];
            tensor<fp16, [1, 1024, 1, 448]> var_865_cast_fp16 = mul(x = var_87_cast_fp16_3, y = var_207_cast_fp16)[name = tensor<string, []>("op_865_cast_fp16")];
            tensor<fp16, [1, 1024, 1, 448]> var_866_cast_fp16 = mul(x = current_key_7_cast_fp16, y = var_205_cast_fp16)[name = tensor<string, []>("op_866_cast_fp16")];
            tensor<fp16, [1, 1024, 1, 448]> key_13_cast_fp16 = add(x = var_865_cast_fp16, y = var_866_cast_fp16)[name = tensor<string, []>("key_13_cast_fp16")];
            tensor<fp16, [1, 1024, 1, 448]> var_869_cast_fp16 = mul(x = var_114_cast_fp16_3, y = var_207_cast_fp16)[name = tensor<string, []>("op_869_cast_fp16")];
            tensor<fp16, [1, 1024, 1, 448]> var_870_cast_fp16 = mul(x = current_value_7_cast_fp16, y = var_205_cast_fp16)[name = tensor<string, []>("op_870_cast_fp16")];
            tensor<fp16, [1, 1024, 1, 448]> value_13_cast_fp16 = add(x = var_869_cast_fp16, y = var_870_cast_fp16)[name = tensor<string, []>("value_13_cast_fp16")];
            tensor<int32, [4]> var_874 = const()[name = tensor<string, []>("op_874"), val = tensor<int32, [4]>([1, 16, 64, 1])];
            tensor<fp16, [1, 16, 64, 1]> mh_q_13_cast_fp16 = reshape(shape = var_874, x = query_13_cast_fp16)[name = tensor<string, []>("mh_q_13_cast_fp16")];
            tensor<fp16, []> var_876_to_fp16 = const()[name = tensor<string, []>("op_876_to_fp16"), val = tensor<fp16, []>(0x1p-3)];
            tensor<fp16, [1, 16, 64, 1]> var_877_cast_fp16 = mul(x = mh_q_13_cast_fp16, y = var_876_to_fp16)[name = tensor<string, []>("op_877_cast_fp16")];
            tensor<int32, [4]> var_880 = const()[name = tensor<string, []>("op_880"), val = tensor<int32, [4]>([1, 16, 64, 448])];
            tensor<fp16, [1, 16, 64, 448]> var_881_cast_fp16 = reshape(shape = var_880, x = key_13_cast_fp16)[name = tensor<string, []>("op_881_cast_fp16")];
            tensor<bool, []> mh_w_19_transpose_x_0 = const()[name = tensor<string, []>("mh_w_19_transpose_x_0"), val = tensor<bool, []>(true)];
            tensor<bool, []> mh_w_19_transpose_y_0 = const()[name = tensor<string, []>("mh_w_19_transpose_y_0"), val = tensor<bool, []>(false)];
            tensor<fp16, [1, 16, 1, 448]> mh_w_19_cast_fp16 = matmul(transpose_x = mh_w_19_transpose_x_0, transpose_y = mh_w_19_transpose_y_0, x = var_877_cast_fp16, y = var_881_cast_fp16)[name = tensor<string, []>("mh_w_19_cast_fp16")];
            tensor<fp16, [1, 16, 1, 448]> mh_w_21_cast_fp16 = add(x = mh_w_19_cast_fp16, y = var_229_cast_fp16)[name = tensor<string, []>("mh_w_21_cast_fp16")];
            tensor<fp16, [1, 16, 1, 448]> var_889_cast_fp16 = softmax(axis = var_801, x = mh_w_21_cast_fp16)[name = tensor<string, []>("op_889_cast_fp16")];
            tensor<int32, [4]> var_890 = const()[name = tensor<string, []>("op_890"), val = tensor<int32, [4]>([1, 16, 64, 448])];
            tensor<fp16, [1, 16, 64, 448]> var_891_cast_fp16 = reshape(shape = var_890, x = value_13_cast_fp16)[name = tensor<string, []>("op_891_cast_fp16")];
            tensor<bool, []> attn_13_transpose_x_0 = const()[name = tensor<string, []>("attn_13_transpose_x_0"), val = tensor<bool, []>(false)];
            tensor<bool, []> attn_13_transpose_y_0 = const()[name = tensor<string, []>("attn_13_transpose_y_0"), val = tensor<bool, []>(true)];
            tensor<fp16, [1, 16, 64, 1]> attn_13_cast_fp16 = matmul(transpose_x = attn_13_transpose_x_0, transpose_y = attn_13_transpose_y_0, x = var_891_cast_fp16, y = var_889_cast_fp16)[name = tensor<string, []>("attn_13_cast_fp16")];
            tensor<int32, [4]> var_894 = const()[name = tensor<string, []>("op_894"), val = tensor<int32, [4]>([1, 1024, 1, 1])];
            tensor<fp16, [1, 1024, 1, 1]> input_31_cast_fp16 = reshape(shape = var_894, x = attn_13_cast_fp16)[name = tensor<string, []>("input_31_cast_fp16")];
            tensor<string, []> obj_49_pad_type_0 = const()[name = tensor<string, []>("obj_49_pad_type_0"), val = tensor<string, []>("valid")];
            tensor<int32, [2]> obj_49_strides_0 = const()[name = tensor<string, []>("obj_49_strides_0"), val = tensor<int32, [2]>([1, 1])];
            tensor<int32, [4]> obj_49_pad_0 = const()[name = tensor<string, []>("obj_49_pad_0"), val = tensor<int32, [4]>([0, 0, 0, 0])];
            tensor<int32, [2]> obj_49_dilations_0 = const()[name = tensor<string, []>("obj_49_dilations_0"), val = tensor<int32, [2]>([1, 1])];
            tensor<int32, []> obj_49_groups_0 = const()[name = tensor<string, []>("obj_49_groups_0"), val = tensor<int32, []>(1)];
            tensor<fp16, [1024, 1024, 1, 1]> layers_3_self_attn_o_proj_weight_to_fp16 = const()[name = tensor<string, []>("layers_3_self_attn_o_proj_weight_to_fp16"), val = tensor<fp16, [1024, 1024, 1, 1]>(BLOBFILE(path = tensor<string, []>("@model_path/weights/weight.bin"), offset = tensor<uint64, []>(214213888)))];
            tensor<fp16, [1024]> layers_3_self_attn_o_proj_bias_to_fp16 = const()[name = tensor<string, []>("layers_3_self_attn_o_proj_bias_to_fp16"), val = tensor<fp16, [1024]>(BLOBFILE(path = tensor<string, []>("@model_path/weights/weight.bin"), offset = tensor<uint64, []>(216311104)))];
            tensor<fp16, [1, 1024, 1, 1]> obj_49_cast_fp16 = conv(bias = layers_3_self_attn_o_proj_bias_to_fp16, dilations = obj_49_dilations_0, groups = obj_49_groups_0, pad = obj_49_pad_0, pad_type = obj_49_pad_type_0, strides = obj_49_strides_0, weight = layers_3_self_attn_o_proj_weight_to_fp16, x = input_31_cast_fp16)[name = tensor<string, []>("obj_49_cast_fp16")];
            tensor<fp16, [1, 1024, 1, 1]> inputs_21_cast_fp16 = add(x = inputs_19_cast_fp16, y = obj_49_cast_fp16)[name = tensor<string, []>("inputs_21_cast_fp16")];
            tensor<int32, [1]> out_21_axes_0 = const()[name = tensor<string, []>("out_21_axes_0"), val = tensor<int32, [1]>([1])];
            tensor<fp16, []> var_916_to_fp16 = const()[name = tensor<string, []>("op_916_to_fp16"), val = tensor<fp16, []>(0x1.5p-17)];
            tensor<fp16, [1, 1024, 1, 1]> out_21_cast_fp16 = layer_norm(axes = out_21_axes_0, epsilon = var_916_to_fp16, x = inputs_21_cast_fp16)[name = tensor<string, []>("out_21_cast_fp16")];
            tensor<fp16, [1024]> obj_51_gamma_0_to_fp16 = const()[name = tensor<string, []>("obj_51_gamma_0_to_fp16"), val = tensor<fp16, [1024]>(BLOBFILE(path = tensor<string, []>("@model_path/weights/weight.bin"), offset = tensor<uint64, []>(216313216)))];
            tensor<fp16, [1024]> obj_51_beta_0_to_fp16 = const()[name = tensor<string, []>("obj_51_beta_0_to_fp16"), val = tensor<fp16, [1024]>(BLOBFILE(path = tensor<string, []>("@model_path/weights/weight.bin"), offset = tensor<uint64, []>(216315328)))];
            tensor<fp16, []> obj_51_epsilon_0_to_fp16 = const()[name = tensor<string, []>("obj_51_epsilon_0_to_fp16"), val = tensor<fp16, []>(0x1.5p-17)];
            tensor<fp16, [1, 1024, 1, 1]> obj_51_cast_fp16 = batch_norm(beta = obj_51_beta_0_to_fp16, epsilon = obj_51_epsilon_0_to_fp16, gamma = obj_51_gamma_0_to_fp16, mean = obj_1_mean_0_to_fp16, variance = obj_1_variance_0_to_fp16, x = out_21_cast_fp16)[name = tensor<string, []>("obj_51_cast_fp16")];
            tensor<string, []> query_15_pad_type_0 = const()[name = tensor<string, []>("query_15_pad_type_0"), val = tensor<string, []>("valid")];
            tensor<int32, [2]> query_15_strides_0 = const()[name = tensor<string, []>("query_15_strides_0"), val = tensor<int32, [2]>([1, 1])];
            tensor<int32, [4]> query_15_pad_0 = const()[name = tensor<string, []>("query_15_pad_0"), val = tensor<int32, [4]>([0, 0, 0, 0])];
            tensor<int32, [2]> query_15_dilations_0 = const()[name = tensor<string, []>("query_15_dilations_0"), val = tensor<int32, [2]>([1, 1])];
            tensor<int32, []> query_15_groups_0 = const()[name = tensor<string, []>("query_15_groups_0"), val = tensor<int32, []>(1)];
            tensor<fp16, [1024, 1024, 1, 1]> layers_3_encoder_attn_q_proj_weight_to_fp16 = const()[name = tensor<string, []>("layers_3_encoder_attn_q_proj_weight_to_fp16"), val = tensor<fp16, [1024, 1024, 1, 1]>(BLOBFILE(path = tensor<string, []>("@model_path/weights/weight.bin"), offset = tensor<uint64, []>(216317440)))];
            tensor<fp16, [1024]> layers_3_encoder_attn_q_proj_bias_to_fp16 = const()[name = tensor<string, []>("layers_3_encoder_attn_q_proj_bias_to_fp16"), val = tensor<fp16, [1024]>(BLOBFILE(path = tensor<string, []>("@model_path/weights/weight.bin"), offset = tensor<uint64, []>(218414656)))];
            tensor<fp16, [1, 1024, 1, 1]> query_15_cast_fp16 = conv(bias = layers_3_encoder_attn_q_proj_bias_to_fp16, dilations = query_15_dilations_0, groups = query_15_groups_0, pad = query_15_pad_0, pad_type = query_15_pad_type_0, strides = query_15_strides_0, weight = layers_3_encoder_attn_q_proj_weight_to_fp16, x = obj_51_cast_fp16)[name = tensor<string, []>("query_15_cast_fp16")];
            tensor<string, []> key_15_pad_type_0 = const()[name = tensor<string, []>("key_15_pad_type_0"), val = tensor<string, []>("valid")];
            tensor<int32, [2]> key_15_strides_0 = const()[name = tensor<string, []>("key_15_strides_0"), val = tensor<int32, [2]>([1, 1])];
            tensor<int32, [4]> key_15_pad_0 = const()[name = tensor<string, []>("key_15_pad_0"), val = tensor<int32, [4]>([0, 0, 0, 0])];
            tensor<int32, [2]> key_15_dilations_0 = const()[name = tensor<string, []>("key_15_dilations_0"), val = tensor<int32, [2]>([1, 1])];
            tensor<int32, []> key_15_groups_0 = const()[name = tensor<string, []>("key_15_groups_0"), val = tensor<int32, []>(1)];
            tensor<fp16, [1024, 1024, 1, 1]> layers_3_encoder_attn_k_proj_weight_to_fp16 = const()[name = tensor<string, []>("layers_3_encoder_attn_k_proj_weight_to_fp16"), val = tensor<fp16, [1024, 1024, 1, 1]>(BLOBFILE(path = tensor<string, []>("@model_path/weights/weight.bin"), offset = tensor<uint64, []>(218416768)))];
            tensor<fp16, [1, 1024, 1, 1500]> key_15_cast_fp16 = conv(dilations = key_15_dilations_0, groups = key_15_groups_0, pad = key_15_pad_0, pad_type = key_15_pad_type_0, strides = key_15_strides_0, weight = layers_3_encoder_attn_k_proj_weight_to_fp16, x = encoder_output_embeds)[name = tensor<string, []>("key_15_cast_fp16")];
            tensor<string, []> value_15_pad_type_0 = const()[name = tensor<string, []>("value_15_pad_type_0"), val = tensor<string, []>("valid")];
            tensor<int32, [2]> value_15_strides_0 = const()[name = tensor<string, []>("value_15_strides_0"), val = tensor<int32, [2]>([1, 1])];
            tensor<int32, [4]> value_15_pad_0 = const()[name = tensor<string, []>("value_15_pad_0"), val = tensor<int32, [4]>([0, 0, 0, 0])];
            tensor<int32, [2]> value_15_dilations_0 = const()[name = tensor<string, []>("value_15_dilations_0"), val = tensor<int32, [2]>([1, 1])];
            tensor<int32, []> value_15_groups_0 = const()[name = tensor<string, []>("value_15_groups_0"), val = tensor<int32, []>(1)];
            tensor<fp16, [1024, 1024, 1, 1]> layers_3_encoder_attn_v_proj_weight_to_fp16 = const()[name = tensor<string, []>("layers_3_encoder_attn_v_proj_weight_to_fp16"), val = tensor<fp16, [1024, 1024, 1, 1]>(BLOBFILE(path = tensor<string, []>("@model_path/weights/weight.bin"), offset = tensor<uint64, []>(220513984)))];
            tensor<fp16, [1024]> layers_3_encoder_attn_v_proj_bias_to_fp16 = const()[name = tensor<string, []>("layers_3_encoder_attn_v_proj_bias_to_fp16"), val = tensor<fp16, [1024]>(BLOBFILE(path = tensor<string, []>("@model_path/weights/weight.bin"), offset = tensor<uint64, []>(222611200)))];
            tensor<fp16, [1, 1024, 1, 1500]> value_15_cast_fp16 = conv(bias = layers_3_encoder_attn_v_proj_bias_to_fp16, dilations = value_15_dilations_0, groups = value_15_groups_0, pad = value_15_pad_0, pad_type = value_15_pad_type_0, strides = value_15_strides_0, weight = layers_3_encoder_attn_v_proj_weight_to_fp16, x = encoder_output_embeds)[name = tensor<string, []>("value_15_cast_fp16")];
            tensor<int32, [4]> var_952 = const()[name = tensor<string, []>("op_952"), val = tensor<int32, [4]>([1, 16, 64, 1])];
            tensor<fp16, [1, 16, 64, 1]> mh_q_15_cast_fp16 = reshape(shape = var_952, x = query_15_cast_fp16)[name = tensor<string, []>("mh_q_15_cast_fp16")];
            tensor<fp16, []> var_954_to_fp16 = const()[name = tensor<string, []>("op_954_to_fp16"), val = tensor<fp16, []>(0x1p-3)];
            tensor<fp16, [1, 16, 64, 1]> var_955_cast_fp16 = mul(x = mh_q_15_cast_fp16, y = var_954_to_fp16)[name = tensor<string, []>("op_955_cast_fp16")];
            tensor<int32, [4]> var_958 = const()[name = tensor<string, []>("op_958"), val = tensor<int32, [4]>([1, 16, 64, 1500])];
            tensor<fp16, [1, 16, 64, 1500]> var_959_cast_fp16 = reshape(shape = var_958, x = key_15_cast_fp16)[name = tensor<string, []>("op_959_cast_fp16")];
            tensor<bool, []> mh_w_23_transpose_x_0 = const()[name = tensor<string, []>("mh_w_23_transpose_x_0"), val = tensor<bool, []>(true)];
            tensor<bool, []> mh_w_23_transpose_y_0 = const()[name = tensor<string, []>("mh_w_23_transpose_y_0"), val = tensor<bool, []>(false)];
            tensor<fp16, [1, 16, 1, 1500]> mh_w_23_cast_fp16 = matmul(transpose_x = mh_w_23_transpose_x_0, transpose_y = mh_w_23_transpose_y_0, x = var_955_cast_fp16, y = var_959_cast_fp16)[name = tensor<string, []>("mh_w_23_cast_fp16")];
            tensor<fp16, [1, 16, 1, 1500]> obj_55_cast_fp16 = softmax(axis = var_801, x = mh_w_23_cast_fp16)[name = tensor<string, []>("obj_55_cast_fp16")];
            tensor<int32, [4]> var_963 = const()[name = tensor<string, []>("op_963"), val = tensor<int32, [4]>([1, 16, 64, 1500])];
            tensor<fp16, [1, 16, 64, 1500]> var_964_cast_fp16 = reshape(shape = var_963, x = value_15_cast_fp16)[name = tensor<string, []>("op_964_cast_fp16")];
            tensor<bool, []> attn_15_transpose_x_0 = const()[name = tensor<string, []>("attn_15_transpose_x_0"), val = tensor<bool, []>(false)];
            tensor<bool, []> attn_15_transpose_y_0 = const()[name = tensor<string, []>("attn_15_transpose_y_0"), val = tensor<bool, []>(true)];
            tensor<fp16, [1, 16, 64, 1]> attn_15_cast_fp16 = matmul(transpose_x = attn_15_transpose_x_0, transpose_y = attn_15_transpose_y_0, x = var_964_cast_fp16, y = obj_55_cast_fp16)[name = tensor<string, []>("attn_15_cast_fp16")];
            tensor<int32, [4]> var_967 = const()[name = tensor<string, []>("op_967"), val = tensor<int32, [4]>([1, 1024, 1, 1])];
            tensor<fp16, [1, 1024, 1, 1]> input_33_cast_fp16 = reshape(shape = var_967, x = attn_15_cast_fp16)[name = tensor<string, []>("input_33_cast_fp16")];
            tensor<string, []> obj_53_pad_type_0 = const()[name = tensor<string, []>("obj_53_pad_type_0"), val = tensor<string, []>("valid")];
            tensor<int32, [2]> obj_53_strides_0 = const()[name = tensor<string, []>("obj_53_strides_0"), val = tensor<int32, [2]>([1, 1])];
            tensor<int32, [4]> obj_53_pad_0 = const()[name = tensor<string, []>("obj_53_pad_0"), val = tensor<int32, [4]>([0, 0, 0, 0])];
            tensor<int32, [2]> obj_53_dilations_0 = const()[name = tensor<string, []>("obj_53_dilations_0"), val = tensor<int32, [2]>([1, 1])];
            tensor<int32, []> obj_53_groups_0 = const()[name = tensor<string, []>("obj_53_groups_0"), val = tensor<int32, []>(1)];
            tensor<fp16, [1024, 1024, 1, 1]> layers_3_encoder_attn_o_proj_weight_to_fp16 = const()[name = tensor<string, []>("layers_3_encoder_attn_o_proj_weight_to_fp16"), val = tensor<fp16, [1024, 1024, 1, 1]>(BLOBFILE(path = tensor<string, []>("@model_path/weights/weight.bin"), offset = tensor<uint64, []>(222613312)))];
            tensor<fp16, [1024]> layers_3_encoder_attn_o_proj_bias_to_fp16 = const()[name = tensor<string, []>("layers_3_encoder_attn_o_proj_bias_to_fp16"), val = tensor<fp16, [1024]>(BLOBFILE(path = tensor<string, []>("@model_path/weights/weight.bin"), offset = tensor<uint64, []>(224710528)))];
            tensor<fp16, [1, 1024, 1, 1]> obj_53_cast_fp16 = conv(bias = layers_3_encoder_attn_o_proj_bias_to_fp16, dilations = obj_53_dilations_0, groups = obj_53_groups_0, pad = obj_53_pad_0, pad_type = obj_53_pad_type_0, strides = obj_53_strides_0, weight = layers_3_encoder_attn_o_proj_weight_to_fp16, x = input_33_cast_fp16)[name = tensor<string, []>("obj_53_cast_fp16")];
            tensor<fp16, [1, 1024, 1, 1]> inputs_23_cast_fp16 = add(x = inputs_21_cast_fp16, y = obj_53_cast_fp16)[name = tensor<string, []>("inputs_23_cast_fp16")];
            tensor<int32, [1]> out_23_axes_0 = const()[name = tensor<string, []>("out_23_axes_0"), val = tensor<int32, [1]>([1])];
            tensor<fp16, []> var_985_to_fp16 = const()[name = tensor<string, []>("op_985_to_fp16"), val = tensor<fp16, []>(0x1.5p-17)];
            tensor<fp16, [1, 1024, 1, 1]> out_23_cast_fp16 = layer_norm(axes = out_23_axes_0, epsilon = var_985_to_fp16, x = inputs_23_cast_fp16)[name = tensor<string, []>("out_23_cast_fp16")];
            tensor<fp16, [1024]> input_35_gamma_0_to_fp16 = const()[name = tensor<string, []>("input_35_gamma_0_to_fp16"), val = tensor<fp16, [1024]>(BLOBFILE(path = tensor<string, []>("@model_path/weights/weight.bin"), offset = tensor<uint64, []>(224712640)))];
            tensor<fp16, [1024]> input_35_beta_0_to_fp16 = const()[name = tensor<string, []>("input_35_beta_0_to_fp16"), val = tensor<fp16, [1024]>(BLOBFILE(path = tensor<string, []>("@model_path/weights/weight.bin"), offset = tensor<uint64, []>(224714752)))];
            tensor<fp16, []> input_35_epsilon_0_to_fp16 = const()[name = tensor<string, []>("input_35_epsilon_0_to_fp16"), val = tensor<fp16, []>(0x1.5p-17)];
            tensor<fp16, [1, 1024, 1, 1]> input_35_cast_fp16 = batch_norm(beta = input_35_beta_0_to_fp16, epsilon = input_35_epsilon_0_to_fp16, gamma = input_35_gamma_0_to_fp16, mean = obj_1_mean_0_to_fp16, variance = obj_1_variance_0_to_fp16, x = out_23_cast_fp16)[name = tensor<string, []>("input_35_cast_fp16")];
            tensor<string, []> input_37_pad_type_0 = const()[name = tensor<string, []>("input_37_pad_type_0"), val = tensor<string, []>("valid")];
            tensor<int32, [2]> input_37_strides_0 = const()[name = tensor<string, []>("input_37_strides_0"), val = tensor<int32, [2]>([1, 1])];
            tensor<int32, [4]> input_37_pad_0 = const()[name = tensor<string, []>("input_37_pad_0"), val = tensor<int32, [4]>([0, 0, 0, 0])];
            tensor<int32, [2]> input_37_dilations_0 = const()[name = tensor<string, []>("input_37_dilations_0"), val = tensor<int32, [2]>([1, 1])];
            tensor<int32, []> input_37_groups_0 = const()[name = tensor<string, []>("input_37_groups_0"), val = tensor<int32, []>(1)];
            tensor<fp16, [4096, 1024, 1, 1]> layers_3_fc1_weight_to_fp16 = const()[name = tensor<string, []>("layers_3_fc1_weight_to_fp16"), val = tensor<fp16, [4096, 1024, 1, 1]>(BLOBFILE(path = tensor<string, []>("@model_path/weights/weight.bin"), offset = tensor<uint64, []>(224716864)))];
            tensor<fp16, [4096]> layers_3_fc1_bias_to_fp16 = const()[name = tensor<string, []>("layers_3_fc1_bias_to_fp16"), val = tensor<fp16, [4096]>(BLOBFILE(path = tensor<string, []>("@model_path/weights/weight.bin"), offset = tensor<uint64, []>(233105536)))];
            tensor<fp16, [1, 4096, 1, 1]> input_37_cast_fp16 = conv(bias = layers_3_fc1_bias_to_fp16, dilations = input_37_dilations_0, groups = input_37_groups_0, pad = input_37_pad_0, pad_type = input_37_pad_type_0, strides = input_37_strides_0, weight = layers_3_fc1_weight_to_fp16, x = input_35_cast_fp16)[name = tensor<string, []>("input_37_cast_fp16")];
            tensor<string, []> input_39_mode_0 = const()[name = tensor<string, []>("input_39_mode_0"), val = tensor<string, []>("EXACT")];
            tensor<fp16, [1, 4096, 1, 1]> input_39_cast_fp16 = gelu(mode = input_39_mode_0, x = input_37_cast_fp16)[name = tensor<string, []>("input_39_cast_fp16")];
            tensor<string, []> hidden_states_9_pad_type_0 = const()[name = tensor<string, []>("hidden_states_9_pad_type_0"), val = tensor<string, []>("valid")];
            tensor<int32, [2]> hidden_states_9_strides_0 = const()[name = tensor<string, []>("hidden_states_9_strides_0"), val = tensor<int32, [2]>([1, 1])];
            tensor<int32, [4]> hidden_states_9_pad_0 = const()[name = tensor<string, []>("hidden_states_9_pad_0"), val = tensor<int32, [4]>([0, 0, 0, 0])];
            tensor<int32, [2]> hidden_states_9_dilations_0 = const()[name = tensor<string, []>("hidden_states_9_dilations_0"), val = tensor<int32, [2]>([1, 1])];
            tensor<int32, []> hidden_states_9_groups_0 = const()[name = tensor<string, []>("hidden_states_9_groups_0"), val = tensor<int32, []>(1)];
            tensor<fp16, [1024, 4096, 1, 1]> layers_3_fc2_weight_to_fp16 = const()[name = tensor<string, []>("layers_3_fc2_weight_to_fp16"), val = tensor<fp16, [1024, 4096, 1, 1]>(BLOBFILE(path = tensor<string, []>("@model_path/weights/weight.bin"), offset = tensor<uint64, []>(233113792)))];
            tensor<fp16, [1024]> layers_3_fc2_bias_to_fp16 = const()[name = tensor<string, []>("layers_3_fc2_bias_to_fp16"), val = tensor<fp16, [1024]>(BLOBFILE(path = tensor<string, []>("@model_path/weights/weight.bin"), offset = tensor<uint64, []>(241502464)))];
            tensor<fp16, [1, 1024, 1, 1]> hidden_states_9_cast_fp16 = conv(bias = layers_3_fc2_bias_to_fp16, dilations = hidden_states_9_dilations_0, groups = hidden_states_9_groups_0, pad = hidden_states_9_pad_0, pad_type = hidden_states_9_pad_type_0, strides = hidden_states_9_strides_0, weight = layers_3_fc2_weight_to_fp16, x = input_39_cast_fp16)[name = tensor<string, []>("hidden_states_9_cast_fp16")];
            tensor<fp16, [1, 1024, 1, 1]> inputs_25_cast_fp16 = add(x = inputs_23_cast_fp16, y = hidden_states_9_cast_fp16)[name = tensor<string, []>("inputs_25_cast_fp16")];
            tensor<int32, []> var_1020 = const()[name = tensor<string, []>("op_1020"), val = tensor<int32, []>(3)];
            tensor<int32, [1]> out_25_axes_0 = const()[name = tensor<string, []>("out_25_axes_0"), val = tensor<int32, [1]>([1])];
            tensor<fp16, []> var_1045_to_fp16 = const()[name = tensor<string, []>("op_1045_to_fp16"), val = tensor<fp16, []>(0x1.5p-17)];
            tensor<fp16, [1, 1024, 1, 1]> out_25_cast_fp16 = layer_norm(axes = out_25_axes_0, epsilon = var_1045_to_fp16, x = inputs_25_cast_fp16)[name = tensor<string, []>("out_25_cast_fp16")];
            tensor<fp16, [1024]> obj_57_gamma_0_to_fp16 = const()[name = tensor<string, []>("obj_57_gamma_0_to_fp16"), val = tensor<fp16, [1024]>(BLOBFILE(path = tensor<string, []>("@model_path/weights/weight.bin"), offset = tensor<uint64, []>(241504576)))];
            tensor<fp16, [1024]> obj_57_beta_0_to_fp16 = const()[name = tensor<string, []>("obj_57_beta_0_to_fp16"), val = tensor<fp16, [1024]>(BLOBFILE(path = tensor<string, []>("@model_path/weights/weight.bin"), offset = tensor<uint64, []>(241506688)))];
            tensor<fp16, []> obj_57_epsilon_0_to_fp16 = const()[name = tensor<string, []>("obj_57_epsilon_0_to_fp16"), val = tensor<fp16, []>(0x1.5p-17)];
            tensor<fp16, [1, 1024, 1, 1]> obj_57_cast_fp16 = batch_norm(beta = obj_57_beta_0_to_fp16, epsilon = obj_57_epsilon_0_to_fp16, gamma = obj_57_gamma_0_to_fp16, mean = obj_1_mean_0_to_fp16, variance = obj_1_variance_0_to_fp16, x = out_25_cast_fp16)[name = tensor<string, []>("obj_57_cast_fp16")];
            tensor<string, []> query_17_pad_type_0 = const()[name = tensor<string, []>("query_17_pad_type_0"), val = tensor<string, []>("valid")];
            tensor<int32, [2]> query_17_strides_0 = const()[name = tensor<string, []>("query_17_strides_0"), val = tensor<int32, [2]>([1, 1])];
            tensor<int32, [4]> query_17_pad_0 = const()[name = tensor<string, []>("query_17_pad_0"), val = tensor<int32, [4]>([0, 0, 0, 0])];
            tensor<int32, [2]> query_17_dilations_0 = const()[name = tensor<string, []>("query_17_dilations_0"), val = tensor<int32, [2]>([1, 1])];
            tensor<int32, []> query_17_groups_0 = const()[name = tensor<string, []>("query_17_groups_0"), val = tensor<int32, []>(1)];
            tensor<fp16, [1024, 1024, 1, 1]> layers_4_self_attn_q_proj_weight_to_fp16 = const()[name = tensor<string, []>("layers_4_self_attn_q_proj_weight_to_fp16"), val = tensor<fp16, [1024, 1024, 1, 1]>(BLOBFILE(path = tensor<string, []>("@model_path/weights/weight.bin"), offset = tensor<uint64, []>(241508800)))];
            tensor<fp16, [1024]> layers_4_self_attn_q_proj_bias_to_fp16 = const()[name = tensor<string, []>("layers_4_self_attn_q_proj_bias_to_fp16"), val = tensor<fp16, [1024]>(BLOBFILE(path = tensor<string, []>("@model_path/weights/weight.bin"), offset = tensor<uint64, []>(243606016)))];
            tensor<fp16, [1, 1024, 1, 1]> query_17_cast_fp16 = conv(bias = layers_4_self_attn_q_proj_bias_to_fp16, dilations = query_17_dilations_0, groups = query_17_groups_0, pad = query_17_pad_0, pad_type = query_17_pad_type_0, strides = query_17_strides_0, weight = layers_4_self_attn_q_proj_weight_to_fp16, x = obj_57_cast_fp16)[name = tensor<string, []>("query_17_cast_fp16")];
            tensor<string, []> current_key_9_pad_type_0 = const()[name = tensor<string, []>("current_key_9_pad_type_0"), val = tensor<string, []>("valid")];
            tensor<int32, [2]> current_key_9_strides_0 = const()[name = tensor<string, []>("current_key_9_strides_0"), val = tensor<int32, [2]>([1, 1])];
            tensor<int32, [4]> current_key_9_pad_0 = const()[name = tensor<string, []>("current_key_9_pad_0"), val = tensor<int32, [4]>([0, 0, 0, 0])];
            tensor<int32, [2]> current_key_9_dilations_0 = const()[name = tensor<string, []>("current_key_9_dilations_0"), val = tensor<int32, [2]>([1, 1])];
            tensor<int32, []> current_key_9_groups_0 = const()[name = tensor<string, []>("current_key_9_groups_0"), val = tensor<int32, []>(1)];
            tensor<fp16, [1024, 1024, 1, 1]> layers_4_self_attn_k_proj_weight_to_fp16 = const()[name = tensor<string, []>("layers_4_self_attn_k_proj_weight_to_fp16"), val = tensor<fp16, [1024, 1024, 1, 1]>(BLOBFILE(path = tensor<string, []>("@model_path/weights/weight.bin"), offset = tensor<uint64, []>(243608128)))];
            tensor<fp16, [1, 1024, 1, 1]> current_key_9_cast_fp16 = conv(dilations = current_key_9_dilations_0, groups = current_key_9_groups_0, pad = current_key_9_pad_0, pad_type = current_key_9_pad_type_0, strides = current_key_9_strides_0, weight = layers_4_self_attn_k_proj_weight_to_fp16, x = obj_57_cast_fp16)[name = tensor<string, []>("current_key_9_cast_fp16")];
            tensor<string, []> current_value_9_pad_type_0 = const()[name = tensor<string, []>("current_value_9_pad_type_0"), val = tensor<string, []>("valid")];
            tensor<int32, [2]> current_value_9_strides_0 = const()[name = tensor<string, []>("current_value_9_strides_0"), val = tensor<int32, [2]>([1, 1])];
            tensor<int32, [4]> current_value_9_pad_0 = const()[name = tensor<string, []>("current_value_9_pad_0"), val = tensor<int32, [4]>([0, 0, 0, 0])];
            tensor<int32, [2]> current_value_9_dilations_0 = const()[name = tensor<string, []>("current_value_9_dilations_0"), val = tensor<int32, [2]>([1, 1])];
            tensor<int32, []> current_value_9_groups_0 = const()[name = tensor<string, []>("current_value_9_groups_0"), val = tensor<int32, []>(1)];
            tensor<fp16, [1024, 1024, 1, 1]> layers_4_self_attn_v_proj_weight_to_fp16 = const()[name = tensor<string, []>("layers_4_self_attn_v_proj_weight_to_fp16"), val = tensor<fp16, [1024, 1024, 1, 1]>(BLOBFILE(path = tensor<string, []>("@model_path/weights/weight.bin"), offset = tensor<uint64, []>(245705344)))];
            tensor<fp16, [1024]> layers_4_self_attn_v_proj_bias_to_fp16 = const()[name = tensor<string, []>("layers_4_self_attn_v_proj_bias_to_fp16"), val = tensor<fp16, [1024]>(BLOBFILE(path = tensor<string, []>("@model_path/weights/weight.bin"), offset = tensor<uint64, []>(247802560)))];
            tensor<fp16, [1, 1024, 1, 1]> current_value_9_cast_fp16 = conv(bias = layers_4_self_attn_v_proj_bias_to_fp16, dilations = current_value_9_dilations_0, groups = current_value_9_groups_0, pad = current_value_9_pad_0, pad_type = current_value_9_pad_type_0, strides = current_value_9_strides_0, weight = layers_4_self_attn_v_proj_weight_to_fp16, x = obj_57_cast_fp16)[name = tensor<string, []>("current_value_9_cast_fp16")];
            tensor<fp16, [1, 1024, 1, 448]> var_1084_cast_fp16 = mul(x = var_87_cast_fp16_4, y = var_207_cast_fp16)[name = tensor<string, []>("op_1084_cast_fp16")];
            tensor<fp16, [1, 1024, 1, 448]> var_1085_cast_fp16 = mul(x = current_key_9_cast_fp16, y = var_205_cast_fp16)[name = tensor<string, []>("op_1085_cast_fp16")];
            tensor<fp16, [1, 1024, 1, 448]> key_17_cast_fp16 = add(x = var_1084_cast_fp16, y = var_1085_cast_fp16)[name = tensor<string, []>("key_17_cast_fp16")];
            tensor<fp16, [1, 1024, 1, 448]> var_1088_cast_fp16 = mul(x = var_114_cast_fp16_4, y = var_207_cast_fp16)[name = tensor<string, []>("op_1088_cast_fp16")];
            tensor<fp16, [1, 1024, 1, 448]> var_1089_cast_fp16 = mul(x = current_value_9_cast_fp16, y = var_205_cast_fp16)[name = tensor<string, []>("op_1089_cast_fp16")];
            tensor<fp16, [1, 1024, 1, 448]> value_17_cast_fp16 = add(x = var_1088_cast_fp16, y = var_1089_cast_fp16)[name = tensor<string, []>("value_17_cast_fp16")];
            tensor<int32, [4]> var_1093 = const()[name = tensor<string, []>("op_1093"), val = tensor<int32, [4]>([1, 16, 64, 1])];
            tensor<fp16, [1, 16, 64, 1]> mh_q_17_cast_fp16 = reshape(shape = var_1093, x = query_17_cast_fp16)[name = tensor<string, []>("mh_q_17_cast_fp16")];
            tensor<fp16, []> var_1095_to_fp16 = const()[name = tensor<string, []>("op_1095_to_fp16"), val = tensor<fp16, []>(0x1p-3)];
            tensor<fp16, [1, 16, 64, 1]> var_1096_cast_fp16 = mul(x = mh_q_17_cast_fp16, y = var_1095_to_fp16)[name = tensor<string, []>("op_1096_cast_fp16")];
            tensor<int32, [4]> var_1099 = const()[name = tensor<string, []>("op_1099"), val = tensor<int32, [4]>([1, 16, 64, 448])];
            tensor<fp16, [1, 16, 64, 448]> var_1100_cast_fp16 = reshape(shape = var_1099, x = key_17_cast_fp16)[name = tensor<string, []>("op_1100_cast_fp16")];
            tensor<bool, []> mh_w_25_transpose_x_0 = const()[name = tensor<string, []>("mh_w_25_transpose_x_0"), val = tensor<bool, []>(true)];
            tensor<bool, []> mh_w_25_transpose_y_0 = const()[name = tensor<string, []>("mh_w_25_transpose_y_0"), val = tensor<bool, []>(false)];
            tensor<fp16, [1, 16, 1, 448]> mh_w_25_cast_fp16 = matmul(transpose_x = mh_w_25_transpose_x_0, transpose_y = mh_w_25_transpose_y_0, x = var_1096_cast_fp16, y = var_1100_cast_fp16)[name = tensor<string, []>("mh_w_25_cast_fp16")];
            tensor<fp16, [1, 16, 1, 448]> mh_w_27_cast_fp16 = add(x = mh_w_25_cast_fp16, y = var_229_cast_fp16)[name = tensor<string, []>("mh_w_27_cast_fp16")];
            tensor<fp16, [1, 16, 1, 448]> var_1108_cast_fp16 = softmax(axis = var_1020, x = mh_w_27_cast_fp16)[name = tensor<string, []>("op_1108_cast_fp16")];
            tensor<int32, [4]> var_1109 = const()[name = tensor<string, []>("op_1109"), val = tensor<int32, [4]>([1, 16, 64, 448])];
            tensor<fp16, [1, 16, 64, 448]> var_1110_cast_fp16 = reshape(shape = var_1109, x = value_17_cast_fp16)[name = tensor<string, []>("op_1110_cast_fp16")];
            tensor<bool, []> attn_17_transpose_x_0 = const()[name = tensor<string, []>("attn_17_transpose_x_0"), val = tensor<bool, []>(false)];
            tensor<bool, []> attn_17_transpose_y_0 = const()[name = tensor<string, []>("attn_17_transpose_y_0"), val = tensor<bool, []>(true)];
            tensor<fp16, [1, 16, 64, 1]> attn_17_cast_fp16 = matmul(transpose_x = attn_17_transpose_x_0, transpose_y = attn_17_transpose_y_0, x = var_1110_cast_fp16, y = var_1108_cast_fp16)[name = tensor<string, []>("attn_17_cast_fp16")];
            tensor<int32, [4]> var_1113 = const()[name = tensor<string, []>("op_1113"), val = tensor<int32, [4]>([1, 1024, 1, 1])];
            tensor<fp16, [1, 1024, 1, 1]> input_41_cast_fp16 = reshape(shape = var_1113, x = attn_17_cast_fp16)[name = tensor<string, []>("input_41_cast_fp16")];
            tensor<string, []> obj_63_pad_type_0 = const()[name = tensor<string, []>("obj_63_pad_type_0"), val = tensor<string, []>("valid")];
            tensor<int32, [2]> obj_63_strides_0 = const()[name = tensor<string, []>("obj_63_strides_0"), val = tensor<int32, [2]>([1, 1])];
            tensor<int32, [4]> obj_63_pad_0 = const()[name = tensor<string, []>("obj_63_pad_0"), val = tensor<int32, [4]>([0, 0, 0, 0])];
            tensor<int32, [2]> obj_63_dilations_0 = const()[name = tensor<string, []>("obj_63_dilations_0"), val = tensor<int32, [2]>([1, 1])];
            tensor<int32, []> obj_63_groups_0 = const()[name = tensor<string, []>("obj_63_groups_0"), val = tensor<int32, []>(1)];
            tensor<fp16, [1024, 1024, 1, 1]> layers_4_self_attn_o_proj_weight_to_fp16 = const()[name = tensor<string, []>("layers_4_self_attn_o_proj_weight_to_fp16"), val = tensor<fp16, [1024, 1024, 1, 1]>(BLOBFILE(path = tensor<string, []>("@model_path/weights/weight.bin"), offset = tensor<uint64, []>(247804672)))];
            tensor<fp16, [1024]> layers_4_self_attn_o_proj_bias_to_fp16 = const()[name = tensor<string, []>("layers_4_self_attn_o_proj_bias_to_fp16"), val = tensor<fp16, [1024]>(BLOBFILE(path = tensor<string, []>("@model_path/weights/weight.bin"), offset = tensor<uint64, []>(249901888)))];
            tensor<fp16, [1, 1024, 1, 1]> obj_63_cast_fp16 = conv(bias = layers_4_self_attn_o_proj_bias_to_fp16, dilations = obj_63_dilations_0, groups = obj_63_groups_0, pad = obj_63_pad_0, pad_type = obj_63_pad_type_0, strides = obj_63_strides_0, weight = layers_4_self_attn_o_proj_weight_to_fp16, x = input_41_cast_fp16)[name = tensor<string, []>("obj_63_cast_fp16")];
            tensor<fp16, [1, 1024, 1, 1]> inputs_27_cast_fp16 = add(x = inputs_25_cast_fp16, y = obj_63_cast_fp16)[name = tensor<string, []>("inputs_27_cast_fp16")];
            tensor<int32, [1]> out_27_axes_0 = const()[name = tensor<string, []>("out_27_axes_0"), val = tensor<int32, [1]>([1])];
            tensor<fp16, []> var_1135_to_fp16 = const()[name = tensor<string, []>("op_1135_to_fp16"), val = tensor<fp16, []>(0x1.5p-17)];
            tensor<fp16, [1, 1024, 1, 1]> out_27_cast_fp16 = layer_norm(axes = out_27_axes_0, epsilon = var_1135_to_fp16, x = inputs_27_cast_fp16)[name = tensor<string, []>("out_27_cast_fp16")];
            tensor<fp16, [1024]> obj_65_gamma_0_to_fp16 = const()[name = tensor<string, []>("obj_65_gamma_0_to_fp16"), val = tensor<fp16, [1024]>(BLOBFILE(path = tensor<string, []>("@model_path/weights/weight.bin"), offset = tensor<uint64, []>(249904000)))];
            tensor<fp16, [1024]> obj_65_beta_0_to_fp16 = const()[name = tensor<string, []>("obj_65_beta_0_to_fp16"), val = tensor<fp16, [1024]>(BLOBFILE(path = tensor<string, []>("@model_path/weights/weight.bin"), offset = tensor<uint64, []>(249906112)))];
            tensor<fp16, []> obj_65_epsilon_0_to_fp16 = const()[name = tensor<string, []>("obj_65_epsilon_0_to_fp16"), val = tensor<fp16, []>(0x1.5p-17)];
            tensor<fp16, [1, 1024, 1, 1]> obj_65_cast_fp16 = batch_norm(beta = obj_65_beta_0_to_fp16, epsilon = obj_65_epsilon_0_to_fp16, gamma = obj_65_gamma_0_to_fp16, mean = obj_1_mean_0_to_fp16, variance = obj_1_variance_0_to_fp16, x = out_27_cast_fp16)[name = tensor<string, []>("obj_65_cast_fp16")];
            tensor<string, []> query_19_pad_type_0 = const()[name = tensor<string, []>("query_19_pad_type_0"), val = tensor<string, []>("valid")];
            tensor<int32, [2]> query_19_strides_0 = const()[name = tensor<string, []>("query_19_strides_0"), val = tensor<int32, [2]>([1, 1])];
            tensor<int32, [4]> query_19_pad_0 = const()[name = tensor<string, []>("query_19_pad_0"), val = tensor<int32, [4]>([0, 0, 0, 0])];
            tensor<int32, [2]> query_19_dilations_0 = const()[name = tensor<string, []>("query_19_dilations_0"), val = tensor<int32, [2]>([1, 1])];
            tensor<int32, []> query_19_groups_0 = const()[name = tensor<string, []>("query_19_groups_0"), val = tensor<int32, []>(1)];
            tensor<fp16, [1024, 1024, 1, 1]> layers_4_encoder_attn_q_proj_weight_to_fp16 = const()[name = tensor<string, []>("layers_4_encoder_attn_q_proj_weight_to_fp16"), val = tensor<fp16, [1024, 1024, 1, 1]>(BLOBFILE(path = tensor<string, []>("@model_path/weights/weight.bin"), offset = tensor<uint64, []>(249908224)))];
            tensor<fp16, [1024]> layers_4_encoder_attn_q_proj_bias_to_fp16 = const()[name = tensor<string, []>("layers_4_encoder_attn_q_proj_bias_to_fp16"), val = tensor<fp16, [1024]>(BLOBFILE(path = tensor<string, []>("@model_path/weights/weight.bin"), offset = tensor<uint64, []>(252005440)))];
            tensor<fp16, [1, 1024, 1, 1]> query_19_cast_fp16 = conv(bias = layers_4_encoder_attn_q_proj_bias_to_fp16, dilations = query_19_dilations_0, groups = query_19_groups_0, pad = query_19_pad_0, pad_type = query_19_pad_type_0, strides = query_19_strides_0, weight = layers_4_encoder_attn_q_proj_weight_to_fp16, x = obj_65_cast_fp16)[name = tensor<string, []>("query_19_cast_fp16")];
            tensor<string, []> key_19_pad_type_0 = const()[name = tensor<string, []>("key_19_pad_type_0"), val = tensor<string, []>("valid")];
            tensor<int32, [2]> key_19_strides_0 = const()[name = tensor<string, []>("key_19_strides_0"), val = tensor<int32, [2]>([1, 1])];
            tensor<int32, [4]> key_19_pad_0 = const()[name = tensor<string, []>("key_19_pad_0"), val = tensor<int32, [4]>([0, 0, 0, 0])];
            tensor<int32, [2]> key_19_dilations_0 = const()[name = tensor<string, []>("key_19_dilations_0"), val = tensor<int32, [2]>([1, 1])];
            tensor<int32, []> key_19_groups_0 = const()[name = tensor<string, []>("key_19_groups_0"), val = tensor<int32, []>(1)];
            tensor<fp16, [1024, 1024, 1, 1]> layers_4_encoder_attn_k_proj_weight_to_fp16 = const()[name = tensor<string, []>("layers_4_encoder_attn_k_proj_weight_to_fp16"), val = tensor<fp16, [1024, 1024, 1, 1]>(BLOBFILE(path = tensor<string, []>("@model_path/weights/weight.bin"), offset = tensor<uint64, []>(252007552)))];
            tensor<fp16, [1, 1024, 1, 1500]> key_19_cast_fp16 = conv(dilations = key_19_dilations_0, groups = key_19_groups_0, pad = key_19_pad_0, pad_type = key_19_pad_type_0, strides = key_19_strides_0, weight = layers_4_encoder_attn_k_proj_weight_to_fp16, x = encoder_output_embeds)[name = tensor<string, []>("key_19_cast_fp16")];
            tensor<string, []> value_19_pad_type_0 = const()[name = tensor<string, []>("value_19_pad_type_0"), val = tensor<string, []>("valid")];
            tensor<int32, [2]> value_19_strides_0 = const()[name = tensor<string, []>("value_19_strides_0"), val = tensor<int32, [2]>([1, 1])];
            tensor<int32, [4]> value_19_pad_0 = const()[name = tensor<string, []>("value_19_pad_0"), val = tensor<int32, [4]>([0, 0, 0, 0])];
            tensor<int32, [2]> value_19_dilations_0 = const()[name = tensor<string, []>("value_19_dilations_0"), val = tensor<int32, [2]>([1, 1])];
            tensor<int32, []> value_19_groups_0 = const()[name = tensor<string, []>("value_19_groups_0"), val = tensor<int32, []>(1)];
            tensor<fp16, [1024, 1024, 1, 1]> layers_4_encoder_attn_v_proj_weight_to_fp16 = const()[name = tensor<string, []>("layers_4_encoder_attn_v_proj_weight_to_fp16"), val = tensor<fp16, [1024, 1024, 1, 1]>(BLOBFILE(path = tensor<string, []>("@model_path/weights/weight.bin"), offset = tensor<uint64, []>(254104768)))];
            tensor<fp16, [1024]> layers_4_encoder_attn_v_proj_bias_to_fp16 = const()[name = tensor<string, []>("layers_4_encoder_attn_v_proj_bias_to_fp16"), val = tensor<fp16, [1024]>(BLOBFILE(path = tensor<string, []>("@model_path/weights/weight.bin"), offset = tensor<uint64, []>(256201984)))];
            tensor<fp16, [1, 1024, 1, 1500]> value_19_cast_fp16 = conv(bias = layers_4_encoder_attn_v_proj_bias_to_fp16, dilations = value_19_dilations_0, groups = value_19_groups_0, pad = value_19_pad_0, pad_type = value_19_pad_type_0, strides = value_19_strides_0, weight = layers_4_encoder_attn_v_proj_weight_to_fp16, x = encoder_output_embeds)[name = tensor<string, []>("value_19_cast_fp16")];
            tensor<int32, [4]> var_1171 = const()[name = tensor<string, []>("op_1171"), val = tensor<int32, [4]>([1, 16, 64, 1])];
            tensor<fp16, [1, 16, 64, 1]> mh_q_19_cast_fp16 = reshape(shape = var_1171, x = query_19_cast_fp16)[name = tensor<string, []>("mh_q_19_cast_fp16")];
            tensor<fp16, []> var_1173_to_fp16 = const()[name = tensor<string, []>("op_1173_to_fp16"), val = tensor<fp16, []>(0x1p-3)];
            tensor<fp16, [1, 16, 64, 1]> var_1174_cast_fp16 = mul(x = mh_q_19_cast_fp16, y = var_1173_to_fp16)[name = tensor<string, []>("op_1174_cast_fp16")];
            tensor<int32, [4]> var_1177 = const()[name = tensor<string, []>("op_1177"), val = tensor<int32, [4]>([1, 16, 64, 1500])];
            tensor<fp16, [1, 16, 64, 1500]> var_1178_cast_fp16 = reshape(shape = var_1177, x = key_19_cast_fp16)[name = tensor<string, []>("op_1178_cast_fp16")];
            tensor<bool, []> mh_w_29_transpose_x_0 = const()[name = tensor<string, []>("mh_w_29_transpose_x_0"), val = tensor<bool, []>(true)];
            tensor<bool, []> mh_w_29_transpose_y_0 = const()[name = tensor<string, []>("mh_w_29_transpose_y_0"), val = tensor<bool, []>(false)];
            tensor<fp16, [1, 16, 1, 1500]> mh_w_29_cast_fp16 = matmul(transpose_x = mh_w_29_transpose_x_0, transpose_y = mh_w_29_transpose_y_0, x = var_1174_cast_fp16, y = var_1178_cast_fp16)[name = tensor<string, []>("mh_w_29_cast_fp16")];
            tensor<fp16, [1, 16, 1, 1500]> obj_69_cast_fp16 = softmax(axis = var_1020, x = mh_w_29_cast_fp16)[name = tensor<string, []>("obj_69_cast_fp16")];
            tensor<int32, [4]> var_1182 = const()[name = tensor<string, []>("op_1182"), val = tensor<int32, [4]>([1, 16, 64, 1500])];
            tensor<fp16, [1, 16, 64, 1500]> var_1183_cast_fp16 = reshape(shape = var_1182, x = value_19_cast_fp16)[name = tensor<string, []>("op_1183_cast_fp16")];
            tensor<bool, []> attn_19_transpose_x_0 = const()[name = tensor<string, []>("attn_19_transpose_x_0"), val = tensor<bool, []>(false)];
            tensor<bool, []> attn_19_transpose_y_0 = const()[name = tensor<string, []>("attn_19_transpose_y_0"), val = tensor<bool, []>(true)];
            tensor<fp16, [1, 16, 64, 1]> attn_19_cast_fp16 = matmul(transpose_x = attn_19_transpose_x_0, transpose_y = attn_19_transpose_y_0, x = var_1183_cast_fp16, y = obj_69_cast_fp16)[name = tensor<string, []>("attn_19_cast_fp16")];
            tensor<int32, [4]> var_1186 = const()[name = tensor<string, []>("op_1186"), val = tensor<int32, [4]>([1, 1024, 1, 1])];
            tensor<fp16, [1, 1024, 1, 1]> input_43_cast_fp16 = reshape(shape = var_1186, x = attn_19_cast_fp16)[name = tensor<string, []>("input_43_cast_fp16")];
            tensor<string, []> obj_67_pad_type_0 = const()[name = tensor<string, []>("obj_67_pad_type_0"), val = tensor<string, []>("valid")];
            tensor<int32, [2]> obj_67_strides_0 = const()[name = tensor<string, []>("obj_67_strides_0"), val = tensor<int32, [2]>([1, 1])];
            tensor<int32, [4]> obj_67_pad_0 = const()[name = tensor<string, []>("obj_67_pad_0"), val = tensor<int32, [4]>([0, 0, 0, 0])];
            tensor<int32, [2]> obj_67_dilations_0 = const()[name = tensor<string, []>("obj_67_dilations_0"), val = tensor<int32, [2]>([1, 1])];
            tensor<int32, []> obj_67_groups_0 = const()[name = tensor<string, []>("obj_67_groups_0"), val = tensor<int32, []>(1)];
            tensor<fp16, [1024, 1024, 1, 1]> layers_4_encoder_attn_o_proj_weight_to_fp16 = const()[name = tensor<string, []>("layers_4_encoder_attn_o_proj_weight_to_fp16"), val = tensor<fp16, [1024, 1024, 1, 1]>(BLOBFILE(path = tensor<string, []>("@model_path/weights/weight.bin"), offset = tensor<uint64, []>(256204096)))];
            tensor<fp16, [1024]> layers_4_encoder_attn_o_proj_bias_to_fp16 = const()[name = tensor<string, []>("layers_4_encoder_attn_o_proj_bias_to_fp16"), val = tensor<fp16, [1024]>(BLOBFILE(path = tensor<string, []>("@model_path/weights/weight.bin"), offset = tensor<uint64, []>(258301312)))];
            tensor<fp16, [1, 1024, 1, 1]> obj_67_cast_fp16 = conv(bias = layers_4_encoder_attn_o_proj_bias_to_fp16, dilations = obj_67_dilations_0, groups = obj_67_groups_0, pad = obj_67_pad_0, pad_type = obj_67_pad_type_0, strides = obj_67_strides_0, weight = layers_4_encoder_attn_o_proj_weight_to_fp16, x = input_43_cast_fp16)[name = tensor<string, []>("obj_67_cast_fp16")];
            tensor<fp16, [1, 1024, 1, 1]> inputs_29_cast_fp16 = add(x = inputs_27_cast_fp16, y = obj_67_cast_fp16)[name = tensor<string, []>("inputs_29_cast_fp16")];
            tensor<int32, [1]> out_29_axes_0 = const()[name = tensor<string, []>("out_29_axes_0"), val = tensor<int32, [1]>([1])];
            tensor<fp16, []> var_1204_to_fp16 = const()[name = tensor<string, []>("op_1204_to_fp16"), val = tensor<fp16, []>(0x1.5p-17)];
            tensor<fp16, [1, 1024, 1, 1]> out_29_cast_fp16 = layer_norm(axes = out_29_axes_0, epsilon = var_1204_to_fp16, x = inputs_29_cast_fp16)[name = tensor<string, []>("out_29_cast_fp16")];
            tensor<fp16, [1024]> input_45_gamma_0_to_fp16 = const()[name = tensor<string, []>("input_45_gamma_0_to_fp16"), val = tensor<fp16, [1024]>(BLOBFILE(path = tensor<string, []>("@model_path/weights/weight.bin"), offset = tensor<uint64, []>(258303424)))];
            tensor<fp16, [1024]> input_45_beta_0_to_fp16 = const()[name = tensor<string, []>("input_45_beta_0_to_fp16"), val = tensor<fp16, [1024]>(BLOBFILE(path = tensor<string, []>("@model_path/weights/weight.bin"), offset = tensor<uint64, []>(258305536)))];
            tensor<fp16, []> input_45_epsilon_0_to_fp16 = const()[name = tensor<string, []>("input_45_epsilon_0_to_fp16"), val = tensor<fp16, []>(0x1.5p-17)];
            tensor<fp16, [1, 1024, 1, 1]> input_45_cast_fp16 = batch_norm(beta = input_45_beta_0_to_fp16, epsilon = input_45_epsilon_0_to_fp16, gamma = input_45_gamma_0_to_fp16, mean = obj_1_mean_0_to_fp16, variance = obj_1_variance_0_to_fp16, x = out_29_cast_fp16)[name = tensor<string, []>("input_45_cast_fp16")];
            tensor<string, []> input_47_pad_type_0 = const()[name = tensor<string, []>("input_47_pad_type_0"), val = tensor<string, []>("valid")];
            tensor<int32, [2]> input_47_strides_0 = const()[name = tensor<string, []>("input_47_strides_0"), val = tensor<int32, [2]>([1, 1])];
            tensor<int32, [4]> input_47_pad_0 = const()[name = tensor<string, []>("input_47_pad_0"), val = tensor<int32, [4]>([0, 0, 0, 0])];
            tensor<int32, [2]> input_47_dilations_0 = const()[name = tensor<string, []>("input_47_dilations_0"), val = tensor<int32, [2]>([1, 1])];
            tensor<int32, []> input_47_groups_0 = const()[name = tensor<string, []>("input_47_groups_0"), val = tensor<int32, []>(1)];
            tensor<fp16, [4096, 1024, 1, 1]> layers_4_fc1_weight_to_fp16 = const()[name = tensor<string, []>("layers_4_fc1_weight_to_fp16"), val = tensor<fp16, [4096, 1024, 1, 1]>(BLOBFILE(path = tensor<string, []>("@model_path/weights/weight.bin"), offset = tensor<uint64, []>(258307648)))];
            tensor<fp16, [4096]> layers_4_fc1_bias_to_fp16 = const()[name = tensor<string, []>("layers_4_fc1_bias_to_fp16"), val = tensor<fp16, [4096]>(BLOBFILE(path = tensor<string, []>("@model_path/weights/weight.bin"), offset = tensor<uint64, []>(266696320)))];
            tensor<fp16, [1, 4096, 1, 1]> input_47_cast_fp16 = conv(bias = layers_4_fc1_bias_to_fp16, dilations = input_47_dilations_0, groups = input_47_groups_0, pad = input_47_pad_0, pad_type = input_47_pad_type_0, strides = input_47_strides_0, weight = layers_4_fc1_weight_to_fp16, x = input_45_cast_fp16)[name = tensor<string, []>("input_47_cast_fp16")];
            tensor<string, []> input_49_mode_0 = const()[name = tensor<string, []>("input_49_mode_0"), val = tensor<string, []>("EXACT")];
            tensor<fp16, [1, 4096, 1, 1]> input_49_cast_fp16 = gelu(mode = input_49_mode_0, x = input_47_cast_fp16)[name = tensor<string, []>("input_49_cast_fp16")];
            tensor<string, []> hidden_states_11_pad_type_0 = const()[name = tensor<string, []>("hidden_states_11_pad_type_0"), val = tensor<string, []>("valid")];
            tensor<int32, [2]> hidden_states_11_strides_0 = const()[name = tensor<string, []>("hidden_states_11_strides_0"), val = tensor<int32, [2]>([1, 1])];
            tensor<int32, [4]> hidden_states_11_pad_0 = const()[name = tensor<string, []>("hidden_states_11_pad_0"), val = tensor<int32, [4]>([0, 0, 0, 0])];
            tensor<int32, [2]> hidden_states_11_dilations_0 = const()[name = tensor<string, []>("hidden_states_11_dilations_0"), val = tensor<int32, [2]>([1, 1])];
            tensor<int32, []> hidden_states_11_groups_0 = const()[name = tensor<string, []>("hidden_states_11_groups_0"), val = tensor<int32, []>(1)];
            tensor<fp16, [1024, 4096, 1, 1]> layers_4_fc2_weight_to_fp16 = const()[name = tensor<string, []>("layers_4_fc2_weight_to_fp16"), val = tensor<fp16, [1024, 4096, 1, 1]>(BLOBFILE(path = tensor<string, []>("@model_path/weights/weight.bin"), offset = tensor<uint64, []>(266704576)))];
            tensor<fp16, [1024]> layers_4_fc2_bias_to_fp16 = const()[name = tensor<string, []>("layers_4_fc2_bias_to_fp16"), val = tensor<fp16, [1024]>(BLOBFILE(path = tensor<string, []>("@model_path/weights/weight.bin"), offset = tensor<uint64, []>(275093248)))];
            tensor<fp16, [1, 1024, 1, 1]> hidden_states_11_cast_fp16 = conv(bias = layers_4_fc2_bias_to_fp16, dilations = hidden_states_11_dilations_0, groups = hidden_states_11_groups_0, pad = hidden_states_11_pad_0, pad_type = hidden_states_11_pad_type_0, strides = hidden_states_11_strides_0, weight = layers_4_fc2_weight_to_fp16, x = input_49_cast_fp16)[name = tensor<string, []>("hidden_states_11_cast_fp16")];
            tensor<fp16, [1, 1024, 1, 1]> inputs_31_cast_fp16 = add(x = inputs_29_cast_fp16, y = hidden_states_11_cast_fp16)[name = tensor<string, []>("inputs_31_cast_fp16")];
            tensor<int32, []> var_1239 = const()[name = tensor<string, []>("op_1239"), val = tensor<int32, []>(3)];
            tensor<int32, [1]> out_31_axes_0 = const()[name = tensor<string, []>("out_31_axes_0"), val = tensor<int32, [1]>([1])];
…
            tensor<fp16, [1024, 1024, 1, 1]> layers_22_encoder_attn_o_proj_weight_to_fp16 = const()[name = tensor<string, []>("layers_22_encoder_attn_o_proj_weight_to_fp16"), val = tensor<fp16, [1024, 1024, 1, 1]>(BLOBFILE(path = tensor<string, []>("@model_path/weights/weight.bin"), offset = tensor<uint64, []>(860838208)))];
            tensor<fp16, [1024]> layers_22_encoder_attn_o_proj_bias_to_fp16 = const()[name = tensor<string, []>("layers_22_encoder_attn_o_proj_bias_to_fp16"), val = tensor<fp16, [1024]>(BLOBFILE(path = tensor<string, []>("@model_path/weights/weight.bin"), offset = tensor<uint64, []>(862935424)))];
            tensor<fp16, [1, 1024, 1, 1]> obj_319_cast_fp16 = conv(bias = layers_22_encoder_attn_o_proj_bias_to_fp16, dilations = obj_319_dilations_0, groups = obj_319_groups_0, pad = obj_319_pad_0, pad_type = obj_319_pad_type_0, strides = obj_319_strides_0, weight = layers_22_encoder_attn_o_proj_weight_to_fp16, x = input_223_cast_fp16)[name = tensor<string, []>("obj_319_cast_fp16")];
            tensor<fp16, [1, 1024, 1, 1]> inputs_137_cast_fp16 = add(x = inputs_135_cast_fp16, y = obj_319_cast_fp16)[name = tensor<string, []>("inputs_137_cast_fp16")];
            tensor<int32, [1]> out_137_axes_0 = const()[name = tensor<string, []>("out_137_axes_0"), val = tensor<int32, [1]>([1])];
            tensor<fp16, []> var_5162_to_fp16 = const()[name = tensor<string, []>("op_5162_to_fp16"), val = tensor<fp16, []>(0x1.5p-17)];
            tensor<fp16, [1, 1024, 1, 1]> out_137_cast_fp16 = layer_norm(axes = out_137_axes_0, epsilon = var_5162_to_fp16, x = inputs_137_cast_fp16)[name = tensor<string, []>("out_137_cast_fp16")];
            tensor<fp16, [1024]> input_225_gamma_0_to_fp16 = const()[name = tensor<string, []>("input_225_gamma_0_to_fp16"), val = tensor<fp16, [1024]>(BLOBFILE(path = tensor<string, []>("@model_path/weights/weight.bin"), offset = tensor<uint64, []>(862937536)))];
            tensor<fp16, [1024]> input_225_beta_0_to_fp16 = const()[name = tensor<string, []>("input_225_beta_0_to_fp16"), val = tensor<fp16, [1024]>(BLOBFILE(path = tensor<string, []>("@model_path/weights/weight.bin"), offset = tensor<uint64, []>(862939648)))];
            tensor<fp16, []> input_225_epsilon_0_to_fp16 = const()[name = tensor<string, []>("input_225_epsilon_0_to_fp16"), val = tensor<fp16, []>(0x1.5p-17)];
            tensor<fp16, [1, 1024, 1, 1]> input_225_cast_fp16 = batch_norm(beta = input_225_beta_0_to_fp16, epsilon = input_225_epsilon_0_to_fp16, gamma = input_225_gamma_0_to_fp16, mean = obj_1_mean_0_to_fp16, variance = obj_1_variance_0_to_fp16, x = out_137_cast_fp16)[name = tensor<string, []>("input_225_cast_fp16")];
            tensor<string, []> input_227_pad_type_0 = const()[name = tensor<string, []>("input_227_pad_type_0"), val = tensor<string, []>("valid")];
            tensor<int32, [2]> input_227_strides_0 = const()[name = tensor<string, []>("input_227_strides_0"), val = tensor<int32, [2]>([1, 1])];
            tensor<int32, [4]> input_227_pad_0 = const()[name = tensor<string, []>("input_227_pad_0"), val = tensor<int32, [4]>([0, 0, 0, 0])];
            tensor<int32, [2]> input_227_dilations_0 = const()[name = tensor<string, []>("input_227_dilations_0"), val = tensor<int32, [2]>([1, 1])];
            tensor<int32, []> input_227_groups_0 = const()[name = tensor<string, []>("input_227_groups_0"), val = tensor<int32, []>(1)];
            tensor<fp16, [4096, 1024, 1, 1]> layers_22_fc1_weight_to_fp16 = const()[name = tensor<string, []>("layers_22_fc1_weight_to_fp16"), val = tensor<fp16, [4096, 1024, 1, 1]>(BLOBFILE(path = tensor<string, []>("@model_path/weights/weight.bin"), offset = tensor<uint64, []>(862941760)))];
            tensor<fp16, [4096]> layers_22_fc1_bias_to_fp16 = const()[name = tensor<string, []>("layers_22_fc1_bias_to_fp16"), val = tensor<fp16, [4096]>(BLOBFILE(path = tensor<string, []>("@model_path/weights/weight.bin"), offset = tensor<uint64, []>(871330432)))];
            tensor<fp16, [1, 4096, 1, 1]> input_227_cast_fp16 = conv(bias = layers_22_fc1_bias_to_fp16, dilations = input_227_dilations_0, groups = input_227_groups_0, pad = input_227_pad_0, pad_type = input_227_pad_type_0, strides = input_227_strides_0, weight = layers_22_fc1_weight_to_fp16, x = input_225_cast_fp16)[name = tensor<string, []>("input_227_cast_fp16")];
            tensor<string, []> input_229_mode_0 = const()[name = tensor<string, []>("input_229_mode_0"), val = tensor<string, []>("EXACT")];
            tensor<fp16, [1, 4096, 1, 1]> input_229_cast_fp16 = gelu(mode = input_229_mode_0, x = input_227_cast_fp16)[name = tensor<string, []>("input_229_cast_fp16")];
            tensor<string, []> hidden_states_47_pad_type_0 = const()[name = tensor<string, []>("hidden_states_47_pad_type_0"), val = tensor<string, []>("valid")];
            tensor<int32, [2]> hidden_states_47_strides_0 = const()[name = tensor<string, []>("hidden_states_47_strides_0"), val = tensor<int32, [2]>([1, 1])];
            tensor<int32, [4]> hidden_states_47_pad_0 = const()[name = tensor<string, []>("hidden_states_47_pad_0"), val = tensor<int32, [4]>([0, 0, 0, 0])];
            tensor<int32, [2]> hidden_states_47_dilations_0 = const()[name = tensor<string, []>("hidden_states_47_dilations_0"), val = tensor<int32, [2]>([1, 1])];
            tensor<int32, []> hidden_states_47_groups_0 = const()[name = tensor<string, []>("hidden_states_47_groups_0"), val = tensor<int32, []>(1)];
            tensor<fp16, [1024, 4096, 1, 1]> layers_22_fc2_weight_to_fp16 = const()[name = tensor<string, []>("layers_22_fc2_weight_to_fp16"), val = tensor<fp16, [1024, 4096, 1, 1]>(BLOBFILE(path = tensor<string, []>("@model_path/weights/weight.bin"), offset = tensor<uint64, []>(871338688)))];
            tensor<fp16, [1024]> layers_22_fc2_bias_to_fp16 = const()[name = tensor<string, []>("layers_22_fc2_bias_to_fp16"), val = tensor<fp16, [1024]>(BLOBFILE(path = tensor<string, []>("@model_path/weights/weight.bin"), offset = tensor<uint64, []>(879727360)))];
            tensor<fp16, [1, 1024, 1, 1]> hidden_states_47_cast_fp16 = conv(bias = layers_22_fc2_bias_to_fp16, dilations = hidden_states_47_dilations_0, groups = hidden_states_47_groups_0, pad = hidden_states_47_pad_0, pad_type = hidden_states_47_pad_type_0, strides = hidden_states_47_strides_0, weight = layers_22_fc2_weight_to_fp16, x = input_229_cast_fp16)[name = tensor<string, []>("hidden_states_47_cast_fp16")];
            tensor<fp16, [1, 1024, 1, 1]> inputs_139_cast_fp16 = add(x = inputs_137_cast_fp16, y = hidden_states_47_cast_fp16)[name = tensor<string, []>("inputs_139_cast_fp16")];
            tensor<int32, []> var_5197 = const()[name = tensor<string, []>("op_5197"), val = tensor<int32, []>(3)];
            tensor<int32, [1]> out_139_axes_0 = const()[name = tensor<string, []>("out_139_axes_0"), val = tensor<int32, [1]>([1])];
            tensor<fp16, []> var_5222_to_fp16 = const()[name = tensor<string, []>("op_5222_to_fp16"), val = tensor<fp16, []>(0x1.5p-17)];
            tensor<fp16, [1, 1024, 1, 1]> out_139_cast_fp16 = layer_norm(axes = out_139_axes_0, epsilon = var_5222_to_fp16, x = inputs_139_cast_fp16)[name = tensor<string, []>("out_139_cast_fp16")];
            tensor<fp16, [1024]> obj_323_gamma_0_to_fp16 = const()[name = tensor<string, []>("obj_323_gamma_0_to_fp16"), val = tensor<fp16, [1024]>(BLOBFILE(path = tensor<string, []>("@model_path/weights/weight.bin"), offset = tensor<uint64, []>(879729472)))];
            tensor<fp16, [1024]> obj_323_beta_0_to_fp16 = const()[name = tensor<string, []>("obj_323_beta_0_to_fp16"), val = tensor<fp16, [1024]>(BLOBFILE(path = tensor<string, []>("@model_path/weights/weight.bin"), offset = tensor<uint64, []>(879731584)))];
            tensor<fp16, []> obj_323_epsilon_0_to_fp16 = const()[name = tensor<string, []>("obj_323_epsilon_0_to_fp16"), val = tensor<fp16, []>(0x1.5p-17)];
            tensor<fp16, [1, 1024, 1, 1]> obj_323_cast_fp16 = batch_norm(beta = obj_323_beta_0_to_fp16, epsilon = obj_323_epsilon_0_to_fp16, gamma = obj_323_gamma_0_to_fp16, mean = obj_1_mean_0_to_fp16, variance = obj_1_variance_0_to_fp16, x = out_139_cast_fp16)[name = tensor<string, []>("obj_323_cast_fp16")];
            tensor<string, []> query_93_pad_type_0 = const()[name = tensor<string, []>("query_93_pad_type_0"), val = tensor<string, []>("valid")];
            tensor<int32, [2]> query_93_strides_0 = const()[name = tensor<string, []>("query_93_strides_0"), val = tensor<int32, [2]>([1, 1])];
            tensor<int32, [4]> query_93_pad_0 = const()[name = tensor<string, []>("query_93_pad_0"), val = tensor<int32, [4]>([0, 0, 0, 0])];
            tensor<int32, [2]> query_93_dilations_0 = const()[name = tensor<string, []>("query_93_dilations_0"), val = tensor<int32, [2]>([1, 1])];
            tensor<int32, []> query_93_groups_0 = const()[name = tensor<string, []>("query_93_groups_0"), val = tensor<int32, []>(1)];
            tensor<fp16, [1024, 1024, 1, 1]> layers_23_self_attn_q_proj_weight_to_fp16 = const()[name = tensor<string, []>("layers_23_self_attn_q_proj_weight_to_fp16"), val = tensor<fp16, [1024, 1024, 1, 1]>(BLOBFILE(path = tensor<string, []>("@model_path/weights/weight.bin"), offset = tensor<uint64, []>(879733696)))];
            tensor<fp16, [1024]> layers_23_self_attn_q_proj_bias_to_fp16 = const()[name = tensor<string, []>("layers_23_self_attn_q_proj_bias_to_fp16"), val = tensor<fp16, [1024]>(BLOBFILE(path = tensor<string, []>("@model_path/weights/weight.bin"), offset = tensor<uint64, []>(881830912)))];
            tensor<fp16, [1, 1024, 1, 1]> query_93_cast_fp16 = conv(bias = layers_23_self_attn_q_proj_bias_to_fp16, dilations = query_93_dilations_0, groups = query_93_groups_0, pad = query_93_pad_0, pad_type = query_93_pad_type_0, strides = query_93_strides_0, weight = layers_23_self_attn_q_proj_weight_to_fp16, x = obj_323_cast_fp16)[name = tensor<string, []>("query_93_cast_fp16")];
            tensor<string, []> current_key_pad_type_0 = const()[name = tensor<string, []>("current_key_pad_type_0"), val = tensor<string, []>("valid")];
            tensor<int32, [2]> current_key_strides_0 = const()[name = tensor<string, []>("current_key_strides_0"), val = tensor<int32, [2]>([1, 1])];
            tensor<int32, [4]> current_key_pad_0 = const()[name = tensor<string, []>("current_key_pad_0"), val = tensor<int32, [4]>([0, 0, 0, 0])];
            tensor<int32, [2]> current_key_dilations_0 = const()[name = tensor<string, []>("current_key_dilations_0"), val = tensor<int32, [2]>([1, 1])];
            tensor<int32, []> current_key_groups_0 = const()[name = tensor<string, []>("current_key_groups_0"), val = tensor<int32, []>(1)];
            tensor<fp16, [1024, 1024, 1, 1]> layers_23_self_attn_k_proj_weight_to_fp16 = const()[name = tensor<string, []>("layers_23_self_attn_k_proj_weight_to_fp16"), val = tensor<fp16, [1024, 1024, 1, 1]>(BLOBFILE(path = tensor<string, []>("@model_path/weights/weight.bin"), offset = tensor<uint64, []>(881833024)))];
            tensor<fp16, [1, 1024, 1, 1]> current_key_cast_fp16 = conv(dilations = current_key_dilations_0, groups = current_key_groups_0, pad = current_key_pad_0, pad_type = current_key_pad_type_0, strides = current_key_strides_0, weight = layers_23_self_attn_k_proj_weight_to_fp16, x = obj_323_cast_fp16)[name = tensor<string, []>("current_key_cast_fp16")];
            tensor<string, []> current_value_pad_type_0 = const()[name = tensor<string, []>("current_value_pad_type_0"), val = tensor<string, []>("valid")];
            tensor<int32, [2]> current_value_strides_0 = const()[name = tensor<string, []>("current_value_strides_0"), val = tensor<int32, [2]>([1, 1])];
            tensor<int32, [4]> current_value_pad_0 = const()[name = tensor<string, []>("current_value_pad_0"), val = tensor<int32, [4]>([0, 0, 0, 0])];
            tensor<int32, [2]> current_value_dilations_0 = const()[name = tensor<string, []>("current_value_dilations_0"), val = tensor<int32, [2]>([1, 1])];
            tensor<int32, []> current_value_groups_0 = const()[name = tensor<string, []>("current_value_groups_0"), val = tensor<int32, []>(1)];
            tensor<fp16, [1024, 1024, 1, 1]> layers_23_self_attn_v_proj_weight_to_fp16 = const()[name = tensor<string, []>("layers_23_self_attn_v_proj_weight_to_fp16"), val = tensor<fp16, [1024, 1024, 1, 1]>(BLOBFILE(path = tensor<string, []>("@model_path/weights/weight.bin"), offset = tensor<uint64, []>(883930240)))];
            tensor<fp16, [1024]> layers_23_self_attn_v_proj_bias_to_fp16 = const()[name = tensor<string, []>("layers_23_self_attn_v_proj_bias_to_fp16"), val = tensor<fp16, [1024]>(BLOBFILE(path = tensor<string, []>("@model_path/weights/weight.bin"), offset = tensor<uint64, []>(886027456)))];
            tensor<fp16, [1, 1024, 1, 1]> current_value_cast_fp16 = conv(bias = layers_23_self_attn_v_proj_bias_to_fp16, dilations = current_value_dilations_0, groups = current_value_groups_0, pad = current_value_pad_0, pad_type = current_value_pad_type_0, strides = current_value_strides_0, weight = layers_23_self_attn_v_proj_weight_to_fp16, x = obj_323_cast_fp16)[name = tensor<string, []>("current_value_cast_fp16")];
            tensor<fp16, [1, 1024, 1, 448]> var_5261_cast_fp16 = mul(x = var_87_cast_fp16_23, y = var_207_cast_fp16)[name = tensor<string, []>("op_5261_cast_fp16")];
            tensor<fp16, [1, 1024, 1, 448]> var_5262_cast_fp16 = mul(x = current_key_cast_fp16, y = var_205_cast_fp16)[name = tensor<string, []>("op_5262_cast_fp16")];
            tensor<fp16, [1, 1024, 1, 448]> key_93_cast_fp16 = add(x = var_5261_cast_fp16, y = var_5262_cast_fp16)[name = tensor<string, []>("key_93_cast_fp16")];
            tensor<fp16, [1, 1024, 1, 448]> var_5265_cast_fp16 = mul(x = var_114_cast_fp16_23, y = var_207_cast_fp16)[name = tensor<string, []>("op_5265_cast_fp16")];
            tensor<fp16, [1, 1024, 1, 448]> var_5266_cast_fp16 = mul(x = current_value_cast_fp16, y = var_205_cast_fp16)[name = tensor<string, []>("op_5266_cast_fp16")];
            tensor<fp16, [1, 1024, 1, 448]> value_93_cast_fp16 = add(x = var_5265_cast_fp16, y = var_5266_cast_fp16)[name = tensor<string, []>("value_93_cast_fp16")];
            tensor<int32, [4]> var_5270 = const()[name = tensor<string, []>("op_5270"), val = tensor<int32, [4]>([1, 16, 64, 1])];
            tensor<fp16, [1, 16, 64, 1]> mh_q_93_cast_fp16 = reshape(shape = var_5270, x = query_93_cast_fp16)[name = tensor<string, []>("mh_q_93_cast_fp16")];
            tensor<fp16, []> var_5272_to_fp16 = const()[name = tensor<string, []>("op_5272_to_fp16"), val = tensor<fp16, []>(0x1p-3)];
            tensor<fp16, [1, 16, 64, 1]> var_5273_cast_fp16 = mul(x = mh_q_93_cast_fp16, y = var_5272_to_fp16)[name = tensor<string, []>("op_5273_cast_fp16")];
            tensor<int32, [4]> var_5276 = const()[name = tensor<string, []>("op_5276"), val = tensor<int32, [4]>([1, 16, 64, 448])];
            tensor<fp16, [1, 16, 64, 448]> var_5277_cast_fp16 = reshape(shape = var_5276, x = key_93_cast_fp16)[name = tensor<string, []>("op_5277_cast_fp16")];
            tensor<bool, []> mh_w_139_transpose_x_0 = const()[name = tensor<string, []>("mh_w_139_transpose_x_0"), val = tensor<bool, []>(true)];
            tensor<bool, []> mh_w_139_transpose_y_0 = const()[name = tensor<string, []>("mh_w_139_transpose_y_0"), val = tensor<bool, []>(false)];
            tensor<fp16, [1, 16, 1, 448]> mh_w_139_cast_fp16 = matmul(transpose_x = mh_w_139_transpose_x_0, transpose_y = mh_w_139_transpose_y_0, x = var_5273_cast_fp16, y = var_5277_cast_fp16)[name = tensor<string, []>("mh_w_139_cast_fp16")];
            tensor<fp16, [1, 16, 1, 448]> mh_w_141_cast_fp16 = add(x = mh_w_139_cast_fp16, y = var_229_cast_fp16)[name = tensor<string, []>("mh_w_141_cast_fp16")];
            tensor<fp16, [1, 16, 1, 448]> var_5285_cast_fp16 = softmax(axis = var_5197, x = mh_w_141_cast_fp16)[name = tensor<string, []>("op_5285_cast_fp16")];
            tensor<int32, [4]> var_5286 = const()[name = tensor<string, []>("op_5286"), val = tensor<int32, [4]>([1, 16, 64, 448])];
            tensor<fp16, [1, 16, 64, 448]> var_5287_cast_fp16 = reshape(shape = var_5286, x = value_93_cast_fp16)[name = tensor<string, []>("op_5287_cast_fp16")];
            tensor<bool, []> attn_93_transpose_x_0 = const()[name = tensor<string, []>("attn_93_transpose_x_0"), val = tensor<bool, []>(false)];
            tensor<bool, []> attn_93_transpose_y_0 = const()[name = tensor<string, []>("attn_93_transpose_y_0"), val = tensor<bool, []>(true)];
            tensor<fp16, [1, 16, 64, 1]> attn_93_cast_fp16 = matmul(transpose_x = attn_93_transpose_x_0, transpose_y = attn_93_transpose_y_0, x = var_5287_cast_fp16, y = var_5285_cast_fp16)[name = tensor<string, []>("attn_93_cast_fp16")];
            tensor<int32, [4]> var_5290 = const()[name = tensor<string, []>("op_5290"), val = tensor<int32, [4]>([1, 1024, 1, 1])];
            tensor<fp16, [1, 1024, 1, 1]> input_231_cast_fp16 = reshape(shape = var_5290, x = attn_93_cast_fp16)[name = tensor<string, []>("input_231_cast_fp16")];
            tensor<string, []> obj_329_pad_type_0 = const()[name = tensor<string, []>("obj_329_pad_type_0"), val = tensor<string, []>("valid")];
            tensor<int32, [2]> obj_329_strides_0 = const()[name = tensor<string, []>("obj_329_strides_0"), val = tensor<int32, [2]>([1, 1])];
            tensor<int32, [4]> obj_329_pad_0 = const()[name = tensor<string, []>("obj_329_pad_0"), val = tensor<int32, [4]>([0, 0, 0, 0])];
            tensor<int32, [2]> obj_329_dilations_0 = const()[name = tensor<string, []>("obj_329_dilations_0"), val = tensor<int32, [2]>([1, 1])];
            tensor<int32, []> obj_329_groups_0 = const()[name = tensor<string, []>("obj_329_groups_0"), val = tensor<int32, []>(1)];
            tensor<fp16, [1024, 1024, 1, 1]> layers_23_self_attn_o_proj_weight_to_fp16 = const()[name = tensor<string, []>("layers_23_self_attn_o_proj_weight_to_fp16"), val = tensor<fp16, [1024, 1024, 1, 1]>(BLOBFILE(path = tensor<string, []>("@model_path/weights/weight.bin"), offset = tensor<uint64, []>(886029568)))];
            tensor<fp16, [1024]> layers_23_self_attn_o_proj_bias_to_fp16 = const()[name = tensor<string, []>("layers_23_self_attn_o_proj_bias_to_fp16"), val = tensor<fp16, [1024]>(BLOBFILE(path = tensor<string, []>("@model_path/weights/weight.bin"), offset = tensor<uint64, []>(888126784)))];
            tensor<fp16, [1, 1024, 1, 1]> obj_329_cast_fp16 = conv(bias = layers_23_self_attn_o_proj_bias_to_fp16, dilations = obj_329_dilations_0, groups = obj_329_groups_0, pad = obj_329_pad_0, pad_type = obj_329_pad_type_0, strides = obj_329_strides_0, weight = layers_23_self_attn_o_proj_weight_to_fp16, x = input_231_cast_fp16)[name = tensor<string, []>("obj_329_cast_fp16")];
            tensor<fp16, [1, 1024, 1, 1]> inputs_141_cast_fp16 = add(x = inputs_139_cast_fp16, y = obj_329_cast_fp16)[name = tensor<string, []>("inputs_141_cast_fp16")];
            tensor<int32, [1]> out_141_axes_0 = const()[name = tensor<string, []>("out_141_axes_0"), val = tensor<int32, [1]>([1])];
            tensor<fp16, []> var_5312_to_fp16 = const()[name = tensor<string, []>("op_5312_to_fp16"), val = tensor<fp16, []>(0x1.5p-17)];
            tensor<fp16, [1, 1024, 1, 1]> out_141_cast_fp16 = layer_norm(axes = out_141_axes_0, epsilon = var_5312_to_fp16, x = inputs_141_cast_fp16)[name = tensor<string, []>("out_141_cast_fp16")];
            tensor<fp16, [1024]> obj_331_gamma_0_to_fp16 = const()[name = tensor<string, []>("obj_331_gamma_0_to_fp16"), val = tensor<fp16, [1024]>(BLOBFILE(path = tensor<string, []>("@model_path/weights/weight.bin"), offset = tensor<uint64, []>(888128896)))];
            tensor<fp16, [1024]> obj_331_beta_0_to_fp16 = const()[name = tensor<string, []>("obj_331_beta_0_to_fp16"), val = tensor<fp16, [1024]>(BLOBFILE(path = tensor<string, []>("@model_path/weights/weight.bin"), offset = tensor<uint64, []>(888131008)))];
            tensor<fp16, []> obj_331_epsilon_0_to_fp16 = const()[name = tensor<string, []>("obj_331_epsilon_0_to_fp16"), val = tensor<fp16, []>(0x1.5p-17)];
            tensor<fp16, [1, 1024, 1, 1]> obj_331_cast_fp16 = batch_norm(beta = obj_331_beta_0_to_fp16, epsilon = obj_331_epsilon_0_to_fp16, gamma = obj_331_gamma_0_to_fp16, mean = obj_1_mean_0_to_fp16, variance = obj_1_variance_0_to_fp16, x = out_141_cast_fp16)[name = tensor<string, []>("obj_331_cast_fp16")];
            tensor<string, []> query_pad_type_0 = const()[name = tensor<string, []>("query_pad_type_0"), val = tensor<string, []>("valid")];
            tensor<int32, [2]> query_strides_0 = const()[name = tensor<string, []>("query_strides_0"), val = tensor<int32, [2]>([1, 1])];
            tensor<int32, [4]> query_pad_0 = const()[name = tensor<string, []>("query_pad_0"), val = tensor<int32, [4]>([0, 0, 0, 0])];
            tensor<int32, [2]> query_dilations_0 = const()[name = tensor<string, []>("query_dilations_0"), val = tensor<int32, [2]>([1, 1])];
            tensor<int32, []> query_groups_0 = const()[name = tensor<string, []>("query_groups_0"), val = tensor<int32, []>(1)];
            tensor<fp16, [1024, 1024, 1, 1]> layers_23_encoder_attn_q_proj_weight_to_fp16 = const()[name = tensor<string, []>("layers_23_encoder_attn_q_proj_weight_to_fp16"), val = tensor<fp16, [1024, 1024, 1, 1]>(BLOBFILE(path = tensor<string, []>("@model_path/weights/weight.bin"), offset = tensor<uint64, []>(888133120)))];
            tensor<fp16, [1024]> layers_23_encoder_attn_q_proj_bias_to_fp16 = const()[name = tensor<string, []>("layers_23_encoder_attn_q_proj_bias_to_fp16"), val = tensor<fp16, [1024]>(BLOBFILE(path = tensor<string, []>("@model_path/weights/weight.bin"), offset = tensor<uint64, []>(890230336)))];
            tensor<fp16, [1, 1024, 1, 1]> query_cast_fp16 = conv(bias = layers_23_encoder_attn_q_proj_bias_to_fp16, dilations = query_dilations_0, groups = query_groups_0, pad = query_pad_0, pad_type = query_pad_type_0, strides = query_strides_0, weight = layers_23_encoder_attn_q_proj_weight_to_fp16, x = obj_331_cast_fp16)[name = tensor<string, []>("query_cast_fp16")];
            tensor<string, []> key_pad_type_0 = const()[name = tensor<string, []>("key_pad_type_0"), val = tensor<string, []>("valid")];
            tensor<int32, [2]> key_strides_0 = const()[name = tensor<string, []>("key_strides_0"), val = tensor<int32, [2]>([1, 1])];
            tensor<int32, [4]> key_pad_0 = const()[name = tensor<string, []>("key_pad_0"), val = tensor<int32, [4]>([0, 0, 0, 0])];
            tensor<int32, [2]> key_dilations_0 = const()[name = tensor<string, []>("key_dilations_0"), val = tensor<int32, [2]>([1, 1])];
            tensor<int32, []> key_groups_0 = const()[name = tensor<string, []>("key_groups_0"), val = tensor<int32, []>(1)];
            tensor<fp16, [1024, 1024, 1, 1]> layers_23_encoder_attn_k_proj_weight_to_fp16 = const()[name = tensor<string, []>("layers_23_encoder_attn_k_proj_weight_to_fp16"), val = tensor<fp16, [1024, 1024, 1, 1]>(BLOBFILE(path = tensor<string, []>("@model_path/weights/weight.bin"), offset = tensor<uint64, []>(890232448)))];
            tensor<fp16, [1, 1024, 1, 1500]> key_cast_fp16 = conv(dilations = key_dilations_0, groups = key_groups_0, pad = key_pad_0, pad_type = key_pad_type_0, strides = key_strides_0, weight = layers_23_encoder_attn_k_proj_weight_to_fp16, x = encoder_output_embeds)[name = tensor<string, []>("key_cast_fp16")];
            tensor<string, []> value_pad_type_0 = const()[name = tensor<string, []>("value_pad_type_0"), val = tensor<string, []>("valid")];
            tensor<int32, [2]> value_strides_0 = const()[name = tensor<string, []>("value_strides_0"), val = tensor<int32, [2]>([1, 1])];
            tensor<int32, [4]> value_pad_0 = const()[name = tensor<string, []>("value_pad_0"), val = tensor<int32, [4]>([0, 0, 0, 0])];
            tensor<int32, [2]> value_dilations_0 = const()[name = tensor<string, []>("value_dilations_0"), val = tensor<int32, [2]>([1, 1])];
            tensor<int32, []> value_groups_0 = const()[name = tensor<string, []>("value_groups_0"), val = tensor<int32, []>(1)];
            tensor<fp16, [1024, 1024, 1, 1]> layers_23_encoder_attn_v_proj_weight_to_fp16 = const()[name = tensor<string, []>("layers_23_encoder_attn_v_proj_weight_to_fp16"), val = tensor<fp16, [1024, 1024, 1, 1]>(BLOBFILE(path = tensor<string, []>("@model_path/weights/weight.bin"), offset = tensor<uint64, []>(892329664)))];
            tensor<fp16, [1024]> layers_23_encoder_attn_v_proj_bias_to_fp16 = const()[name = tensor<string, []>("layers_23_encoder_attn_v_proj_bias_to_fp16"), val = tensor<fp16, [1024]>(BLOBFILE(path = tensor<string, []>("@model_path/weights/weight.bin"), offset = tensor<uint64, []>(894426880)))];
            tensor<fp16, [1, 1024, 1, 1500]> value_cast_fp16 = conv(bias = layers_23_encoder_attn_v_proj_bias_to_fp16, dilations = value_dilations_0, groups = value_groups_0, pad = value_pad_0, pad_type = value_pad_type_0, strides = value_strides_0, weight = layers_23_encoder_attn_v_proj_weight_to_fp16, x = encoder_output_embeds)[name = tensor<string, []>("value_cast_fp16")];
            tensor<int32, [4]> var_5348 = const()[name = tensor<string, []>("op_5348"), val = tensor<int32, [4]>([1, 16, 64, 1])];
            tensor<fp16, [1, 16, 64, 1]> mh_q_cast_fp16 = reshape(shape = var_5348, x = query_cast_fp16)[name = tensor<string, []>("mh_q_cast_fp16")];
            tensor<fp16, []> var_5350_to_fp16 = const()[name = tensor<string, []>("op_5350_to_fp16"), val = tensor<fp16, []>(0x1p-3)];
            tensor<fp16, [1, 16, 64, 1]> var_5351_cast_fp16 = mul(x = mh_q_cast_fp16, y = var_5350_to_fp16)[name = tensor<string, []>("op_5351_cast_fp16")];
            tensor<int32, [4]> var_5354 = const()[name = tensor<string, []>("op_5354"), val = tensor<int32, [4]>([1, 16, 64, 1500])];
            tensor<fp16, [1, 16, 64, 1500]> var_5355_cast_fp16 = reshape(shape = var_5354, x = key_cast_fp16)[name = tensor<string, []>("op_5355_cast_fp16")];
            tensor<bool, []> mh_w_transpose_x_0 = const()[name = tensor<string, []>("mh_w_transpose_x_0"), val = tensor<bool, []>(true)];
            tensor<bool, []> mh_w_transpose_y_0 = const()[name = tensor<string, []>("mh_w_transpose_y_0"), val = tensor<bool, []>(false)];
            tensor<fp16, [1, 16, 1, 1500]> mh_w_cast_fp16 = matmul(transpose_x = mh_w_transpose_x_0, transpose_y = mh_w_transpose_y_0, x = var_5351_cast_fp16, y = var_5355_cast_fp16)[name = tensor<string, []>("mh_w_cast_fp16")];
            tensor<fp16, [1, 16, 1, 1500]> obj_335_cast_fp16 = softmax(axis = var_5197, x = mh_w_cast_fp16)[name = tensor<string, []>("obj_335_cast_fp16")];
            tensor<int32, [4]> var_5359 = const()[name = tensor<string, []>("op_5359"), val = tensor<int32, [4]>([1, 16, 64, 1500])];
            tensor<fp16, [1, 16, 64, 1500]> var_5360_cast_fp16 = reshape(shape = var_5359, x = value_cast_fp16)[name = tensor<string, []>("op_5360_cast_fp16")];
            tensor<bool, []> attn_transpose_x_0 = const()[name = tensor<string, []>("attn_transpose_x_0"), val = tensor<bool, []>(false)];
            tensor<bool, []> attn_transpose_y_0 = const()[name = tensor<string, []>("attn_transpose_y_0"), val = tensor<bool, []>(true)];
            tensor<fp16, [1, 16, 64, 1]> attn_cast_fp16 = matmul(transpose_x = attn_transpose_x_0, transpose_y = attn_transpose_y_0, x = var_5360_cast_fp16, y = obj_335_cast_fp16)[name = tensor<string, []>("attn_cast_fp16")];
            tensor<int32, [4]> var_5363 = const()[name = tensor<string, []>("op_5363"), val = tensor<int32, [4]>([1, 1024, 1, 1])];
            tensor<fp16, [1, 1024, 1, 1]> input_233_cast_fp16 = reshape(shape = var_5363, x = attn_cast_fp16)[name = tensor<string, []>("input_233_cast_fp16")];
            tensor<string, []> obj_333_pad_type_0 = const()[name = tensor<string, []>("obj_333_pad_type_0"), val = tensor<string, []>("valid")];
            tensor<int32, [2]> obj_333_strides_0 = const()[name = tensor<string, []>("obj_333_strides_0"), val = tensor<int32, [2]>([1, 1])];
            tensor<int32, [4]> obj_333_pad_0 = const()[name = tensor<string, []>("obj_333_pad_0"), val = tensor<int32, [4]>([0, 0, 0, 0])];
            tensor<int32, [2]> obj_333_dilations_0 = const()[name = tensor<string, []>("obj_333_dilations_0"), val = tensor<int32, [2]>([1, 1])];
            tensor<int32, []> obj_333_groups_0 = const()[name = tensor<string, []>("obj_333_groups_0"), val = tensor<int32, []>(1)];
            tensor<fp16, [1024, 1024, 1, 1]> layers_23_encoder_attn_o_proj_weight_to_fp16 = const()[name = tensor<string, []>("layers_23_encoder_attn_o_proj_weight_to_fp16"), val = tensor<fp16, [1024, 1024, 1, 1]>(BLOBFILE(path = tensor<string, []>("@model_path/weights/weight.bin"), offset = tensor<uint64, []>(894428992)))];
            tensor<fp16, [1024]> layers_23_encoder_attn_o_proj_bias_to_fp16 = const()[name = tensor<string, []>("layers_23_encoder_attn_o_proj_bias_to_fp16"), val = tensor<fp16, [1024]>(BLOBFILE(path = tensor<string, []>("@model_path/weights/weight.bin"), offset = tensor<uint64, []>(896526208)))];
            tensor<fp16, [1, 1024, 1, 1]> obj_333_cast_fp16 = conv(bias = layers_23_encoder_attn_o_proj_bias_to_fp16, dilations = obj_333_dilations_0, groups = obj_333_groups_0, pad = obj_333_pad_0, pad_type = obj_333_pad_type_0, strides = obj_333_strides_0, weight = layers_23_encoder_attn_o_proj_weight_to_fp16, x = input_233_cast_fp16)[name = tensor<string, []>("obj_333_cast_fp16")];
            tensor<fp16, [1, 1024, 1, 1]> inputs_143_cast_fp16 = add(x = inputs_141_cast_fp16, y = obj_333_cast_fp16)[name = tensor<string, []>("inputs_143_cast_fp16")];
            tensor<int32, [1]> out_143_axes_0 = const()[name = tensor<string, []>("out_143_axes_0"), val = tensor<int32, [1]>([1])];
            tensor<fp16, []> var_5384_to_fp16 = const()[name = tensor<string, []>("op_5384_to_fp16"), val = tensor<fp16, []>(0x1.5p-17)];
            tensor<fp16, [1, 1024, 1, 1]> out_143_cast_fp16 = layer_norm(axes = out_143_axes_0, epsilon = var_5384_to_fp16, x = inputs_143_cast_fp16)[name = tensor<string, []>("out_143_cast_fp16")];
            tensor<fp16, [1024]> input_235_gamma_0_to_fp16 = const()[name = tensor<string, []>("input_235_gamma_0_to_fp16"), val = tensor<fp16, [1024]>(BLOBFILE(path = tensor<string, []>("@model_path/weights/weight.bin"), offset = tensor<uint64, []>(896528320)))];
            tensor<fp16, [1024]> input_235_beta_0_to_fp16 = const()[name = tensor<string, []>("input_235_beta_0_to_fp16"), val = tensor<fp16, [1024]>(BLOBFILE(path = tensor<string, []>("@model_path/weights/weight.bin"), offset = tensor<uint64, []>(896530432)))];
            tensor<fp16, []> input_235_epsilon_0_to_fp16 = const()[name = tensor<string, []>("input_235_epsilon_0_to_fp16"), val = tensor<fp16, []>(0x1.5p-17)];
            tensor<fp16, [1, 1024, 1, 1]> input_235_cast_fp16 = batch_norm(beta = input_235_beta_0_to_fp16, epsilon = input_235_epsilon_0_to_fp16, gamma = input_235_gamma_0_to_fp16, mean = obj_1_mean_0_to_fp16, variance = obj_1_variance_0_to_fp16, x = out_143_cast_fp16)[name = tensor<string, []>("input_235_cast_fp16")];
            tensor<string, []> input_237_pad_type_0 = const()[name = tensor<string, []>("input_237_pad_type_0"), val = tensor<string, []>("valid")];
            tensor<int32, [2]> input_237_strides_0 = const()[name = tensor<string, []>("input_237_strides_0"), val = tensor<int32, [2]>([1, 1])];
            tensor<int32, [4]> input_237_pad_0 = const()[name = tensor<string, []>("input_237_pad_0"), val = tensor<int32, [4]>([0, 0, 0, 0])];
            tensor<int32, [2]> input_237_dilations_0 = const()[name = tensor<string, []>("input_237_dilations_0"), val = tensor<int32, [2]>([1, 1])];
            tensor<int32, []> input_237_groups_0 = const()[name = tensor<string, []>("input_237_groups_0"), val = tensor<int32, []>(1)];
            tensor<fp16, [4096, 1024, 1, 1]> layers_23_fc1_weight_to_fp16 = const()[name = tensor<string, []>("layers_23_fc1_weight_to_fp16"), val = tensor<fp16, [4096, 1024, 1, 1]>(BLOBFILE(path = tensor<string, []>("@model_path/weights/weight.bin"), offset = tensor<uint64, []>(896532544)))];
            tensor<fp16, [4096]> layers_23_fc1_bias_to_fp16 = const()[name = tensor<string, []>("layers_23_fc1_bias_to_fp16"), val = tensor<fp16, [4096]>(BLOBFILE(path = tensor<string, []>("@model_path/weights/weight.bin"), offset = tensor<uint64, []>(904921216)))];
            tensor<fp16, [1, 4096, 1, 1]> input_237_cast_fp16 = conv(bias = layers_23_fc1_bias_to_fp16, dilations = input_237_dilations_0, groups = input_237_groups_0, pad = input_237_pad_0, pad_type = input_237_pad_type_0, strides = input_237_strides_0, weight = layers_23_fc1_weight_to_fp16, x = input_235_cast_fp16)[name = tensor<string, []>("input_237_cast_fp16")];
            tensor<string, []> input_mode_0 = const()[name = tensor<string, []>("input_mode_0"), val = tensor<string, []>("EXACT")];
            tensor<fp16, [1, 4096, 1, 1]> input_cast_fp16 = gelu(mode = input_mode_0, x = input_237_cast_fp16)[name = tensor<string, []>("input_cast_fp16")];
            tensor<string, []> hidden_states_49_pad_type_0 = const()[name = tensor<string, []>("hidden_states_49_pad_type_0"), val = tensor<string, []>("valid")];
            tensor<int32, [2]> hidden_states_49_strides_0 = const()[name = tensor<string, []>("hidden_states_49_strides_0"), val = tensor<int32, [2]>([1, 1])];
            tensor<int32, [4]> hidden_states_49_pad_0 = const()[name = tensor<string, []>("hidden_states_49_pad_0"), val = tensor<int32, [4]>([0, 0, 0, 0])];
            tensor<int32, [2]> hidden_states_49_dilations_0 = const()[name = tensor<string, []>("hidden_states_49_dilations_0"), val = tensor<int32, [2]>([1, 1])];
            tensor<int32, []> hidden_states_49_groups_0 = const()[name = tensor<string, []>("hidden_states_49_groups_0"), val = tensor<int32, []>(1)];
            tensor<fp16, [1024, 4096, 1, 1]> layers_23_fc2_weight_to_fp16 = const()[name = tensor<string, []>("layers_23_fc2_weight_to_fp16"), val = tensor<fp16, [1024, 4096, 1, 1]>(BLOBFILE(path = tensor<string, []>("@model_path/weights/weight.bin"), offset = tensor<uint64, []>(904929472)))];
            tensor<fp16, [1024]> layers_23_fc2_bias_to_fp16 = const()[name = tensor<string, []>("layers_23_fc2_bias_to_fp16"), val = tensor<fp16, [1024]>(BLOBFILE(path = tensor<string, []>("@model_path/weights/weight.bin"), offset = tensor<uint64, []>(913318144)))];
            tensor<fp16, [1, 1024, 1, 1]> hidden_states_49_cast_fp16 = conv(bias = layers_23_fc2_bias_to_fp16, dilations = hidden_states_49_dilations_0, groups = hidden_states_49_groups_0, pad = hidden_states_49_pad_0, pad_type = hidden_states_49_pad_type_0, strides = hidden_states_49_strides_0, weight = layers_23_fc2_weight_to_fp16, x = input_cast_fp16)[name = tensor<string, []>("hidden_states_49_cast_fp16")];
            tensor<fp16, [1, 1024, 1, 1]> inputs_cast_fp16 = add(x = inputs_143_cast_fp16, y = hidden_states_49_cast_fp16)[name = tensor<string, []>("inputs_cast_fp16")];
            tensor<int32, [1]> out_axes_0 = const()[name = tensor<string, []>("out_axes_0"), val = tensor<int32, [1]>([1])];
            tensor<fp16, []> var_5427_to_fp16 = const()[name = tensor<string, []>("op_5427_to_fp16"), val = tensor<fp16, []>(0x1.5p-17)];
            tensor<fp16, [1, 1024, 1, 1]> out_cast_fp16 = layer_norm(axes = out_axes_0, epsilon = var_5427_to_fp16, x = inputs_cast_fp16)[name = tensor<string, []>("out_cast_fp16")];
            tensor<fp16, [1024]> hidden_states_gamma_0_to_fp16 = const()[name = tensor<string, []>("hidden_states_gamma_0_to_fp16"), val = tensor<fp16, [1024]>(BLOBFILE(path = tensor<string, []>("@model_path/weights/weight.bin"), offset = tensor<uint64, []>(913320256)))];
            tensor<fp16, [1024]> hidden_states_beta_0_to_fp16 = const()[name = tensor<string, []>("hidden_states_beta_0_to_fp16"), val = tensor<fp16, [1024]>(BLOBFILE(path = tensor<string, []>("@model_path/weights/weight.bin"), offset = tensor<uint64, []>(913322368)))];
            tensor<fp16, []> hidden_states_epsilon_0_to_fp16 = const()[name = tensor<string, []>("hidden_states_epsilon_0_to_fp16"), val = tensor<fp16, []>(0x1.5p-17)];
            tensor<fp16, [1, 1024, 1, 1]> hidden_states_cast_fp16 = batch_norm(beta = hidden_states_beta_0_to_fp16, epsilon = hidden_states_epsilon_0_to_fp16, gamma = hidden_states_gamma_0_to_fp16, mean = obj_1_mean_0_to_fp16, variance = obj_1_variance_0_to_fp16, x = out_cast_fp16)[name = tensor<string, []>("hidden_states_cast_fp16")];
            tensor<int32, [1]> var_5438_axes_0 = const()[name = tensor<string, []>("op_5438_axes_0"), val = tensor<int32, [1]>([2])];
            tensor<fp16, [1, 1024, 1]> var_5438_cast_fp16 = squeeze(axes = var_5438_axes_0, x = hidden_states_cast_fp16)[name = tensor<string, []>("op_5438_cast_fp16")];
            tensor<int32, [3]> var_5441_perm_0 = const()[name = tensor<string, []>("op_5441_perm_0"), val = tensor<int32, [3]>([0, 2, 1])];
            tensor<fp16, [51865]> linear_0_bias_0_to_fp16 = const()[name = tensor<string, []>("linear_0_bias_0_to_fp16"), val = tensor<fp16, [51865]>(BLOBFILE(path = tensor<string, []>("@model_path/weights/weight.bin"), offset = tensor<uint64, []>(913324480)))];
            tensor<fp16, [1, 1, 1024]> var_5441_cast_fp16 = transpose(perm = var_5441_perm_0, x = var_5438_cast_fp16)[name = tensor<string, []>("transpose_0")];
            tensor<fp16, [1, 1, 51865]> logits = linear(bias = linear_0_bias_0_to_fp16, weight = embed_tokens_weight_to_fp16, x = var_5441_cast_fp16)[name = tensor<string, []>("linear_0_cast_fp16")];
            tensor<int32, []> var_5445 = const()[name = tensor<string, []>("op_5445"), val = tensor<int32, []>(1)];
            tensor<bool, []> obj_339_interleave_0 = const()[name = tensor<string, []>("obj_339_interleave_0"), val = tensor<bool, []>(false)];
            tensor<fp16, [1, 24576, 1, 1]> key_cache_updates = concat(axis = var_5445, interleave = obj_339_interleave_0, values = (current_key_1_cast_fp16, current_key_3_cast_fp16, current_key_5_cast_fp16, current_key_7_cast_fp16, current_key_9_cast_fp16, current_key_11_cast_fp16, current_key_13_cast_fp16, current_key_15_cast_fp16, current_key_17_cast_fp16, current_key_19_cast_fp16, current_key_21_cast_fp16, current_key_23_cast_fp16, current_key_25_cast_fp16, current_key_27_cast_fp16, current_key_29_cast_fp16, current_key_31_cast_fp16, current_key_33_cast_fp16, current_key_35_cast_fp16, current_key_37_cast_fp16, current_key_39_cast_fp16, current_key_41_cast_fp16, current_key_43_cast_fp16, current_key_45_cast_fp16, current_key_cast_fp16))[name = tensor<string, []>("obj_339_cast_fp16")];
            tensor<int32, []> var_5448 = const()[name = tensor<string, []>("op_5448"), val = tensor<int32, []>(1)];
            tensor<bool, []> obj_341_interleave_0 = const()[name = tensor<string, []>("obj_341_interleave_0"), val = tensor<bool, []>(false)];
            tensor<fp16, [1, 24576, 1, 1]> value_cache_updates = concat(axis = var_5448, interleave = obj_341_interleave_0, values = (current_value_1_cast_fp16, current_value_3_cast_fp16, current_value_5_cast_fp16, current_value_7_cast_fp16, current_value_9_cast_fp16, current_value_11_cast_fp16, current_value_13_cast_fp16, current_value_15_cast_fp16, current_value_17_cast_fp16, current_value_19_cast_fp16, current_value_21_cast_fp16, current_value_23_cast_fp16, current_value_25_cast_fp16, current_value_27_cast_fp16, current_value_29_cast_fp16, current_value_31_cast_fp16, current_value_33_cast_fp16, current_value_35_cast_fp16, current_value_37_cast_fp16, current_value_39_cast_fp16, current_value_41_cast_fp16, current_value_43_cast_fp16, current_value_45_cast_fp16, current_value_cast_fp16))[name = tensor<string, []>("obj_341_cast_fp16")];
            tensor<int32, [4]> var_5459_begin_0 = const()[name = tensor<string, []>("op_5459_begin_0"), val = tensor<int32, [4]>([0, 15, 0, 0])];
            tensor<int32, [4]> var_5459_end_0 = const()[name = tensor<string, []>("op_5459_end_0"), val = tensor<int32, [4]>([1, 1, 1, 1500])];
            tensor<bool, [4]> var_5459_end_mask_0 = const()[name = tensor<string, []>("op_5459_end_mask_0"), val = tensor<bool, [4]>([true, true, true, true])];
            tensor<fp16, [1, 1, 1, 1500]> var_5459_cast_fp16 = slice_by_index(begin = var_5459_begin_0, end = var_5459_end_0, end_mask = var_5459_end_mask_0, x = obj_195_cast_fp16)[name = tensor<string, []>("op_5459_cast_fp16")];
            tensor<int32, [4]> var_5462_begin_0 = const()[name = tensor<string, []>("op_5462_begin_0"), val = tensor<int32, [4]>([0, 0, 0, 0])];
            tensor<int32, [4]> var_5462_end_0 = const()[name = tensor<string, []>("op_5462_end_0"), val = tensor<int32, [4]>([1, 1, 1, 1500])];
            tensor<bool, [4]> var_5462_end_mask_0 = const()[name = tensor<string, []>("op_5462_end_mask_0"), val = tensor<bool, [4]>([true, true, false, true])];
            tensor<bool, [4]> var_5462_squeeze_mask_0 = const()[name = tensor<string, []>("op_5462_squeeze_mask_0"), val = tensor<bool, [4]>([false, false, true, false])];
            tensor<fp16, [1, 1, 1500]> var_5462_cast_fp16 = slice_by_index(begin = var_5462_begin_0, end = var_5462_end_0, end_mask = var_5462_end_mask_0, squeeze_mask = var_5462_squeeze_mask_0, x = var_5459_cast_fp16)[name = tensor<string, []>("op_5462_cast_fp16")];
            tensor<int32, [4]> var_5477_begin_0 = const()[name = tensor<string, []>("op_5477_begin_0"), val = tensor<int32, [4]>([0, 4, 0, 0])];
            tensor<int32, [4]> var_5477_end_0 = const()[name = tensor<string, []>("op_5477_end_0"), val = tensor<int32, [4]>([1, 5, 1, 1500])];
            tensor<bool, [4]> var_5477_end_mask_0 = const()[name = tensor<string, []>("op_5477_end_mask_0"), val = tensor<bool, [4]>([true, false, true, true])];
            tensor<fp16, [1, 1, 1, 1500]> var_5477_cast_fp16 = slice_by_index(begin = var_5477_begin_0, end = var_5477_end_0, end_mask = var_5477_end_mask_0, x = obj_223_cast_fp16)[name = tensor<string, []>("op_5477_cast_fp16")];
            tensor<int32, [4]> var_5480_begin_0 = const()[name = tensor<string, []>("op_5480_begin_0"), val = tensor<int32, [4]>([0, 0, 0, 0])];
            tensor<int32, [4]> var_5480_end_0 = const()[name = tensor<string, []>("op_5480_end_0"), val = tensor<int32, [4]>([1, 1, 1, 1500])];
            tensor<bool, [4]> var_5480_end_mask_0 = const()[name = tensor<string, []>("op_5480_end_mask_0"), val = tensor<bool, [4]>([true, true, false, true])];
            tensor<bool, [4]> var_5480_squeeze_mask_0 = const()[name = tensor<string, []>("op_5480_squeeze_mask_0"), val = tensor<bool, [4]>([false, false, true, false])];
            tensor<fp16, [1, 1, 1500]> var_5480_cast_fp16 = slice_by_index(begin = var_5480_begin_0, end = var_5480_end_0, end_mask = var_5480_end_mask_0, squeeze_mask = var_5480_squeeze_mask_0, x = var_5477_cast_fp16)[name = tensor<string, []>("op_5480_cast_fp16")];
            tensor<int32, [4]> var_5495_begin_0 = const()[name = tensor<string, []>("op_5495_begin_0"), val = tensor<int32, [4]>([0, 15, 0, 0])];
            tensor<int32, [4]> var_5495_end_0 = const()[name = tensor<string, []>("op_5495_end_0"), val = tensor<int32, [4]>([1, 1, 1, 1500])];
            tensor<bool, [4]> var_5495_end_mask_0 = const()[name = tensor<string, []>("op_5495_end_mask_0"), val = tensor<bool, [4]>([true, true, true, true])];
            tensor<fp16, [1, 1, 1, 1500]> var_5495_cast_fp16 = slice_by_index(begin = var_5495_begin_0, end = var_5495_end_0, end_mask = var_5495_end_mask_0, x = obj_223_cast_fp16)[name = tensor<string, []>("op_5495_cast_fp16")];
            tensor<int32, [4]> var_5498_begin_0 = const()[name = tensor<string, []>("op_5498_begin_0"), val = tensor<int32, [4]>([0, 0, 0, 0])];
            tensor<int32, [4]> var_5498_end_0 = const()[name = tensor<string, []>("op_5498_end_0"), val = tensor<int32, [4]>([1, 1, 1, 1500])];
            tensor<bool, [4]> var_5498_end_mask_0 = const()[name = tensor<string, []>("op_5498_end_mask_0"), val = tensor<bool, [4]>([true, true, false, true])];
            tensor<bool, [4]> var_5498_squeeze_mask_0 = const()[name = tensor<string, []>("op_5498_squeeze_mask_0"), val = tensor<bool, [4]>([false, false, true, false])];
            tensor<fp16, [1, 1, 1500]> var_5498_cast_fp16 = slice_by_index(begin = var_5498_begin_0, end = var_5498_end_0, end_mask = var_5498_end_mask_0, squeeze_mask = var_5498_squeeze_mask_0, x = var_5495_cast_fp16)[name = tensor<string, []>("op_5498_cast_fp16")];
            tensor<int32, [4]> var_5513_begin_0 = const()[name = tensor<string, []>("op_5513_begin_0"), val = tensor<int32, [4]>([0, 1, 0, 0])];
            tensor<int32, [4]> var_5513_end_0 = const()[name = tensor<string, []>("op_5513_end_0"), val = tensor<int32, [4]>([1, 2, 1, 1500])];
            tensor<bool, [4]> var_5513_end_mask_0 = const()[name = tensor<string, []>("op_5513_end_mask_0"), val = tensor<bool, [4]>([true, false, true, true])];
            tensor<fp16, [1, 1, 1, 1500]> var_5513_cast_fp16 = slice_by_index(begin = var_5513_begin_0, end = var_5513_end_0, end_mask = var_5513_end_mask_0, x = obj_237_cast_fp16)[name = tensor<string, []>("op_5513_cast_fp16")];
            tensor<int32, [4]> var_5516_begin_0 = const()[name = tensor<string, []>("op_5516_begin_0"), val = tensor<int32, [4]>([0, 0, 0, 0])];
            tensor<int32, [4]> var_5516_end_0 = const()[name = tensor<string, []>("op_5516_end_0"), val = tensor<int32, [4]>([1, 1, 1, 1500])];
            tensor<bool, [4]> var_5516_end_mask_0 = const()[name = tensor<string, []>("op_5516_end_mask_0"), val = tensor<bool, [4]>([true, true, false, true])];
            tensor<bool, [4]> var_5516_squeeze_mask_0 = const()[name = tensor<string, []>("op_5516_squeeze_mask_0"), val = tensor<bool, [4]>([false, false, true, false])];
            tensor<fp16, [1, 1, 1500]> var_5516_cast_fp16 = slice_by_index(begin = var_5516_begin_0, end = var_5516_end_0, end_mask = var_5516_end_mask_0, squeeze_mask = var_5516_squeeze_mask_0, x = var_5513_cast_fp16)[name = tensor<string, []>("op_5516_cast_fp16")];
            tensor<int32, [4]> var_5531_begin_0 = const()[name = tensor<string, []>("op_5531_begin_0"), val = tensor<int32, [4]>([0, 0, 0, 0])];
            tensor<int32, [4]> var_5531_end_0 = const()[name = tensor<string, []>("op_5531_end_0"), val = tensor<int32, [4]>([1, 1, 1, 1500])];
            tensor<bool, [4]> var_5531_end_mask_0 = const()[name = tensor<string, []>("op_5531_end_mask_0"), val = tensor<bool, [4]>([true, false, true, true])];
            tensor<fp16, [1, 1, 1, 1500]> var_5531_cast_fp16 = slice_by_index(begin = var_5531_begin_0, end = var_5531_end_0, end_mask = var_5531_end_mask_0, x = obj_293_cast_fp16)[name = tensor<string, []>("op_5531_cast_fp16")];
            tensor<int32, [4]> var_5534_begin_0 = const()[name = tensor<string, []>("op_5534_begin_0"), val = tensor<int32, [4]>([0, 0, 0, 0])];
            tensor<int32, [4]> var_5534_end_0 = const()[name = tensor<string, []>("op_5534_end_0"), val = tensor<int32, [4]>([1, 1, 1, 1500])];
            tensor<bool, [4]> var_5534_end_mask_0 = const()[name = tensor<string, []>("op_5534_end_mask_0"), val = tensor<bool, [4]>([true, true, false, true])];
            tensor<bool, [4]> var_5534_squeeze_mask_0 = const()[name = tensor<string, []>("op_5534_squeeze_mask_0"), val = tensor<bool, [4]>([false, false, true, false])];
            tensor<fp16, [1, 1, 1500]> var_5534_cast_fp16 = slice_by_index(begin = var_5534_begin_0, end = var_5534_end_0, end_mask = var_5534_end_mask_0, squeeze_mask = var_5534_squeeze_mask_0, x = var_5531_cast_fp16)[name = tensor<string, []>("op_5534_cast_fp16")];
            tensor<int32, [4]> var_5549_begin_0 = const()[name = tensor<string, []>("op_5549_begin_0"), val = tensor<int32, [4]>([0, 4, 0, 0])];
            tensor<int32, [4]> var_5549_end_0 = const()[name = tensor<string, []>("op_5549_end_0"), val = tensor<int32, [4]>([1, 5, 1, 1500])];
            tensor<bool, [4]> var_5549_end_mask_0 = const()[name = tensor<string, []>("op_5549_end_mask_0"), val = tensor<bool, [4]>([true, false, true, true])];
            tensor<fp16, [1, 1, 1, 1500]> var_5549_cast_fp16 = slice_by_index(begin = var_5549_begin_0, end = var_5549_end_0, end_mask = var_5549_end_mask_0, x = obj_335_cast_fp16)[name = tensor<string, []>("op_5549_cast_fp16")];
            tensor<int32, [4]> var_5552_begin_0 = const()[name = tensor<string, []>("op_5552_begin_0"), val = tensor<int32, [4]>([0, 0, 0, 0])];
            tensor<int32, [4]> var_5552_end_0 = const()[name = tensor<string, []>("op_5552_end_0"), val = tensor<int32, [4]>([1, 1, 1, 1500])];
            tensor<bool, [4]> var_5552_end_mask_0 = const()[name = tensor<string, []>("op_5552_end_mask_0"), val = tensor<bool, [4]>([true, true, false, true])];
            tensor<bool, [4]> var_5552_squeeze_mask_0 = const()[name = tensor<string, []>("op_5552_squeeze_mask_0"), val = tensor<bool, [4]>([false, false, true, false])];
            tensor<fp16, [1, 1, 1500]> var_5552_cast_fp16 = slice_by_index(begin = var_5552_begin_0, end = var_5552_end_0, end_mask = var_5552_end_mask_0, squeeze_mask = var_5552_squeeze_mask_0, x = var_5549_cast_fp16)[name = tensor<string, []>("op_5552_cast_fp16")];
            tensor<int32, []> var_5559 = const()[name = tensor<string, []>("op_5559"), val = tensor<int32, []>(1)];
            tensor<bool, []> var_5560_interleave_0 = const()[name = tensor<string, []>("op_5560_interleave_0"), val = tensor<bool, []>(false)];
            tensor<fp16, [1, 6, 1500]> var_5560_cast_fp16 = concat(axis = var_5559, interleave = var_5560_interleave_0, values = (var_5462_cast_fp16, var_5480_cast_fp16, var_5498_cast_fp16, var_5516_cast_fp16, var_5534_cast_fp16, var_5552_cast_fp16))[name = tensor<string, []>("op_5560_cast_fp16")];
            tensor<int32, [1]> obj_axes_0 = const()[name = tensor<string, []>("obj_axes_0"), val = tensor<int32, [1]>([1])];
            tensor<bool, []> obj_keep_dims_0 = const()[name = tensor<string, []>("obj_keep_dims_0"), val = tensor<bool, []>(false)];
            tensor<fp16, [1, 1500]> alignment_heads_weights = reduce_mean(axes = obj_axes_0, keep_dims = obj_keep_dims_0, x = var_5560_cast_fp16)[name = tensor<string, []>("obj_cast_fp16")];
        } -> (logits, key_cache_updates, value_cache_updates, alignment_heads_weights);
}