program(1.0)
[buildInfo = dict<tensor<string, []>, tensor<string, []>>({{"coremlc-component-MIL", "3401.3.1"}, {"coremlc-version", "3401.4.1"}, {"coremltools-component-torch", "2.5.0"}, {"coremltools-source-dialect", "TorchScript"}, {"coremltools-version", "8.2"}})]
{
    func main<ios16>(tensor<fp16, [1, 80, 1, 3000]> melspectrogram_features) {
            tensor<string, []> var_90_pad_type_0 = const()[name = tensor<string, []>("op_90_pad_type_0"), val = tensor<string, []>("custom")];
            tensor<int32, [4]> var_90_pad_0 = const()[name = tensor<string, []>("op_90_pad_0"), val = tensor<int32, [4]>([0, 0, 1, 1])];
            tensor<int32, [2]> var_90_strides_0 = const()[name = tensor<string, []>("op_90_strides_0"), val = tensor<int32, [2]>([1, 1])];
            tensor<int32, [2]> var_90_dilations_0 = const()[name = tensor<string, []>("op_90_dilations_0"), val = tensor<int32, [2]>([1, 1])];
            tensor<int32, []> var_90_groups_0 = const()[name = tensor<string, []>("op_90_groups_0"), val = tensor<int32, []>(1)];
            tensor<fp16, [1024, 80, 1, 3]> var_65_to_fp16 = const()[name = tensor<string, []>("op_65_to_fp16"), val = tensor<fp16, [1024, 80, 1, 3]>(BLOBFILE(path = tensor<string, []>("@model_path/weights/weight.bin"), offset = tensor<uint64, []>(64)))];
            tensor<fp16, [1024]> var_71_to_fp16 = const()[name = tensor<string, []>("op_71_to_fp16"), val = tensor<fp16, [1024]>(BLOBFILE(path = tensor<string, []>("@model_path/weights/weight.bin"), offset = tensor<uint64, []>(491648)))];
            tensor<fp16, [1, 1024, 1, 3000]> var_90_cast_fp16 = conv(bias = var_71_to_fp16, dilations = var_90_dilations_0, groups = var_90_groups_0, pad = var_90_pad_0, pad_type = var_90_pad_type_0, strides = var_90_strides_0, weight = var_65_to_fp16, x = melspectrogram_features)[name = tensor<string, []>("op_90_cast_fp16")];
            tensor<string, []> hidden_states_1_mode_0 = const()[name = tensor<string, []>("hidden_states_1_mode_0"), val = tensor<string, []>("EXACT")];
            tensor<fp16, [1, 1024, 1, 3000]> hidden_states_1_cast_fp16 = gelu(mode = hidden_states_1_mode_0, x = var_90_cast_fp16)[name = tensor<string, []>("hidden_states_1_cast_fp16")];
            tensor<string, []> var_130_pad_type_0 = const()[name = tensor<string, []>("op_130_pad_type_0"), val = tensor<string, []>("custom")];
            tensor<int32, [4]> var_130_pad_0 = const()[name = tensor<string, []>("op_130_pad_0"), val = tensor<int32, [4]>([0, 0, 1, 1])];
            tensor<int32, [2]> var_130_strides_0 = const()[name = tensor<string, []>("op_130_strides_0"), val = tensor<int32, [2]>([2, 2])];
            tensor<int32, [2]> var_130_dilations_0 = const()[name = tensor<string, []>("op_130_dilations_0"), val = tensor<int32, [2]>([1, 1])];
            tensor<int32, []> var_130_groups_0 = const()[name = tensor<string, []>("op_130_groups_0"), val = tensor<int32, []>(1)];
            tensor<fp16, [1024, 1024, 1, 3]> var_105_to_fp16 = const()[name = tensor<string, []>("op_105_to_fp16"), val = tensor<fp16, [1024, 1024, 1, 3]>(BLOBFILE(path = tensor<string, []>("@model_path/weights/weight.bin"), offset = tensor<uint64, []>(493760)))];
            tensor<fp16, [1024]> var_111_to_fp16 = const()[name = tensor<string, []>("op_111_to_fp16"), val = tensor<fp16, [1024]>(BLOBFILE(path = tensor<string, []>("@model_path/weights/weight.bin"), offset = tensor<uint64, []>(6785280)))];
            tensor<fp16, [1, 1024, 1, 1500]> var_130_cast_fp16 = conv(bias = var_111_to_fp16, dilations = var_130_dilations_0, groups = var_130_groups_0, pad = var_130_pad_0, pad_type = var_130_pad_type_0, strides = var_130_strides_0, weight = var_105_to_fp16, x = hidden_states_1_cast_fp16)[name = tensor<string, []>("op_130_cast_fp16")];
            tensor<string, []> hidden_states_3_mode_0 = const()[name = tensor<string, []>("hidden_states_3_mode_0"), val = tensor<string, []>("EXACT")];
            tensor<fp16, [1, 1024, 1, 1500]> hidden_states_3_cast_fp16 = gelu(mode = hidden_states_3_mode_0, x = var_130_cast_fp16)[name = tensor<string, []>("hidden_states_3_cast_fp16")];
            tensor<fp16, [1, 1024, 1, 1500]> var_148_to_fp16 = const()[name = tensor<string, []>("op_148_to_fp16"), val = tensor<fp16, [1, 1024, 1, 1500]>(BLOBFILE(path = tensor<string, []>("@model_path/weights/weight.bin"), offset = tensor<uint64, []>(6787392)))];
            tensor<fp16, [1, 1024, 1, 1500]> inputs_1_cast_fp16 = add(x = hidden_states_3_cast_fp16, y = var_148_to_fp16)[name = tensor<string, []>("inputs_1_cast_fp16")];
            tensor<int32, []> var_158 = const()[name = tensor<string, []>("op_158"), val = tensor<int32, []>(3)];
            tensor<int32, [1]> out_1_axes_0 = const()[name = tensor<string, []>("out_1_axes_0"), val = tensor<int32, [1]>([1])];
            tensor<fp16, []> var_180_to_fp16 = const()[name = tensor<string, []>("op_180_to_fp16"), val = tensor<fp16, []>(0x1.5p-17)];
            tensor<fp16, [1, 1024, 1, 1500]> out_1_cast_fp16 = layer_norm(axes = out_1_axes_0, epsilon = var_180_to_fp16, x = inputs_1_cast_fp16)[name = tensor<string, []>("out_1_cast_fp16")];
            tensor<fp16, [1024]> obj_1_mean_0_to_fp16 = const()[name = tensor<string, []>("obj_1_mean_0_to_fp16"), val = tensor<fp16, [1024]>(BLOBFILE(path = tensor<string, []>("@model_path/weights/weight.bin"), offset = tensor<uint64, []>(9859456)))];
            tensor<fp16, [1024]> obj_1_variance_0_to_fp16 = const()[name = tensor<string, []>("obj_1_variance_0_to_fp16"), val = tensor<fp16, [1024]>(BLOBFILE(path = tensor<string, []>("@model_path/weights/weight.bin"), offset = tensor<uint64, []>(9861568)))];
            tensor<fp16, [1024]> obj_1_gamma_0_to_fp16 = const()[name = tensor<string, []>("obj_1_gamma_0_to_fp16"), val = tensor<fp16, [1024]>(BLOBFILE(path = tensor<string, []>("@model_path/weights/weight.bin"), offset = tensor<uint64, []>(9863680)))];
            tensor<fp16, [1024]> obj_1_beta_0_to_fp16 = const()[name = tensor<string, []>("obj_1_beta_0_to_fp16"), val = tensor<fp16, [1024]>(BLOBFILE(path = tensor<string, []>("@model_path/weights/weight.bin"), offset = tensor<uint64, []>(9865792)))];
            tensor<fp16, []> obj_1_epsilon_0_to_fp16 = const()[name = tensor<string, []>("obj_1_epsilon_0_to_fp16"), val = tensor<fp16, []>(0x1.5p-17)];
            tensor<fp16, [1, 1024, 1, 1500]> obj_1_cast_fp16 = batch_norm(beta = obj_1_beta_0_to_fp16, epsilon = obj_1_epsilon_0_to_fp16, gamma = obj_1_gamma_0_to_fp16, mean = obj_1_mean_0_to_fp16, variance = obj_1_variance_0_to_fp16, x = out_1_cast_fp16)[name = tensor<string, []>("obj_1_cast_fp16")];
            tensor<string, []> query_1_pad_type_0 = const()[name = tensor<string, []>("query_1_pad_type_0"), val = tensor<string, []>("valid")];
            tensor<int32, [2]> query_1_strides_0 = const()[name = tensor<string, []>("query_1_strides_0"), val = tensor<int32, [2]>([1, 1])];
            tensor<int32, [4]> query_1_pad_0 = const()[name = tensor<string, []>("query_1_pad_0"), val = tensor<int32, [4]>([0, 0, 0, 0])];
            tensor<int32, [2]> query_1_dilations_0 = const()[name = tensor<string, []>("query_1_dilations_0"), val = tensor<int32, [2]>([1, 1])];
            tensor<int32, []> query_1_groups_0 = const()[name = tensor<string, []>("query_1_groups_0"), val = tensor<int32, []>(1)];
            tensor<fp16, [1024, 1024, 1, 1]> layers_0_self_attn_q_proj_weight_to_fp16 = const()[name = tensor<string, []>("layers_0_self_attn_q_proj_weight_to_fp16"), val = tensor<fp16, [1024, 1024, 1, 1]>(BLOBFILE(path = tensor<string, []>("@model_path/weights/weight.bin"), offset = tensor<uint64, []>(9867904)))];
            tensor<fp16, [1024]> layers_0_self_attn_q_proj_bias_to_fp16 = const()[name = tensor<string, []>("layers_0_self_attn_q_proj_bias_to_fp16"), val = tensor<fp16, [1024]>(BLOBFILE(path = tensor<string, []>("@model_path/weights/weight.bin"), offset = tensor<uint64, []>(11965120)))];
            tensor<fp16, [1, 1024, 1, 1500]> query_1_cast_fp16 = conv(bias = layers_0_self_attn_q_proj_bias_to_fp16, dilations = query_1_dilations_0, groups = query_1_groups_0, pad = query_1_pad_0, pad_type = query_1_pad_type_0, strides = query_1_strides_0, weight = layers_0_self_attn_q_proj_weight_to_fp16, x = obj_1_cast_fp16)[name = tensor<string, []>("query_1_cast_fp16")];
            tensor<string, []> key_1_pad_type_0 = const()[name = tensor<string, []>("key_1_pad_type_0"), val = tensor<string, []>("valid")];
            tensor<int32, [2]> key_1_strides_0 = const()[name = tensor<string, []>("key_1_strides_0"), val = tensor<int32, [2]>([1, 1])];
            tensor<int32, [4]> key_1_pad_0 = const()[name = tensor<string, []>("key_1_pad_0"), val = tensor<int32, [4]>([0, 0, 0, 0])];
            tensor<int32, [2]> key_1_dilations_0 = const()[name = tensor<string, []>("key_1_dilations_0"), val = tensor<int32, [2]>([1, 1])];
            tensor<int32, []> key_1_groups_0 = const()[name = tensor<string, []>("key_1_groups_0"), val = tensor<int32, []>(1)];
            tensor<fp16, [1024, 1024, 1, 1]> layers_0_self_attn_k_proj_weight_to_fp16 = const()[name = tensor<string, []>("layers_0_self_attn_k_proj_weight_to_fp16"), val = tensor<fp16, [1024, 1024, 1, 1]>(BLOBFILE(path = tensor<string, []>("@model_path/weights/weight.bin"), offset = tensor<uint64, []>(11967232)))];
            tensor<fp16, [1, 1024, 1, 1500]> key_1_cast_fp16 = conv(dilations = key_1_dilations_0, groups = key_1_groups_0, pad = key_1_pad_0, pad_type = key_1_pad_type_0, strides = key_1_strides_0, weight = layers_0_self_attn_k_proj_weight_to_fp16, x = obj_1_cast_fp16)[name = tensor<string, []>("key_1_cast_fp16")];
            tensor<string, []> value_1_pad_type_0 = const()[name = tensor<string, []>("value_1_pad_type_0"), val = tensor<string, []>("valid")];
            tensor<int32, [2]> value_1_strides_0 = const()[name = tensor<string, []>("value_1_strides_0"), val = tensor<int32, [2]>([1, 1])];
            tensor<int32, [4]> value_1_pad_0 = const()[name = tensor<string, []>("value_1_pad_0"), val = tensor<int32, [4]>([0, 0, 0, 0])];
            tensor<int32, [2]> value_1_dilations_0 = const()[name = tensor<string, []>("value_1_dilations_0"), val = tensor<int32, [2]>([1, 1])];
            tensor<int32, []> value_1_groups_0 = const()[name = tensor<string, []>("value_1_groups_0"), val = tensor<int32, []>(1)];
            tensor<fp16, [1024, 1024, 1, 1]> layers_0_self_attn_v_proj_weight_to_fp16 = const()[name = tensor<string, []>("layers_0_self_attn_v_proj_weight_to_fp16"), val = tensor<fp16, [1024, 1024, 1, 1]>(BLOBFILE(path = tensor<string, []>("@model_path/weights/weight.bin"), offset = tensor<uint64, []>(14064448)))];
            tensor<fp16, [1024]> layers_0_self_attn_v_proj_bias_to_fp16 = const()[name = tensor<string, []>("layers_0_self_attn_v_proj_bias_to_fp16"), val = tensor<fp16, [1024]>(BLOBFILE(path = tensor<string, []>("@model_path/weights/weight.bin"), offset = tensor<uint64, []>(16161664)))];
            tensor<fp16, [1, 1024, 1, 1500]> value_1_cast_fp16 = conv(bias = layers_0_self_attn_v_proj_bias_to_fp16, dilations = value_1_dilations_0, groups = value_1_groups_0, pad = value_1_pad_0, pad_type = value_1_pad_type_0, strides = value_1_strides_0, weight = layers_0_self_attn_v_proj_weight_to_fp16, x = obj_1_cast_fp16)[name = tensor<string, []>("value_1_cast_fp16")];
            tensor<int32, [4]> var_216 = const()[name = tensor<string, []>("op_216"), val = tensor<int32, [4]>([1, 16, 64, 1500])];
            tensor<fp16, [1, 16, 64, 1500]> mh_q_1_cast_fp16 = reshape(shape = var_216, x = query_1_cast_fp16)[name = tensor<string, []>("mh_q_1_cast_fp16")];
            tensor<fp16, []> var_218_to_fp16 = const()[name = tensor<string, []>("op_218_to_fp16"), val = tensor<fp16, []>(0x1p-3)];
            tensor<fp16, [1, 16, 64, 1500]> var_219_cast_fp16 = mul(x = mh_q_1_cast_fp16, y = var_218_to_fp16)[name = tensor<string, []>("op_219_cast_fp16")];
            tensor<int32, [4]> var_222 = const()[name = tensor<string, []>("op_222"), val = tensor<int32, [4]>([1, 16, 64, 1500])];
            tensor<fp16, [1, 16, 64, 1500]> var_223_cast_fp16 = reshape(shape = var_222, x = key_1_cast_fp16)[name = tensor<string, []>("op_223_cast_fp16")];
            tensor<bool, []> mh_w_1_transpose_x_0 = const()[name = tensor<string, []>("mh_w_1_transpose_x_0"), val = tensor<bool, []>(true)];
            tensor<bool, []> mh_w_1_transpose_y_0 = const()[name = tensor<string, []>("mh_w_1_transpose_y_0"), val = tensor<bool, []>(false)];
            tensor<fp16, [1, 16, 1500, 1500]> mh_w_1_cast_fp16 = matmul(transpose_x = mh_w_1_transpose_x_0, transpose_y = mh_w_1_transpose_y_0, x = var_219_cast_fp16, y = var_223_cast_fp16)[name = tensor<string, []>("mh_w_1_cast_fp16")];
            tensor<fp16, [1, 16, 1500, 1500]> var_226_cast_fp16 = softmax(axis = var_158, x = mh_w_1_cast_fp16)[name = tensor<string, []>("op_226_cast_fp16")];
            tensor<int32, [4]> var_227 = const()[name = tensor<string, []>("op_227"), val = tensor<int32, [4]>([1, 16, 64, 1500])];
            tensor<fp16, [1, 16, 64, 1500]> var_228_cast_fp16 = reshape(shape = var_227, x = value_1_cast_fp16)[name = tensor<string, []>("op_228_cast_fp16")];
            tensor<bool, []> attn_1_transpose_x_0 = const()[name = tensor<string, []>("attn_1_transpose_x_0"), val = tensor<bool, []>(false)];
            tensor<bool, []> attn_1_transpose_y_0 = const()[name = tensor<string, []>("attn_1_transpose_y_0"), val = tensor<bool, []>(true)];
            tensor<fp16, [1, 16, 64, 1500]> attn_1_cast_fp16 = matmul(transpose_x = attn_1_transpose_x_0, transpose_y = attn_1_transpose_y_0, x = var_228_cast_fp16, y = var_226_cast_fp16)[name = tensor<string, []>("attn_1_cast_fp16")];
            tensor<int32, [4]> var_231 = const()[name = tensor<string, []>("op_231"), val = tensor<int32, [4]>([1, 1024, 1, 1500])];
            tensor<fp16, [1, 1024, 1, 1500]> input_1_cast_fp16 = reshape(shape = var_231, x = attn_1_cast_fp16)[name = tensor<string, []>("input_1_cast_fp16")];
            tensor<string, []> obj_3_pad_type_0 = const()[name = tensor<string, []>("obj_3_pad_type_0"), val = tensor<string, []>("valid")];
            tensor<int32, [2]> obj_3_strides_0 = const()[name = tensor<string, []>("obj_3_strides_0"), val = tensor<int32, [2]>([1, 1])];
            tensor<int32, [4]> obj_3_pad_0 = const()[name = tensor<string, []>("obj_3_pad_0"), val = tensor<int32, [4]>([0, 0, 0, 0])];
            tensor<int32, [2]> obj_3_dilations_0 = const()[name = tensor<string, []>("obj_3_dilations_0"), val = tensor<int32, [2]>([1, 1])];
            tensor<int32, []> obj_3_groups_0 = const()[name = tensor<string, []>("obj_3_groups_0"), val = tensor<int32, []>(1)];
            tensor<fp16, [1024, 1024, 1, 1]> layers_0_self_attn_o_proj_weight_to_fp16 = const()[name = tensor<string, []>("layers_0_self_attn_o_proj_weight_to_fp16"), val = tensor<fp16, [1024, 1024, 1, 1]>(BLOBFILE(path = tensor<string, []>("@model_path/weights/weight.bin"), offset = tensor<uint64, []>(16163776)))];
            tensor<fp16, [1024]> layers_0_self_attn_o_proj_bias_to_fp16 = const()[name = tensor<string, []>("layers_0_self_attn_o_proj_bias_to_fp16"), val = tensor<fp16, [1024]>(BLOBFILE(path = tensor<string, []>("@model_path/weights/weight.bin"), offset = tensor<uint64, []>(18260992)))];
            tensor<fp16, [1, 1024, 1, 1500]> obj_3_cast_fp16 = conv(bias = layers_0_self_attn_o_proj_bias_to_fp16, dilations = obj_3_dilations_0, groups = obj_3_groups_0, pad = obj_3_pad_0, pad_type = obj_3_pad_type_0, strides = obj_3_strides_0, weight = layers_0_self_attn_o_proj_weight_to_fp16, x = input_1_cast_fp16)[name = tensor<string, []>("obj_3_cast_fp16")];
            tensor<fp16, [1, 1024, 1, 1500]> inputs_3_cast_fp16 = add(x = inputs_1_cast_fp16, y = obj_3_cast_fp16)[name = tensor<string, []>("inputs_3_cast_fp16")];
            tensor<int32, [1]> out_3_axes_0 = const()[name = tensor<string, []>("out_3_axes_0"), val = tensor<int32, [1]>([1])];
            tensor<fp16, []> var_249_to_fp16 = const()[name = tensor<string, []>("op_249_to_fp16"), val = tensor<fp16, []>(0x1.5p-17)];
            tensor<fp16, [1, 1024, 1, 1500]> out_3_cast_fp16 = layer_norm(axes = out_3_axes_0, epsilon = var_249_to_fp16, x = inputs_3_cast_fp16)[name = tensor<string, []>("out_3_cast_fp16")];
            tensor<fp16, [1024]> input_3_gamma_0_to_fp16 = const()[name = tensor<string, []>("input_3_gamma_0_to_fp16"), val = tensor<fp16, [1024]>(BLOBFILE(path = tensor<string, []>("@model_path/weights/weight.bin"), offset = tensor<uint64, []>(18263104)))];
            tensor<fp16, [1024]> input_3_beta_0_to_fp16 = const()[name = tensor<string, []>("input_3_beta_0_to_fp16"), val = tensor<fp16, [1024]>(BLOBFILE(path = tensor<string, []>("@model_path/weights/weight.bin"), offset = tensor<uint64, []>(18265216)))];
            tensor<fp16, []> input_3_epsilon_0_to_fp16 = const()[name = tensor<string, []>("input_3_epsilon_0_to_fp16"), val = tensor<fp16, []>(0x1.5p-17)];
            tensor<fp16, [1, 1024, 1, 1500]> input_3_cast_fp16 = batch_norm(beta = input_3_beta_0_to_fp16, epsilon = input_3_epsilon_0_to_fp16, gamma = input_3_gamma_0_to_fp16, mean = obj_1_mean_0_to_fp16, variance = obj_1_variance_0_to_fp16, x = out_3_cast_fp16)[name = tensor<string, []>("input_3_cast_fp16")];
            tensor<string, []> input_5_pad_type_0 = const()[name = tensor<string, []>("input_5_pad_type_0"), val = tensor<string, []>("valid")];
            tensor<int32, [2]> input_5_strides_0 = const()[name = tensor<string, []>("input_5_strides_0"), val = tensor<int32, [2]>([1, 1])];
            tensor<int32, [4]> input_5_pad_0 = const()[name = tensor<string, []>("input_5_pad_0"), val = tensor<int32, [4]>([0, 0, 0, 0])];
            tensor<int32, [2]> input_5_dilations_0 = const()[name = tensor<string, []>("input_5_dilations_0"), val = tensor<int32, [2]>([1, 1])];
            tensor<int32, []> input_5_groups_0 = const()[name = tensor<string, []>("input_5_groups_0"), val = tensor<int32, []>(1)];
            tensor<fp16, [4096, 1024, 1, 1]> layers_0_fc1_weight_to_fp16 = const()[name = tensor<string, []>("layers_0_fc1_weight_to_fp16"), val = tensor<fp16, [4096, 1024, 1, 1]>(BLOBFILE(path = tensor<string, []>("@model_path/weights/weight.bin"), offset = tensor<uint64, []>(18267328)))];
            tensor<fp16, [4096]> layers_0_fc1_bias_to_fp16 = const()[name = tensor<string, []>("layers_0_fc1_bias_to_fp16"), val = tensor<fp16, [4096]>(BLOBFILE(path = tensor<string, []>("@model_path/weights/weight.bin"), offset = tensor<uint64, []>(26656000)))];
            tensor<fp16, [1, 4096, 1, 1500]> input_5_cast_fp16 = conv(bias = layers_0_fc1_bias_to_fp16, dilations = input_5_dilations_0, groups = input_5_groups_0, pad = input_5_pad_0, pad_type = input_5_pad_type_0, strides = input_5_strides_0, weight = layers_0_fc1_weight_to_fp16, x = input_3_cast_fp16)[name = tensor<string, []>("input_5_cast_fp16")];
            tensor<string, []> input_7_mode_0 = const()[name = tensor<string, []>("input_7_mode_0"), val = tensor<string, []>("EXACT")];
            tensor<fp16, [1, 4096, 1, 1500]> input_7_cast_fp16 = gelu(mode = input_7_mode_0, x = input_5_cast_fp16)[name = tensor<string, []>("input_7_cast_fp16")];
            tensor<string, []> hidden_states_5_pad_type_0 = const()[name = tensor<string, []>("hidden_states_5_pad_type_0"), val = tensor<string, []>("valid")];
            tensor<int32, [2]> hidden_states_5_strides_0 = const()[name = tensor<string, []>("hidden_states_5_strides_0"), val = tensor<int32, [2]>([1, 1])];
            tensor<int32, [4]> hidden_states_5_pad_0 = const()[name = tensor<string, []>("hidden_states_5_pad_0"), val = tensor<int32, [4]>([0, 0, 0, 0])];
            tensor<int32, [2]> hidden_states_5_dilations_0 = const()[name = tensor<string, []>("hidden_states_5_dilations_0"), val = tensor<int32, [2]>([1, 1])];
            tensor<int32, []> hidden_states_5_groups_0 = const()[name = tensor<string, []>("hidden_states_5_groups_0"), val = tensor<int32, []>(1)];
            tensor<fp16, [1024, 4096, 1, 1]> layers_0_fc2_weight_to_fp16 = const()[name = tensor<string, []>("layers_0_fc2_weight_to_fp16"), val = tensor<fp16, [1024, 4096, 1, 1]>(BLOBFILE(path = tensor<string, []>("@model_path/weights/weight.bin"), offset = tensor<uint64, []>(26664256)))];
            tensor<fp16, [1024]> layers_0_fc2_bias_to_fp16 = const()[name = tensor<string, []>("layers_0_fc2_bias_to_fp16"), val = tensor<fp16, [1024]>(BLOBFILE(path = tensor<string, []>("@model_path/weights/weight.bin"), offset = tensor<uint64, []>(35052928)))];
            tensor<fp16, [1, 1024, 1, 1500]> hidden_states_5_cast_fp16 = conv(bias = layers_0_fc2_bias_to_fp16, dilations = hidden_states_5_dilations_0, groups = hidden_states_5_groups_0, pad = hidden_states_5_pad_0, pad_type = hidden_states_5_pad_type_0, strides = hidden_states_5_strides_0, weight = layers_0_fc2_weight_to_fp16, x = input_7_cast_fp16)[name = tensor<string, []>("hidden_states_5_cast_fp16")];
            tensor<fp16, [1, 1024, 1, 1500]> inputs_5_cast_fp16 = add(x = inputs_3_cast_fp16, y = hidden_states_5_cast_fp16)[name = tensor<string, []>("inputs_5_cast_fp16")];
            tensor<int32, []> var_278 = const()[name = tensor<string, []>("op_278"), val = tensor<int32, []>(3)];
            tensor<int32, [1]> out_5_axes_0 = const()[name = tensor<string, []>("out_5_axes_0"), val = tensor<int32, [1]>([1])];
            tensor<fp16, []> var_300_to_fp16 = const()[name = tensor<string, []>("op_300_to_fp16"), val = tensor<fp16, []>(0x1.5p-17)];
            tensor<fp16, [1, 1024, 1, 1500]> out_5_cast_fp16 = layer_norm(axes = out_5_axes_0, epsilon = var_300_to_fp16, x = inputs_5_cast_fp16)[name = tensor<string, []>("out_5_cast_fp16")];
            tensor<fp16, [1024]> obj_5_gamma_0_to_fp16 = const()[name = tensor<string, []>("obj_5_gamma_0_to_fp16"), val = tensor<fp16, [1024]>(BLOBFILE(path = tensor<string, []>("@model_path/weights/weight.bin"), offset = tensor<uint64, []>(35055040)))];
            tensor<fp16, [1024]> obj_5_beta_0_to_fp16 = const()[name = tensor<string, []>("obj_5_beta_0_to_fp16"), val = tensor<fp16, [1024]>(BLOBFILE(path = tensor<string, []>("@model_path/weights/weight.bin"), offset = tensor<uint64, []>(35057152)))];
            tensor<fp16, []> obj_5_epsilon_0_to_fp16 = const()[name = tensor<string, []>("obj_5_epsilon_0_to_fp16"), val = tensor<fp16, []>(0x1.5p-17)];
            tensor<fp16, [1, 1024, 1, 1500]> obj_5_cast_fp16 = batch_norm(beta = obj_5_beta_0_to_fp16, epsilon = obj_5_epsilon_0_to_fp16, gamma = obj_5_gamma_0_to_fp16, mean = obj_1_mean_0_to_fp16, variance = obj_1_variance_0_to_fp16, x = out_5_cast_fp16)[name = tensor<string, []>("obj_5_cast_fp16")];
            tensor<string, []> query_3_pad_type_0 = const()[name = tensor<string, []>("query_3_pad_type_0"), val = tensor<string, []>("valid")];
            tensor<int32, [2]> query_3_strides_0 = const()[name = tensor<string, []>("query_3_strides_0"), val = tensor<int32, [2]>([1, 1])];
            tensor<int32, [4]> query_3_pad_0 = const()[name = tensor<string, []>("query_3_pad_0"), val = tensor<int32, [4]>([0, 0, 0, 0])];
            tensor<int32, [2]> query_3_dilations_0 = const()[name = tensor<string, []>("query_3_dilations_0"), val = tensor<int32, [2]>([1, 1])];
            tensor<int32, []> query_3_groups_0 = const()[name = tensor<string, []>("query_3_groups_0"), val = tensor<int32, []>(1)];
            tensor<fp16, [1024, 1024, 1, 1]> layers_1_self_attn_q_proj_weight_to_fp16 = const()[name = tensor<string, []>("layers_1_self_attn_q_proj_weight_to_fp16"), val = tensor<fp16, [1024, 1024, 1, 1]>(BLOBFILE(path = tensor<string, []>("@model_path/weights/weight.bin"), offset = tensor<uint64, []>(35059264)))];
            tensor<fp16, [1024]> layers_1_self_attn_q_proj_bias_to_fp16 = const()[name = tensor<string, []>("layers_1_self_attn_q_proj_bias_to_fp16"), val = tensor<fp16, [1024]>(BLOBFILE(path = tensor<string, []>("@model_path/weights/weight.bin"), offset = tensor<uint64, []>(37156480)))];
            tensor<fp16, [1, 1024, 1, 1500]> query_3_cast_fp16 = conv(bias = layers_1_self_attn_q_proj_bias_to_fp16, dilations = query_3_dilations_0, groups = query_3_groups_0, pad = query_3_pad_0, pad_type = query_3_pad_type_0, strides = query_3_strides_0, weight = layers_1_self_attn_q_proj_weight_to_fp16, x = obj_5_cast_fp16)[name = tensor<string, []>("query_3_cast_fp16")];
            tensor<string, []> key_3_pad_type_0 = const()[name = tensor<string, []>("key_3_pad_type_0"), val = tensor<string, []>("valid")];
            tensor<int32, [2]> key_3_strides_0 = const()[name = tensor<string, []>("key_3_strides_0"), val = tensor<int32, [2]>([1, 1])];
            tensor<int32, [4]> key_3_pad_0 = const()[name = tensor<string, []>("key_3_pad_0"), val = tensor<int32, [4]>([0, 0, 0, 0])];
            tensor<int32, [2]> key_3_dilations_0 = const()[name = tensor<string, []>("key_3_dilations_0"), val = tensor<int32, [2]>([1, 1])];
            tensor<int32, []> key_3_groups_0 = const()[name = tensor<string, []>("key_3_groups_0"), val = tensor<int32, []>(1)];
            tensor<fp16, [1024, 1024, 1, 1]> layers_1_self_attn_k_proj_weight_to_fp16 = const()[name = tensor<string, []>("layers_1_self_attn_k_proj_weight_to_fp16"), val = tensor<fp16, [1024, 1024, 1, 1]>(BLOBFILE(path = tensor<string, []>("@model_path/weights/weight.bin"), offset = tensor<uint64, []>(37158592)))];
            tensor<fp16, [1, 1024, 1, 1500]> key_3_cast_fp16 = conv(dilations = key_3_dilations_0, groups = key_3_groups_0, pad = key_3_pad_0, pad_type = key_3_pad_type_0, strides = key_3_strides_0, weight = layers_1_self_attn_k_proj_weight_to_fp16, x = obj_5_cast_fp16)[name = tensor<string, []>("key_3_cast_fp16")];
            tensor<string, []> value_3_pad_type_0 = const()[name = tensor<string, []>("value_3_pad_type_0"), val = tensor<string, []>("valid")];
            tensor<int32, [2]> value_3_strides_0 = const()[name = tensor<string, []>("value_3_strides_0"), val = tensor<int32, [2]>([1, 1])];
            tensor<int32, [4]> value_3_pad_0 = const()[name = tensor<string, []>("value_3_pad_0"), val = tensor<int32, [4]>([0, 0, 0, 0])];
            tensor<int32, [2]> value_3_dilations_0 = const()[name = tensor<string, []>("value_3_dilations_0"), val = tensor<int32, [2]>([1, 1])];
            tensor<int32, []> value_3_groups_0 = const()[name = tensor<string, []>("value_3_groups_0"), val = tensor<int32, []>(1)];
            tensor<fp16, [1024, 1024, 1, 1]> layers_1_self_attn_v_proj_weight_to_fp16 = const()[name = tensor<string, []>("layers_1_self_attn_v_proj_weight_to_fp16"), val = tensor<fp16, [1024, 1024, 1, 1]>(BLOBFILE(path = tensor<string, []>("@model_path/weights/weight.bin"), offset = tensor<uint64, []>(39255808)))];
            tensor<fp16, [1024]> layers_1_self_attn_v_proj_bias_to_fp16 = const()[name = tensor<string, []>("layers_1_self_attn_v_proj_bias_to_fp16"), val = tensor<fp16, [1024]>(BLOBFILE(path = tensor<string, []>("@model_path/weights/weight.bin"), offset = tensor<uint64, []>(41353024)))];
            tensor<fp16, [1, 1024, 1, 1500]> value_3_cast_fp16 = conv(bias = layers_1_self_attn_v_proj_bias_to_fp16, dilations = value_3_dilations_0, groups = value_3_groups_0, pad = value_3_pad_0, pad_type = value_3_pad_type_0, strides = value_3_strides_0, weight = layers_1_self_attn_v_proj_weight_to_fp16, x = obj_5_cast_fp16)[name = tensor<string, []>("value_3_cast_fp16")];
            tensor<int32, [4]> var_336 = const()[name = tensor<string, []>("op_336"), val = tensor<int32, [4]>([1, 16, 64, 1500])];
            tensor<fp16, [1, 16, 64, 1500]> mh_q_3_cast_fp16 = reshape(shape = var_336, x = query_3_cast_fp16)[name = tensor<string, []>("mh_q_3_cast_fp16")];
            tensor<fp16, []> var_338_to_fp16 = const()[name = tensor<string, []>("op_338_to_fp16"), val = tensor<fp16, []>(0x1p-3)];
            tensor<fp16, [1, 16, 64, 1500]> var_339_cast_fp16 = mul(x = mh_q_3_cast_fp16, y = var_338_to_fp16)[name = tensor<string, []>("op_339_cast_fp16")];
            tensor<int32, [4]> var_342 = const()[name = tensor<string, []>("op_342"), val = tensor<int32, [4]>([1, 16, 64, 1500])];
            tensor<fp16, [1, 16, 64, 1500]> var_343_cast_fp16 = reshape(shape = var_342, x = key_3_cast_fp16)[name = tensor<string, []>("op_343_cast_fp16")];
            tensor<bool, []> mh_w_3_transpose_x_0 = const()[name = tensor<string, []>("mh_w_3_transpose_x_0"), val = tensor<bool, []>(true)];
            tensor<bool, []> mh_w_3_transpose_y_0 = const()[name = tensor<string, []>("mh_w_3_transpose_y_0"), val = tensor<bool, []>(false)];
            tensor<fp16, [1, 16, 1500, 1500]> mh_w_3_cast_fp16 = matmul(transpose_x = mh_w_3_transpose_x_0, transpose_y = mh_w_3_transpose_y_0, x = var_339_cast_fp16, y = var_343_cast_fp16)[name = tensor<string, []>("mh_w_3_cast_fp16")];
            tensor<fp16, [1, 16, 1500, 1500]> var_346_cast_fp16 = softmax(axis = var_278, x = mh_w_3_cast_fp16)[name = tensor<string, []>("op_346_cast_fp16")];
            tensor<int32, [4]> var_347 = const()[name = tensor<string, []>("op_347"), val = tensor<int32, [4]>([1, 16, 64, 1500])];
            tensor<fp16, [1, 16, 64, 1500]> var_348_cast_fp16 = reshape(shape = var_347, x = value_3_cast_fp16)[name = tensor<string, []>("op_348_cast_fp16")];
            tensor<bool, []> attn_3_transpose_x_0 = const()[name = tensor<string, []>("attn_3_transpose_x_0"), val = tensor<bool, []>(false)];
            tensor<bool, []> attn_3_transpose_y_0 = const()[name = tensor<string, []>("attn_3_transpose_y_0"), val = tensor<bool, []>(true)];
            tensor<fp16, [1, 16, 64, 1500]> attn_3_cast_fp16 = matmul(transpose_x = attn_3_transpose_x_0, transpose_y = attn_3_transpose_y_0, x = var_348_cast_fp16, y = var_346_cast_fp16)[name = tensor<string, []>("attn_3_cast_fp16")];
            tensor<int32, [4]> var_351 = const()[name = tensor<string, []>("op_351"), val = tensor<int32, [4]>([1, 1024, 1, 1500])];
            tensor<fp16, [1, 1024, 1, 1500]> input_9_cast_fp16 = reshape(shape = var_351, x = attn_3_cast_fp16)[name = tensor<string, []>("input_9_cast_fp16")];
            tensor<string, []> obj_7_pad_type_0 = const()[name = tensor<string, []>("obj_7_pad_type_0"), val = tensor<string, []>("valid")];
            tensor<int32, [2]> obj_7_strides_0 = const()[name = tensor<string, []>("obj_7_strides_0"), val = tensor<int32, [2]>([1, 1])];
            tensor<int32, [4]> obj_7_pad_0 = const()[name = tensor<string, []>("obj_7_pad_0"), val = tensor<int32, [4]>([0, 0, 0, 0])];
            tensor<int32, [2]> obj_7_dilations_0 = const()[name = tensor<string, []>("obj_7_dilations_0"), val = tensor<int32, [2]>([1, 1])];
            tensor<int32, []> obj_7_groups_0 = const()[name = tensor<string, []>("obj_7_groups_0"), val = tensor<int32, []>(1)];
            tensor<fp16, [1024, 1024, 1, 1]> layers_1_self_attn_o_proj_weight_to_fp16 = const()[name = tensor<string, []>("layers_1_self_attn_o_proj_weight_to_fp16"), val = tensor<fp16, [1024, 1024, 1, 1]>(BLOBFILE(path = tensor<string, []>("@model_path/weights/weight.bin"), offset = tensor<uint64, []>(41355136)))];
            tensor<fp16, [1024]> layers_1_self_attn_o_proj_bias_to_fp16 = const()[name = tensor<string, []>("layers_1_self_attn_o_proj_bias_to_fp16"), val = tensor<fp16, [1024]>(BLOBFILE(path = tensor<string, []>("@model_path/weights/weight.bin"), offset = tensor<uint64, []>(43452352)))];
            tensor<fp16, [1, 1024, 1, 1500]> obj_7_cast_fp16 = conv(bias = layers_1_self_attn_o_proj_bias_to_fp16, dilations = obj_7_dilations_0, groups = obj_7_groups_0, pad = obj_7_pad_0, pad_type = obj_7_pad_type_0, strides = obj_7_strides_0, weight = layers_1_self_attn_o_proj_weight_to_fp16, x = input_9_cast_fp16)[name = tensor<string, []>("obj_7_cast_fp16")];
            tensor<fp16, [1, 1024, 1, 1500]> inputs_7_cast_fp16 = add(x = inputs_5_cast_fp16, y = obj_7_cast_fp16)[name = tensor<string, []>("inputs_7_cast_fp16")];
            tensor<int32, [1]> out_7_axes_0 = const()[name = tensor<string, []>("out_7_axes_0"), val = tensor<int32, [1]>([1])];
            tensor<fp16, []> var_369_to_fp16 = const()[name = tensor<string, []>("op_369_to_fp16"), val = tensor<fp16, []>(0x1.5p-17)];
            tensor<fp16, [1, 1024, 1, 1500]> out_7_cast_fp16 = layer_norm(axes = out_7_axes_0, epsilon = var_369_to_fp16, x = inputs_7_cast_fp16)[name = tensor<string, []>("out_7_cast_fp16")];
            tensor<fp16, [1024]> input_11_gamma_0_to_fp16 = const()[name = tensor<string, []>("input_11_gamma_0_to_fp16"), val = tensor<fp16, [1024]>(BLOBFILE(path = tensor<string, []>("@model_path/weights/weight.bin"), offset = tensor<uint64, []>(43454464)))];
            tensor<fp16, [1024]> input_11_beta_0_to_fp16 = const()[name = tensor<string, []>("input_11_beta_0_to_fp16"), val = tensor<fp16, [1024]>(BLOBFILE(path = tensor<string, []>("@model_path/weights/weight.bin"), offset = tensor<uint64, []>(43456576)))];
            tensor<fp16, []> input_11_epsilon_0_to_fp16 = const()[name = tensor<string, []>("input_11_epsilon_0_to_fp16"), val = tensor<fp16, []>(0x1.5p-17)];
            tensor<fp16, [1, 1024, 1, 1500]> input_11_cast_fp16 = batch_norm(beta = input_11_beta_0_to_fp16, epsilon = input_11_epsilon_0_to_fp16, gamma = input_11_gamma_0_to_fp16, mean = obj_1_mean_0_to_fp16, variance = obj_1_variance_0_to_fp16, x = out_7_cast_fp16)[name = tensor<string, []>("input_11_cast_fp16")];
            tensor<string, []> input_13_pad_type_0 = const()[name = tensor<string, []>("input_13_pad_type_0"), val = tensor<string, []>("valid")];
            tensor<int32, [2]> input_13_strides_0 = const()[name = tensor<string, []>("input_13_strides_0"), val = tensor<int32, [2]>([1, 1])];
            tensor<int32, [4]> input_13_pad_0 = const()[name = tensor<string, []>("input_13_pad_0"), val = tensor<int32, [4]>([0, 0, 0, 0])];
            tensor<int32, [2]> input_13_dilations_0 = const()[name = tensor<string, []>("input_13_dilations_0"), val = tensor<int32, [2]>([1, 1])];
            tensor<int32, []> input_13_groups_0 = const()[name = tensor<string, []>("input_13_groups_0"), val = tensor<int32, []>(1)];
            tensor<fp16, [4096, 1024, 1, 1]> layers_1_fc1_weight_to_fp16 = const()[name = tensor<string, []>("layers_1_fc1_weight_to_fp16"), val = tensor<fp16, [4096, 1024, 1, 1]>(BLOBFILE(path = tensor<string, []>("@model_path/weights/weight.bin"), offset = tensor<uint64, []>(43458688)))];
            tensor<fp16, [4096]> layers_1_fc1_bias_to_fp16 = const()[name = tensor<string, []>("layers_1_fc1_bias_to_fp16"), val = tensor<fp16, [4096]>(BLOBFILE(path = tensor<string, []>("@model_path/weights/weight.bin"), offset = tensor<uint64, []>(51847360)))];
            tensor<fp16, [1, 4096, 1, 1500]> input_13_cast_fp16 = conv(bias = layers_1_fc1_bias_to_fp16, dilations = input_13_dilations_0, groups = input_13_groups_0, pad = input_13_pad_0, pad_type = input_13_pad_type_0, strides = input_13_strides_0, weight = layers_1_fc1_weight_to_fp16, x = input_11_cast_fp16)[name = tensor<string, []>("input_13_cast_fp16")];
            tensor<string, []> input_15_mode_0 = const()[name = tensor<string, []>("input_15_mode_0"), val = tensor<string, []>("EXACT")];
            tensor<fp16, [1, 4096, 1, 1500]> input_15_cast_fp16 = gelu(mode = input_15_mode_0, x = input_13_cast_fp16)[name = tensor<string, []>("input_15_cast_fp16")];
            tensor<string, []> hidden_states_7_pad_type_0 = const()[name = tensor<string, []>("hidden_states_7_pad_type_0"), val = tensor<string, []>("valid")];
            tensor<int32, [2]> hidden_states_7_strides_0 = const()[name = tensor<string, []>("hidden_states_7_strides_0"), val = tensor<int32, [2]>([1, 1])];
            tensor<int32, [4]> hidden_states_7_pad_0 = const()[name = tensor<string, []>("hidden_states_7_pad_0"), val = tensor<int32, [4]>([0, 0, 0, 0])];
            tensor<int32, [2]> hidden_states_7_dilations_0 = const()[name = tensor<string, []>("hidden_states_7_dilations_0"), val = tensor<int32, [2]>([1, 1])];
            tensor<int32, []> hidden_states_7_groups_0 = const()[name = tensor<string, []>("hidden_states_7_groups_0"), val = tensor<int32, []>(1)];
            tensor<fp16, [1024, 4096, 1, 1]> layers_1_fc2_weight_to_fp16 = const()[name = tensor<string, []>("layers_1_fc2_weight_to_fp16"), val = tensor<fp16, [1024, 4096, 1, 1]>(BLOBFILE(path = tensor<string, []>("@model_path/weights/weight.bin"), offset = tensor<uint64, []>(51855616)))];
            tensor<fp16, [1024]> layers_1_fc2_bias_to_fp16 = const()[name = tensor<string, []>("layers_1_fc2_bias_to_fp16"), val = tensor<fp16, [1024]>(BLOBFILE(path = tensor<string, []>("@model_path/weights/weight.bin"), offset = tensor<uint64, []>(60244288)))];
            tensor<fp16, [1, 1024, 1, 1500]> hidden_states_7_cast_fp16 = conv(bias = layers_1_fc2_bias_to_fp16, dilations = hidden_states_7_dilations_0, groups = hidden_states_7_groups_0, pad = hidden_states_7_pad_0, pad_type = hidden_states_7_pad_type_0, strides = hidden_states_7_strides_0, weight = layers_1_fc2_weight_to_fp16, x = input_15_cast_fp16)[name = tensor<string, []>("hidden_states_7_cast_fp16")];
            tensor<fp16, [1, 1024, 1, 1500]> inputs_9_cast_fp16 = add(x = inputs_7_cast_fp16, y = hidden_states_7_cast_fp16)[name = tensor<string, []>("inputs_9_cast_fp16")];
            tensor<int32, []> var_398 = const()[name = tensor<string, []>("op_398"), val = tensor<int32, []>(3)];
            tensor<int32, [1]> out_9_axes_0 = const()[name = tensor<string, []>("out_9_axes_0"), val = tensor<int32, [1]>([1])];
            tensor<fp16, []> var_420_to_fp16 = const()[name = tensor<string, []>("op_420_to_fp16"), val = tensor<fp16, []>(0x1.5p-17)];
            tensor<fp16, [1, 1024, 1, 1500]> out_9_cast_fp16 = layer_norm(axes = out_9_axes_0, epsilon = var_420_to_fp16, x = inputs_9_cast_fp16)[name = tensor<string, []>("out_9_cast_fp16")];
            tensor<fp16, [1024]> obj_9_gamma_0_to_fp16 = const()[name = tensor<string, []>("obj_9_gamma_0_to_fp16"), val = tensor<fp16, [1024]>(BLOBFILE(path = tensor<string, []>("@model_path/weights/weight.bin"), offset = tensor<uint64, []>(60246400)))];
            tensor<fp16, [1024]> obj_9_beta_0_to_fp16 = const()[name = tensor<string, []>("obj_9_beta_0_to_fp16"), val = tensor<fp16, [1024]>(BLOBFILE(path = tensor<string, []>("@model_path/weights/weight.bin"), offset = tensor<uint64, []>(60248512)))];
            tensor<fp16, []> obj_9_epsilon_0_to_fp16 = const()[name = tensor<string, []>("obj_9_epsilon_0_to_fp16"), val = tensor<fp16, []>(0x1.5p-17)];
            tensor<fp16, [1, 1024, 1, 1500]> obj_9_cast_fp16 = batch_norm(beta = obj_9_beta_0_to_fp16, epsilon = obj_9_epsilon_0_to_fp16, gamma = obj_9_gamma_0_to_fp16, mean = obj_1_mean_0_to_fp16, variance = obj_1_variance_0_to_fp16, x = out_9_cast_fp16)[name = tensor<string, []>("obj_9_cast_fp16")];
            tensor<string, []> query_5_pad_type_0 = const()[name = tensor<string, []>("query_5_pad_type_0"), val = tensor<string, []>("valid")];
            tensor<int32, [2]> query_5_strides_0 = const()[name = tensor<string, []>("query_5_strides_0"), val = tensor<int32, [2]>([1, 1])];
            tensor<int32, [4]> query_5_pad_0 = const()[name = tensor<string, []>("query_5_pad_0"), val = tensor<int32, [4]>([0, 0, 0, 0])];
            tensor<int32, [2]> query_5_dilations_0 = const()[name = tensor<string, []>("query_5_dilations_0"), val = tensor<int32, [2]>([1, 1])];
            tensor<int32, []> query_5_groups_0 = const()[name = tensor<string, []>("query_5_groups_0"), val = tensor<int32, []>(1)];
            tensor<fp16, [1024, 1024, 1, 1]> layers_2_self_attn_q_proj_weight_to_fp16 = const()[name = tensor<string, []>("layers_2_self_attn_q_proj_weight_to_fp16"), val = tensor<fp16, [1024, 1024, 1, 1]>(BLOBFILE(path = tensor<string, []>("@model_path/weights/weight.bin"), offset = tensor<uint64, []>(60250624)))];
            tensor<fp16, [1024]> layers_2_self_attn_q_proj_bias_to_fp16 = const()[name = tensor<string, []>("layers_2_self_attn_q_proj_bias_to_fp16"), val = tensor<fp16, [1024]>(BLOBFILE(path = tensor<string, []>("@model_path/weights/weight.bin"), offset = tensor<uint64, []>(62347840)))];
            tensor<fp16, [1, 1024, 1, 1500]> query_5_cast_fp16 = conv(bias = layers_2_self_attn_q_proj_bias_to_fp16, dilations = query_5_dilations_0, groups = query_5_groups_0, pad = query_5_pad_0, pad_type = query_5_pad_type_0, strides = query_5_strides_0, weight = layers_2_self_attn_q_proj_weight_to_fp16, x = obj_9_cast_fp16)[name = tensor<string, []>("query_5_cast_fp16")];
            tensor<string, []> key_5_pad_type_0 = const()[name = tensor<string, []>("key_5_pad_type_0"), val = tensor<string, []>("valid")];
            tensor<int32, [2]> key_5_strides_0 = const()[name = tensor<string, []>("key_5_strides_0"), val = tensor<int32, [2]>([1, 1])];
            tensor<int32, [4]> key_5_pad_0 = const()[name = tensor<string, []>("key_5_pad_0"), val = tensor<int32, [4]>([0, 0, 0, 0])];
            tensor<int32, [2]> key_5_dilations_0 = const()[name = tensor<string, []>("key_5_dilations_0"), val = tensor<int32, [2]>([1, 1])];
            tensor<int32, []> key_5_groups_0 = const()[name = tensor<string, []>("key_5_groups_0"), val = tensor<int32, []>(1)];
            tensor<fp16, [1024, 1024, 1, 1]> layers_2_self_attn_k_proj_weight_to_fp16 = const()[name = tensor<string, []>("layers_2_self_attn_k_proj_weight_to_fp16"), val = tensor<fp16, [1024, 1024, 1, 1]>(BLOBFILE(path = tensor<string, []>("@model_path/weights/weight.bin"), offset = tensor<uint64, []>(62349952)))];
            tensor<fp16, [1, 1024, 1, 1500]> key_5_cast_fp16 = conv(dilations = key_5_dilations_0, groups = key_5_groups_0, pad = key_5_pad_0, pad_type = key_5_pad_type_0, strides = key_5_strides_0, weight = layers_2_self_attn_k_proj_weight_to_fp16, x = obj_9_cast_fp16)[name = tensor<string, []>("key_5_cast_fp16")];
            tensor<string, []> value_5_pad_type_0 = const()[name = tensor<string, []>("value_5_pad_type_0"), val = tensor<string, []>("valid")];
            tensor<int32, [2]> value_5_strides_0 = const()[name = tensor<string, []>("value_5_strides_0"), val = tensor<int32, [2]>([1, 1])];
            tensor<int32, [4]> value_5_pad_0 = const()[name = tensor<string, []>("value_5_pad_0"), val = tensor<int32, [4]>([0, 0, 0, 0])];
            tensor<int32, [2]> value_5_dilations_0 = const()[name = tensor<string, []>("value_5_dilations_0"), val = tensor<int32, [2]>([1, 1])];
            tensor<int32, []> value_5_groups_0 = const()[name = tensor<string, []>("value_5_groups_0"), val = tensor<int32, []>(1)];
            tensor<fp16, [1024, 1024, 1, 1]> layers_2_self_attn_v_proj_weight_to_fp16 = const()[name = tensor<string, []>("layers_2_self_attn_v_proj_weight_to_fp16"), val = tensor<fp16, [1024, 1024, 1, 1]>(BLOBFILE(path = tensor<string, []>("@model_path/weights/weight.bin"), offset = tensor<uint64, []>(64447168)))];
            tensor<fp16, [1024]> layers_2_self_attn_v_proj_bias_to_fp16 = const()[name = tensor<string, []>("layers_2_self_attn_v_proj_bias_to_fp16"), val = tensor<fp16, [1024]>(BLOBFILE(path = tensor<string, []>("@model_path/weights/weight.bin"), offset = tensor<uint64, []>(66544384)))];
            tensor<fp16, [1, 1024, 1, 1500]> value_5_cast_fp16 = conv(bias = layers_2_self_attn_v_proj_bias_to_fp16, dilations = value_5_dilations_0, groups = value_5_groups_0, pad = value_5_pad_0, pad_type = value_5_pad_type_0, strides = value_5_strides_0, weight = layers_2_self_attn_v_proj_weight_to_fp16, x = obj_9_cast_fp16)[name = tensor<string, []>("value_5_cast_fp16")];
            tensor<int32, [4]> var_456 = const()[name = tensor<string, []>("op_456"), val = tensor<int32, [4]>([1, 16, 64, 1500])];
            tensor<fp16, [1, 16, 64, 1500]> mh_q_5_cast_fp16 = reshape(shape = var_456, x = query_5_cast_fp16)[name = tensor<string, []>("mh_q_5_cast_fp16")];
            tensor<fp16, []> var_458_to_fp16 = const()[name = tensor<string, []>("op_458_to_fp16"), val = tensor<fp16, []>(0x1p-3)];
            tensor<fp16, [1, 16, 64, 1500]> var_459_cast_fp16 = mul(x = mh_q_5_cast_fp16, y = var_458_to_fp16)[name = tensor<string, []>("op_459_cast_fp16")];
            tensor<int32, [4]> var_462 = const()[name = tensor<string, []>("op_462"), val = tensor<int32, [4]>([1, 16, 64, 1500])];
            tensor<fp16, [1, 16, 64, 1500]> var_463_cast_fp16 = reshape(shape = var_462, x = key_5_cast_fp16)[name = tensor<string, []>("op_463_cast_fp16")];
            tensor<bool, []> mh_w_5_transpose_x_0 = const()[name = tensor<string, []>("mh_w_5_transpose_x_0"), val = tensor<bool, []>(true)];
            tensor<bool, []> mh_w_5_transpose_y_0 = const()[name = tensor<string, []>("mh_w_5_transpose_y_0"), val = tensor<bool, []>(false)];
            tensor<fp16, [1, 16, 1500, 1500]> mh_w_5_cast_fp16 = matmul(transpose_x = mh_w_5_transpose_x_0, transpose_y = mh_w_5_transpose_y_0, x = var_459_cast_fp16, y = var_463_cast_fp16)[name = tensor<string, []>("mh_w_5_cast_fp16")];
            tensor<fp16, [1, 16, 1500, 1500]> var_466_cast_fp16 = softmax(axis = var_398, x = mh_w_5_cast_fp16)[name = tensor<string, []>("op_466_cast_fp16")];
            tensor<int32, [4]> var_467 = const()[name = tensor<string, []>("op_467"), val = tensor<int32, [4]>([1, 16, 64, 1500])];
            tensor<fp16, [1, 16, 64, 1500]> var_468_cast_fp16 = reshape(shape = var_467, x = value_5_cast_fp16)[name = tensor<string, []>("op_468_cast_fp16")];
            tensor<bool, []> attn_5_transpose_x_0 = const()[name = tensor<string, []>("attn_5_transpose_x_0"), val = tensor<bool, []>(false)];
            tensor<bool, []> attn_5_transpose_y_0 = const()[name = tensor<string, []>("attn_5_transpose_y_0"), val = tensor<bool, []>(true)];
            tensor<fp16, [1, 16, 64, 1500]> attn_5_cast_fp16 = matmul(transpose_x = attn_5_transpose_x_0, transpose_y = attn_5_transpose_y_0, x = var_468_cast_fp16, y = var_466_cast_fp16)[name = tensor<string, []>("attn_5_cast_fp16")];
            tensor<int32, [4]> var_471 = const()[name = tensor<string, []>("op_471"), val = tensor<int32, [4]>([1, 1024, 1, 1500])];
            tensor<fp16, [1, 1024, 1, 1500]> input_17_cast_fp16 = reshape(shape = var_471, x = attn_5_cast_fp16)[name = tensor<string, []>("input_17_cast_fp16")];
            tensor<string, []> obj_11_pad_type_0 = const()[name = tensor<string, []>("obj_11_pad_type_0"), val = tensor<string, []>("valid")];
            tensor<int32, [2]> obj_11_strides_0 = const()[name = tensor<string, []>("obj_11_strides_0"), val = tensor<int32, [2]>([1, 1])];
            tensor<int32, [4]> obj_11_pad_0 = const()[name = tensor<string, []>("obj_11_pad_0"), val = tensor<int32, [4]>([0, 0, 0, 0])];
            tensor<int32, [2]> obj_11_dilations_0 = const()[name = tensor<string, []>("obj_11_dilations_0"), val = tensor<int32, [2]>([1, 1])];
            tensor<int32, []> obj_11_groups_0 = const()[name = tensor<string, []>("obj_11_groups_0"), val = tensor<int32, []>(1)];
            tensor<fp16, [1024, 1024, 1, 1]> layers_2_self_attn_o_proj_weight_to_fp16 = const()[name = tensor<string, []>("layers_2_self_attn_o_proj_weight_to_fp16"), val = tensor<fp16, [1024, 1024, 1, 1]>(BLOBFILE(path = tensor<string, []>("@model_path/weights/weight.bin"), offset = tensor<uint64, []>(66546496)))];
            tensor<fp16, [1024]> layers_2_self_attn_o_proj_bias_to_fp16 = const()[name = tensor<string, []>("layers_2_self_attn_o_proj_bias_to_fp16"), val = tensor<fp16, [1024]>(BLOBFILE(path = tensor<string, []>("@model_path/weights/weight.bin"), offset = tensor<uint64, []>(68643712)))];
            tensor<fp16, [1, 1024, 1, 1500]> obj_11_cast_fp16 = conv(bias = layers_2_self_attn_o_proj_bias_to_fp16, dilations = obj_11_dilations_0, groups = obj_11_groups_0, pad = obj_11_pad_0, pad_type = obj_11_pad_type_0, strides = obj_11_strides_0, weight = layers_2_self_attn_o_proj_weight_to_fp16, x = input_17_cast_fp16)[name = tensor<string, []>("obj_11_cast_fp16")];
            tensor<fp16, [1, 1024, 1, 1500]> inputs_11_cast_fp16 = add(x = inputs_9_cast_fp16, y = obj_11_cast_fp16)[name = tensor<string, []>("inputs_11_cast_fp16")];
            tensor<int32, [1]> out_11_axes_0 = const()[name = tensor<string, []>("out_11_axes_0"), val = tensor<int32, [1]>([1])];
            tensor<fp16, []> var_489_to_fp16 = const()[name = tensor<string, []>("op_489_to_fp16"), val = tensor<fp16, []>(0x1.5p-17)];
            tensor<fp16, [1, 1024, 1, 1500]> out_11_cast_fp16 = layer_norm(axes = out_11_axes_0, epsilon = var_489_to_fp16, x = inputs_11_cast_fp16)[name = tensor<string, []>("out_11_cast_fp16")];
            tensor<fp16, [1024]> input_19_gamma_0_to_fp16 = const()[name = tensor<string, []>("input_19_gamma_0_to_fp16"), val = tensor<fp16, [1024]>(BLOBFILE(path = tensor<string, []>("@model_path/weights/weight.bin"), offset = tensor<uint64, []>(68645824)))];
            tensor<fp16, [1024]> input_19_beta_0_to_fp16 = const()[name = tensor<string, []>("input_19_beta_0_to_fp16"), val = tensor<fp16, [1024]>(BLOBFILE(path = tensor<string, []>("@model_path/weights/weight.bin"), offset = tensor<uint64, []>(68647936)))];
            tensor<fp16, []> input_19_epsilon_0_to_fp16 = const()[name = tensor<string, []>("input_19_epsilon_0_to_fp16"), val = tensor<fp16, []>(0x1.5p-17)];
            tensor<fp16, [1, 1024, 1, 1500]> input_19_cast_fp16 = batch_norm(beta = input_19_beta_0_to_fp16, epsilon = input_19_epsilon_0_to_fp16, gamma = input_19_gamma_0_to_fp16, mean = obj_1_mean_0_to_fp16, variance = obj_1_variance_0_to_fp16, x = out_11_cast_fp16)[name = tensor<string, []>("input_19_cast_fp16")];
            tensor<string, []> input_21_pad_type_0 = const()[name = tensor<string, []>("input_21_pad_type_0"), val = tensor<string, []>("valid")];
            tensor<int32, [2]> input_21_strides_0 = const()[name = tensor<string, []>("input_21_strides_0"), val = tensor<int32, [2]>([1, 1])];
            tensor<int32, [4]> input_21_pad_0 = const()[name = tensor<string, []>("input_21_pad_0"), val = tensor<int32, [4]>([0, 0, 0, 0])];
            tensor<int32, [2]> input_21_dilations_0 = const()[name = tensor<string, []>("input_21_dilations_0"), val = tensor<int32, [2]>([1, 1])];
            tensor<int32, []> input_21_groups_0 = const()[name = tensor<string, []>("input_21_groups_0"), val = tensor<int32, []>(1)];
            tensor<fp16, [4096, 1024, 1, 1]> layers_2_fc1_weight_to_fp16 = const()[name = tensor<string, []>("layers_2_fc1_weight_to_fp16"), val = tensor<fp16, [4096, 1024, 1, 1]>(BLOBFILE(path = tensor<string, []>("@model_path/weights/weight.bin"), offset = tensor<uint64, []>(68650048)))];
            tensor<fp16, [4096]> layers_2_fc1_bias_to_fp16 = const()[name = tensor<string, []>("layers_2_fc1_bias_to_fp16"), val = tensor<fp16, [4096]>(BLOBFILE(path = tensor<string, []>("@model_path/weights/weight.bin"), offset = tensor<uint64, []>(77038720)))];
            tensor<fp16, [1, 4096, 1, 1500]> input_21_cast_fp16 = conv(bias = layers_2_fc1_bias_to_fp16, dilations = input_21_dilations_0, groups = input_21_groups_0, pad = input_21_pad_0, pad_type = input_21_pad_type_0, strides = input_21_strides_0, weight = layers_2_fc1_weight_to_fp16, x = input_19_cast_fp16)[name = tensor<string, []>("input_21_cast_fp16")];
            tensor<string, []> input_23_mode_0 = const()[name = tensor<string, []>("input_23_mode_0"), val = tensor<string, []>("EXACT")];
            tensor<fp16, [1, 4096, 1, 1500]> input_23_cast_fp16 = gelu(mode = input_23_mode_0, x = input_21_cast_fp16)[name = tensor<string, []>("input_23_cast_fp16")];
            tensor<string, []> hidden_states_9_pad_type_0 = const()[name = tensor<string, []>("hidden_states_9_pad_type_0"), val = tensor<string, []>("valid")];
            tensor<int32, [2]> hidden_states_9_strides_0 = const()[name = tensor<string, []>("hidden_states_9_strides_0"), val = tensor<int32, [2]>([1, 1])];
            tensor<int32, [4]> hidden_states_9_pad_0 = const()[name = tensor<string, []>("hidden_states_9_pad_0"), val = tensor<int32, [4]>([0, 0, 0, 0])];
            tensor<int32, [2]> hidden_states_9_dilations_0 = const()[name = tensor<string, []>("hidden_states_9_dilations_0"), val = tensor<int32, [2]>([1, 1])];
            tensor<int32, []> hidden_states_9_groups_0 = const()[name = tensor<string, []>("hidden_states_9_groups_0"), val = tensor<int32, []>(1)];
            tensor<fp16, [1024, 4096, 1, 1]> layers_2_fc2_weight_to_fp16 = const()[name = tensor<string, []>("layers_2_fc2_weight_to_fp16"), val = tensor<fp16, [1024, 4096, 1, 1]>(BLOBFILE(path = tensor<string, []>("@model_path/weights/weight.bin"), offset = tensor<uint64, []>(77046976)))];
            tensor<fp16, [1024]> layers_2_fc2_bias_to_fp16 = const()[name = tensor<string, []>("layers_2_fc2_bias_to_fp16"), val = tensor<fp16, [1024]>(BLOBFILE(path = tensor<string, []>("@model_path/weights/weight.bin"), offset = tensor<uint64, []>(85435648)))];
            tensor<fp16, [1, 1024, 1, 1500]> hidden_states_9_cast_fp16 = conv(bias = layers_2_fc2_bias_to_fp16, dilations = hidden_states_9_dilations_0, groups = hidden_states_9_groups_0, pad = hidden_states_9_pad_0, pad_type = hidden_states_9_pad_type_0, strides = hidden_states_9_strides_0, weight = layers_2_fc2_weight_to_fp16, x = input_23_cast_fp16)[name = tensor<string, []>("hidden_states_9_cast_fp16")];
            tensor<fp16, [1, 1024, 1, 1500]> inputs_13_cast_fp16 = add(x = inputs_11_cast_fp16, y = hidden_states_9_cast_fp16)[name = tensor<string, []>("inputs_13_cast_fp16")];
            tensor<int32, []> var_518 = const()[name = tensor<string, []>("op_518"), val = tensor<int32, []>(3)];
            tensor<int32, [1]> out_13_axes_0 = const()[name = tensor<string, []>("out_13_axes_0"), val = tensor<int32, [1]>([1])];
            tensor<fp16, []> var_540_to_fp16 = const()[name = tensor<string, []>("op_540_to_fp16"), val = tensor<fp16, []>(0x1.5p-17)];
            tensor<fp16, [1, 1024, 1, 1500]> out_13_cast_fp16 = layer_norm(axes = out_13_axes_0, epsilon = var_540_to_fp16, x = inputs_13_cast_fp16)[name = tensor<string, []>("out_13_cast_fp16")];
            tensor<fp16, [1024]> obj_13_gamma_0_to_fp16 = const()[name = tensor<string, []>("obj_13_gamma_0_to_fp16"), val = tensor<fp16, [1024]>(BLOBFILE(path = tensor<string, []>("@model_path/weights/weight.bin"), offset = tensor<uint64, []>(85437760)))];
            tensor<fp16, [1024]> obj_13_beta_0_to_fp16 = const()[name = tensor<string, []>("obj_13_beta_0_to_fp16"), val = tensor<fp16, [1024]>(BLOBFILE(path = tensor<string, []>("@model_path/weights/weight.bin"), offset = tensor<uint64, []>(85439872)))];
            tensor<fp16, []> obj_13_epsilon_0_to_fp16 = const()[name = tensor<string, []>("obj_13_epsilon_0_to_fp16"), val = tensor<fp16, []>(0x1.5p-17)];
            tensor<fp16, [1, 1024, 1, 1500]> obj_13_cast_fp16 = batch_norm(beta = obj_13_beta_0_to_fp16, epsilon = obj_13_epsilon_0_to_fp16, gamma = obj_13_gamma_0_to_fp16, mean = obj_1_mean_0_to_fp16, variance = obj_1_variance_0_to_fp16, x = out_13_cast_fp16)[name = tensor<string, []>("obj_13_cast_fp16")];
            tensor<string, []> query_7_pad_type_0 = const()[name = tensor<string, []>("query_7_pad_type_0"), val = tensor<string, []>("valid")];
            tensor<int32, [2]> query_7_strides_0 = const()[name = tensor<string, []>("query_7_strides_0"), val = tensor<int32, [2]>([1, 1])];
            tensor<int32, [4]> query_7_pad_0 = const()[name = tensor<string, []>("query_7_pad_0"), val = tensor<int32, [4]>([0, 0, 0, 0])];
            tensor<int32, [2]> query_7_dilations_0 = const()[name = tensor<string, []>("query_7_dilations_0"), val = tensor<int32, [2]>([1, 1])];
            tensor<int32, []> query_7_groups_0 = const()[name = tensor<string, []>("query_7_groups_0"), val = tensor<int32, []>(1)];
            tensor<fp16, [1024, 1024, 1, 1]> layers_3_self_attn_q_proj_weight_to_fp16 = const()[name = tensor<string, []>("layers_3_self_attn_q_proj_weight_to_fp16"), val = tensor<fp16, [1024, 1024, 1, 1]>(BLOBFILE(path = tensor<string, []>("@model_path/weights/weight.bin"), offset = tensor<uint64, []>(85441984)))];
            tensor<fp16, [1024]> layers_3_self_attn_q_proj_bias_to_fp16 = const()[name = tensor<string, []>("layers_3_self_attn_q_proj_bias_to_fp16"), val = tensor<fp16, [1024]>(BLOBFILE(path = tensor<string, []>("@model_path/weights/weight.bin"), offset = tensor<uint64, []>(87539200)))];
            tensor<fp16, [1, 1024, 1, 1500]> query_7_cast_fp16 = conv(bias = layers_3_self_attn_q_proj_bias_to_fp16, dilations = query_7_dilations_0, groups = query_7_groups_0, pad = query_7_pad_0, pad_type = query_7_pad_type_0, strides = query_7_strides_0, weight = layers_3_self_attn_q_proj_weight_to_fp16, x = obj_13_cast_fp16)[name = tensor<string, []>("query_7_cast_fp16")];
            tensor<string, []> key_7_pad_type_0 = const()[name = tensor<string, []>("key_7_pad_type_0"), val = tensor<string, []>("valid")];
            tensor<int32, [2]> key_7_strides_0 = const()[name = tensor<string, []>("key_7_strides_0"), val = tensor<int32, [2]>([1, 1])];
            tensor<int32, [4]> key_7_pad_0 = const()[name = tensor<string, []>("key_7_pad_0"), val = tensor<int32, [4]>([0, 0, 0, 0])];
            tensor<int32, [2]> key_7_dilations_0 = const()[name = tensor<string, []>("key_7_dilations_0"), val = tensor<int32, [2]>([1, 1])];
            tensor<int32, []> key_7_groups_0 = const()[name = tensor<string, []>("key_7_groups_0"), val = tensor<int32, []>(1)];
            tensor<fp16, [1024, 1024, 1, 1]> layers_3_self_attn_k_proj_weight_to_fp16 = const()[name = tensor<string, []>("layers_3_self_attn_k_proj_weight_to_fp16"), val = tensor<fp16, [1024, 1024, 1, 1]>(BLOBFILE(path = tensor<string, []>("@model_path/weights/weight.bin"), offset = tensor<uint64, []>(87541312)))];
            tensor<fp16, [1, 1024, 1, 1500]> key_7_cast_fp16 = conv(dilations = key_7_dilations_0, groups = key_7_groups_0, pad = key_7_pad_0, pad_type = key_7_pad_type_0, strides = key_7_strides_0, weight = layers_3_self_attn_k_proj_weight_to_fp16, x = obj_13_cast_fp16)[name = tensor<string, []>("key_7_cast_fp16")];
            tensor<string, []> value_7_pad_type_0 = const()[name = tensor<string, []>("value_7_pad_type_0"), val = tensor<string, []>("valid")];
            tensor<int32, [2]> value_7_strides_0 = const()[name = tensor<string, []>("value_7_strides_0"), val = tensor<int32, [2]>([1, 1])];
            tensor<int32, [4]> value_7_pad_0 = const()[name = tensor<string, []>("value_7_pad_0"), val = tensor<int32, [4]>([0, 0, 0, 0])];
            tensor<int32, [2]> value_7_dilations_0 = const()[name = tensor<string, []>("value_7_dilations_0"), val = tensor<int32, [2]>([1, 1])];
            tensor<int32, []> value_7_groups_0 = const()[name = tensor<string, []>("value_7_groups_0"), val = tensor<int32, []>(1)];
            tensor<fp16, [1024, 1024, 1, 1]> layers_3_self_attn_v_proj_weight_to_fp16 = const()[name = tensor<string, []>("layers_3_self_attn_v_proj_weight_to_fp16"), val = tensor<fp16, [1024, 1024, 1, 1]>(BLOBFILE(path = tensor<string, []>("@model_path/weights/weight.bin"), offset = tensor<uint64, []>(89638528)))];
            tensor<fp16, [1024]> layers_3_self_attn_v_proj_bias_to_fp16 = const()[name = tensor<string, []>("layers_3_self_attn_v_proj_bias_to_fp16"), val = tensor<fp16, [1024]>(BLOBFILE(path = tensor<string, []>("@model_path/weights/weight.bin"), offset = tensor<uint64, []>(91735744)))];
            tensor<fp16, [1, 1024, 1, 1500]> value_7_cast_fp16 = conv(bias = layers_3_self_attn_v_proj_bias_to_fp16, dilations = value_7_dilations_0, groups = value_7_groups_0, pad = value_7_pad_0, pad_type = value_7_pad_type_0, strides = value_7_strides_0, weight = layers_3_self_attn_v_proj_weight_to_fp16, x = obj_13_cast_fp16)[name = tensor<string, []>("value_7_cast_fp16")];
            tensor<int32, [4]> var_576 = const()[name = tensor<string, []>("op_576"), val = tensor<int32, [4]>([1, 16, 64, 1500])];
            tensor<fp16, [1, 16, 64, 1500]> mh_q_7_cast_fp16 = reshape(shape = var_576, x = query_7_cast_fp16)[name = tensor<string, []>("mh_q_7_cast_fp16")];
            tensor<fp16, []> var_578_to_fp16 = const()[name = tensor<string, []>("op_578_to_fp16"), val = tensor<fp16, []>(0x1p-3)];
            tensor<fp16, [1, 16, 64, 1500]> var_579_cast_fp16 = mul(x = mh_q_7_cast_fp16, y = var_578_to_fp16)[name = tensor<string, []>("op_579_cast_fp16")];
            tensor<int32, [4]> var_582 = const()[name = tensor<string, []>("op_582"), val = tensor<int32, [4]>([1, 16, 64, 1500])];
            tensor<fp16, [1, 16, 64, 1500]> var_583_cast_fp16 = reshape(shape = var_582, x = key_7_cast_fp16)[name = tensor<string, []>("op_583_cast_fp16")];
            tensor<bool, []> mh_w_7_transpose_x_0 = const()[name = tensor<string, []>("mh_w_7_transpose_x_0"), val = tensor<bool, []>(true)];
            tensor<bool, []> mh_w_7_transpose_y_0 = const()[name = tensor<string, []>("mh_w_7_transpose_y_0"), val = tensor<bool, []>(false)];
            tensor<fp16, [1, 16, 1500, 1500]> mh_w_7_cast_fp16 = matmul(transpose_x = mh_w_7_transpose_x_0, transpose_y = mh_w_7_transpose_y_0, x = var_579_cast_fp16, y = var_583_cast_fp16)[name = tensor<string, []>("mh_w_7_cast_fp16")];
            tensor<fp16, [1, 16, 1500, 1500]> var_586_cast_fp16 = softmax(axis = var_518, x = mh_w_7_cast_fp16)[name = tensor<string, []>("op_586_cast_fp16")];
            tensor<int32, [4]> var_587 = const()[name = tensor<string, []>("op_587"), val = tensor<int32, [4]>([1, 16, 64, 1500])];
            tensor<fp16, [1, 16, 64, 1500]> var_588_cast_fp16 = reshape(shape = var_587, x = value_7_cast_fp16)[name = tensor<string, []>("op_588_cast_fp16")];
            tensor<bool, []> attn_7_transpose_x_0 = const()[name = tensor<string, []>("attn_7_transpose_x_0"), val = tensor<bool, []>(false)];
            tensor<bool, []> attn_7_transpose_y_0 = const()[name = tensor<string, []>("attn_7_transpose_y_0"), val = tensor<bool, []>(true)];
            tensor<fp16, [1, 16, 64, 1500]> attn_7_cast_fp16 = matmul(transpose_x = attn_7_transpose_x_0, transpose_y = attn_7_transpose_y_0, x = var_588_cast_fp16, y = var_586_cast_fp16)[name = tensor<string, []>("attn_7_cast_fp16")];
            tensor<int32, [4]> var_591 = const()[name = tensor<string, []>("op_591"), val = tensor<int32, [4]>([1, 1024, 1, 1500])];
            tensor<fp16, [1, 1024, 1, 1500]> input_25_cast_fp16 = reshape(shape = var_591, x = attn_7_cast_fp16)[name = tensor<string, []>("input_25_cast_fp16")];
            tensor<string, []> obj_15_pad_type_0 = const()[name = tensor<string, []>("obj_15_pad_type_0"), val = tensor<string, []>("valid")];
            tensor<int32, [2]> obj_15_strides_0 = const()[name = tensor<string, []>("obj_15_strides_0"), val = tensor<int32, [2]>([1, 1])];
            tensor<int32, [4]> obj_15_pad_0 = const()[name = tensor<string, []>("obj_15_pad_0"), val = tensor<int32, [4]>([0, 0, 0, 0])];
            tensor<int32, [2]> obj_15_dilations_0 = const()[name = tensor<string, []>("obj_15_dilations_0"), val = tensor<int32, [2]>([1, 1])];
            tensor<int32, []> obj_15_groups_0 = const()[name = tensor<string, []>("obj_15_groups_0"), val = tensor<int32, []>(1)];
            tensor<fp16, [1024, 1024, 1, 1]> layers_3_self_attn_o_proj_weight_to_fp16 = const()[name = tensor<string, []>("layers_3_self_attn_o_proj_weight_to_fp16"), val = tensor<fp16, [1024, 1024, 1, 1]>(BLOBFILE(path = tensor<string, []>("@model_path/weights/weight.bin"), offset = tensor<uint64, []>(91737856)))];
            tensor<fp16, [1024]> layers_3_self_attn_o_proj_bias_to_fp16 = const()[name = tensor<string, []>("layers_3_self_attn_o_proj_bias_to_fp16"), val = tensor<fp16, [1024]>(BLOBFILE(path = tensor<string, []>("@model_path/weights/weight.bin"), offset = tensor<uint64, []>(93835072)))];
            tensor<fp16, [1, 1024, 1, 1500]> obj_15_cast_fp16 = conv(bias = layers_3_self_attn_o_proj_bias_to_fp16, dilations = obj_15_dilations_0, groups = obj_15_groups_0, pad = obj_15_pad_0, pad_type = obj_15_pad_type_0, strides = obj_15_strides_0, weight = layers_3_self_attn_o_proj_weight_to_fp16, x = input_25_cast_fp16)[name = tensor<string, []>("obj_15_cast_fp16")];
            tensor<fp16, [1, 1024, 1, 1500]> inputs_15_cast_fp16 = add(x = inputs_13_cast_fp16, y = obj_15_cast_fp16)[name = tensor<string, []>("inputs_15_cast_fp16")];
            tensor<int32, [1]> out_15_axes_0 = const()[name = tensor<string, []>("out_15_axes_0"), val = tensor<int32, [1]>([1])];
            tensor<fp16, []> var_609_to_fp16 = const()[name = tensor<string, []>("op_609_to_fp16"), val = tensor<fp16, []>(0x1.5p-17)];
            tensor<fp16, [1, 1024, 1, 1500]> out_15_cast_fp16 = layer_norm(axes = out_15_axes_0, epsilon = var_609_to_fp16, x = inputs_15_cast_fp16)[name = tensor<string, []>("out_15_cast_fp16")];
            tensor<fp16, [1024]> input_27_gamma_0_to_fp16 = const()[name = tensor<string, []>("input_27_gamma_0_to_fp16"), val = tensor<fp16, [1024]>(BLOBFILE(path = tensor<string, []>("@model_path/weights/weight.bin"), offset = tensor<uint64, []>(93837184)))];
            tensor<fp16, [1024]> input_27_beta_0_to_fp16 = const()[name = tensor<string, []>("input_27_beta_0_to_fp16"), val = tensor<fp16, [1024]>(BLOBFILE(path = tensor<string, []>("@model_path/weights/weight.bin"), offset = tensor<uint64, []>(93839296)))];
            tensor<fp16, []> input_27_epsilon_0_to_fp16 = const()[name = tensor<string, []>("input_27_epsilon_0_to_fp16"), val = tensor<fp16, []>(0x1.5p-17)];
            tensor<fp16, [1, 1024, 1, 1500]> input_27_cast_fp16 = batch_norm(beta = input_27_beta_0_to_fp16, epsilon = input_27_epsilon_0_to_fp16, gamma = input_27_gamma_0_to_fp16, mean = obj_1_mean_0_to_fp16, variance = obj_1_variance_0_to_fp16, x = out_15_cast_fp16)[name = tensor<string, []>("input_27_cast_fp16")];
            tensor<string, []> input_29_pad_type_0 = const()[name = tensor<string, []>("input_29_pad_type_0"), val = tensor<string, []>("valid")];
            tensor<int32, [2]> input_29_strides_0 = const()[name = tensor<string, []>("input_29_strides_0"), val = tensor<int32, [2]>([1, 1])];
            tensor<int32, [4]> input_29_pad_0 = const()[name = tensor<string, []>("input_29_pad_0"), val = tensor<int32, [4]>([0, 0, 0, 0])];
            tensor<int32, [2]> input_29_dilations_0 = const()[name = tensor<string, []>("input_29_dilations_0"), val = tensor<int32, [2]>([1, 1])];
            tensor<int32, []> input_29_groups_0 = const()[name = tensor<string, []>("input_29_groups_0"), val = tensor<int32, []>(1)];
            tensor<fp16, [4096, 1024, 1, 1]> layers_3_fc1_weight_to_fp16 = const()[name = tensor<string, []>("layers_3_fc1_weight_to_fp16"), val = tensor<fp16, [4096, 1024, 1, 1]>(BLOBFILE(path = tensor<string, []>("@model_path/weights/weight.bin"), offset = tensor<uint64, []>(93841408)))];
            tensor<fp16, [4096]> layers_3_fc1_bias_to_fp16 = const()[name = tensor<string, []>("layers_3_fc1_bias_to_fp16"), val = tensor<fp16, [4096]>(BLOBFILE(path = tensor<string, []>("@model_path/weights/weight.bin"), offset = tensor<uint64, []>(102230080)))];
            tensor<fp16, [1, 4096, 1, 1500]> input_29_cast_fp16 = conv(bias = layers_3_fc1_bias_to_fp16, dilations = input_29_dilations_0, groups = input_29_groups_0, pad = input_29_pad_0, pad_type = input_29_pad_type_0, strides = input_29_strides_0, weight = layers_3_fc1_weight_to_fp16, x = input_27_cast_fp16)[name = tensor<string, []>("input_29_cast_fp16")];
            tensor<string, []> input_31_mode_0 = const()[name = tensor<string, []>("input_31_mode_0"), val = tensor<string, []>("EXACT")];
            tensor<fp16, [1, 4096, 1, 1500]> input_31_cast_fp16 = gelu(mode = input_31_mode_0, x = input_29_cast_fp16)[name = tensor<string, []>("input_31_cast_fp16")];
            tensor<string, []> hidden_states_11_pad_type_0 = const()[name = tensor<string, []>("hidden_states_11_pad_type_0"), val = tensor<string, []>("valid")];
            tensor<int32, [2]> hidden_states_11_strides_0 = const()[name = tensor<string, []>("hidden_states_11_strides_0"), val = tensor<int32, [2]>([1, 1])];
            tensor<int32, [4]> hidden_states_11_pad_0 = const()[name = tensor<string, []>("hidden_states_11_pad_0"), val = tensor<int32, [4]>([0, 0, 0, 0])];
            tensor<int32, [2]> hidden_states_11_dilations_0 = const()[name = tensor<string, []>("hidden_states_11_dilations_0"), val = tensor<int32, [2]>([1, 1])];
            tensor<int32, []> hidden_states_11_groups_0 = const()[name = tensor<string, []>("hidden_states_11_groups_0"), val = tensor<int32, []>(1)];
            tensor<fp16, [1024, 4096, 1, 1]> layers_3_fc2_weight_to_fp16 = const()[name = tensor<string, []>("layers_3_fc2_weight_to_fp16"), val = tensor<fp16, [1024, 4096, 1, 1]>(BLOBFILE(path = tensor<string, []>("@model_path/weights/weight.bin"), offset = tensor<uint64, []>(102238336)))];
            tensor<fp16, [1024]> layers_3_fc2_bias_to_fp16 = const()[name = tensor<string, []>("layers_3_fc2_bias_to_fp16"), val = tensor<fp16, [1024]>(BLOBFILE(path = tensor<string, []>("@model_path/weights/weight.bin"), offset = tensor<uint64, []>(110627008)))];
            tensor<fp16, [1, 1024, 1, 1500]> hidden_states_11_cast_fp16 = conv(bias = layers_3_fc2_bias_to_fp16, dilations = hidden_states_11_dilations_0, groups = hidden_states_11_groups_0, pad = hidden_states_11_pad_0, pad_type = hidden_states_11_pad_type_0, strides = hidden_states_11_strides_0, weight = layers_3_fc2_weight_to_fp16, x = input_31_cast_fp16)[name = tensor<string, []>("hidden_states_11_cast_fp16")];
            tensor<fp16, [1, 1024, 1, 1500]> inputs_17_cast_fp16 = add(x = inputs_15_cast_fp16, y = hidden_states_11_cast_fp16)[name = tensor<string, []>("inputs_17_cast_fp16")];
            tensor<int32, []> var_638 = const()[name = tensor<string, []>("op_638"), val = tensor<int32, []>(3)];
            tensor<int32, [1]> out_17_axes_0 = const()[name = tensor<string, []>("out_17_axes_0"), val = tensor<int32, [1]>([1])];
            tensor<fp16, []> var_660_to_fp16 = const()[name = tensor<string, []>("op_660_to_fp16"), val = tensor<fp16, []>(0x1.5p-17)];
            tensor<fp16, [1, 1024, 1, 1500]> out_17_cast_fp16 = layer_norm(axes = out_17_axes_0, epsilon = var_660_to_fp16, x = inputs_17_cast_fp16)[name = tensor<string, []>("out_17_cast_fp16")];
            tensor<fp16, [1024]> obj_17_gamma_0_to_fp16 = const()[name = tensor<string, []>("obj_17_gamma_0_to_fp16"), val = tensor<fp16, [1024]>(BLOBFILE(path = tensor<string, []>("@model_path/weights/weight.bin"), offset = tensor<uint64, []>(110629120)))];
            tensor<fp16, [1024]> obj_17_beta_0_to_fp16 = const()[name = tensor<string, []>("obj_17_beta_0_to_fp16"), val = tensor<fp16, [1024]>(BLOBFILE(path = tensor<string, []>("@model_path/weights/weight.bin"), offset = tensor<uint64, []>(110631232)))];
            tensor<fp16, []> obj_17_epsilon_0_to_fp16 = const()[name = tensor<string, []>("obj_17_epsilon_0_to_fp16"), val = tensor<fp16, []>(0x1.5p-17)];
            tensor<fp16, [1, 1024, 1, 1500]> obj_17_cast_fp16 = batch_norm(beta = obj_17_beta_0_to_fp16, epsilon = obj_17_epsilon_0_to_fp16, gamma = obj_17_gamma_0_to_fp16, mean = obj_1_mean_0_to_fp16, variance = obj_1_variance_0_to_fp16, x = out_17_cast_fp16)[name = tensor<string, []>("obj_17_cast_fp16")];
            tensor<string, []> query_9_pad_type_0 = const()[name = tensor<string, []>("query_9_pad_type_0"), val = tensor<string, []>("valid")];
            tensor<int32, [2]> query_9_strides_0 = const()[name = tensor<string, []>("query_9_strides_0"), val = tensor<int32, [2]>([1, 1])];
            tensor<int32, [4]> query_9_pad_0 = const()[name = tensor<string, []>("query_9_pad_0"), val = tensor<int32, [4]>([0, 0, 0, 0])];
            tensor<int32, [2]> query_9_dilations_0 = const()[name = tensor<string, []>("query_9_dilations_0"), val = tensor<int32, [2]>([1, 1])];
            tensor<int32, []> query_9_groups_0 = const()[name = tensor<string, []>("query_9_groups_0"), val = tensor<int32, []>(1)];
            tensor<fp16, [1024, 1024, 1, 1]> layers_4_self_attn_q_proj_weight_to_fp16 = const()[name = tensor<string, []>("layers_4_self_attn_q_proj_weight_to_fp16"), val = tensor<fp16, [1024, 1024, 1, 1]>(BLOBFILE(path = tensor<string, []>("@model_path/weights/weight.bin"), offset = tensor<uint64, []>(110633344)))];
            tensor<fp16, [1024]> layers_4_self_attn_q_proj_bias_to_fp16 = const()[name = tensor<string, []>("layers_4_self_attn_q_proj_bias_to_fp16"), val = tensor<fp16, [1024]>(BLOBFILE(path = tensor<string, []>("@model_path/weights/weight.bin"), offset = tensor<uint64, []>(112730560)))];
            tensor<fp16, [1, 1024, 1, 1500]> query_9_cast_fp16 = conv(bias = layers_4_self_attn_q_proj_bias_to_fp16, dilations = query_9_dilations_0, groups = query_9_groups_0, pad = query_9_pad_0, pad_type = query_9_pad_type_0, strides = query_9_strides_0, weight = layers_4_self_attn_q_proj_weight_to_fp16, x = obj_17_cast_fp16)[name = tensor<string, []>("query_9_cast_fp16")];
            tensor<string, []> key_9_pad_type_0 = const()[name = tensor<string, []>("key_9_pad_type_0"), val = tensor<string, []>("valid")];
            tensor<int32, [2]> key_9_strides_0 = const()[name = tensor<string, []>("key_9_strides_0"), val = tensor<int32, [2]>([1, 1])];
            tensor<int32, [4]> key_9_pad_0 = const()[name = tensor<string, []>("key_9_pad_0"), val = tensor<int32, [4]>([0, 0, 0, 0])];
            tensor<int32, [2]> key_9_dilations_0 = const()[name = tensor<string, []>("key_9_dilations_0"), val = tensor<int32, [2]>([1, 1])];
            tensor<int32, []> key_9_groups_0 = const()[name = tensor<string, []>("key_9_groups_0"), val = tensor<int32, []>(1)];
            tensor<fp16, [1024, 1024, 1, 1]> layers_4_self_attn_k_proj_weight_to_fp16 = const()[name = tensor<string, []>("layers_4_self_attn_k_proj_weight_to_fp16"), val = tensor<fp16, [1024, 1024, 1, 1]>(BLOBFILE(path = tensor<string, []>("@model_path/weights/weight.bin"), offset = tensor<uint64, []>(112732672)))];
            tensor<fp16, [1, 1024, 1, 1500]> key_9_cast_fp16 = conv(dilations = key_9_dilations_0, groups = key_9_groups_0, pad = key_9_pad_0, pad_type = key_9_pad_type_0, strides = key_9_strides_0, weight = layers_4_self_attn_k_proj_weight_to_fp16, x = obj_17_cast_fp16)[name = tensor<string, []>("key_9_cast_fp16")];
            tensor<string, []> value_9_pad_type_0 = const()[name = tensor<string, []>("value_9_pad_type_0"), val = tensor<string, []>("valid")];
            tensor<int32, [2]> value_9_strides_0 = const()[name = tensor<string, []>("value_9_strides_0"), val = tensor<int32, [2]>([1, 1])];
            tensor<int32, [4]> value_9_pad_0 = const()[name = tensor<string, []>("value_9_pad_0"), val = tensor<int32, [4]>([0, 0, 0, 0])];
            tensor<int32, [2]> value_9_dilations_0 = const()[name = tensor<string, []>("value_9_dilations_0"), val = tensor<int32, [2]>([1, 1])];
            tensor<int32, []> value_9_groups_0 = const()[name = tensor<string, []>("value_9_groups_0"), val = tensor<int32, []>(1)];
            tensor<fp16, [1024, 1024, 1, 1]> layers_4_self_attn_v_proj_weight_to_fp16 = const()[name = tensor<string, []>("layers_4_self_attn_v_proj_weight_to_fp16"), val = tensor<fp16, [1024, 1024, 1, 1]>(BLOBFILE(path = tensor<string, []>("@model_path/weights/weight.bin"), offset = tensor<uint64, []>(114829888)))];
            tensor<fp16, [1024]> layers_4_self_attn_v_proj_bias_to_fp16 = const()[name = tensor<string, []>("layers_4_self_attn_v_proj_bias_to_fp16"), val = tensor<fp16, [1024]>(BLOBFILE(path = tensor<string, []>("@model_path/weights/weight.bin"), offset = tensor<uint64, []>(116927104)))];
            tensor<fp16, [1, 1024, 1, 1500]> value_9_cast_fp16 = conv(bias = layers_4_self_attn_v_proj_bias_to_fp16, dilations = value_9_dilations_0, groups = value_9_groups_0, pad = value_9_pad_0, pad_type = value_9_pad_type_0, strides = value_9_strides_0, weight = layers_4_self_attn_v_proj_weight_to_fp16, x = obj_17_cast_fp16)[name = tensor<string, []>("value_9_cast_fp16")];
            tensor<int32, [4]> var_696 = const()[name = tensor<string, []>("op_696"), val = tensor<int32, [4]>([1, 16, 64, 1500])];
            tensor<fp16, [1, 16, 64, 1500]> mh_q_9_cast_fp16 = reshape(shape = var_696, x = query_9_cast_fp16)[name = tensor<string, []>("mh_q_9_cast_fp16")];
            tensor<fp16, []> var_698_to_fp16 = const()[name = tensor<string, []>("op_698_to_fp16"), val = tensor<fp16, []>(0x1p-3)];
            tensor<fp16, [1, 16, 64, 1500]> var_699_cast_fp16 = mul(x = mh_q_9_cast_fp16, y = var_698_to_fp16)[name = tensor<string, []>("op_699_cast_fp16")];
            tensor<int32, [4]> var_702 = const()[name = tensor<string, []>("op_702"), val = tensor<int32, [4]>([1, 16, 64, 1500])];
            tensor<fp16, [1, 16, 64, 1500]> var_703_cast_fp16 = reshape(shape = var_702, x = key_9_cast_fp16)[name = tensor<string, []>("op_703_cast_fp16")];
            tensor<bool, []> mh_w_9_transpose_x_0 = const()[name = tensor<string, []>("mh_w_9_transpose_x_0"), val = tensor<bool, []>(true)];
            tensor<bool, []> mh_w_9_transpose_y_0 = const()[name = tensor<string, []>("mh_w_9_transpose_y_0"), val = tensor<bool, []>(false)];
            tensor<fp16, [1, 16, 1500, 1500]> mh_w_9_cast_fp16 = matmul(transpose_x = mh_w_9_transpose_x_0, transpose_y = mh_w_9_transpose_y_0, x = var_699_cast_fp16, y = var_703_cast_fp16)[name = tensor<string, []>("mh_w_9_cast_fp16")];
            tensor<fp16, [1, 16, 1500, 1500]> var_706_cast_fp16 = softmax(axis = var_638, x = mh_w_9_cast_fp16)[name = tensor<string, []>("op_706_cast_fp16")];
            tensor<int32, [4]> var_707 = const()[name = tensor<string, []>("op_707"), val = tensor<int32, [4]>([1, 16, 64, 1500])];
            tensor<fp16, [1, 16, 64, 1500]> var_708_cast_fp16 = reshape(shape = var_707, x = value_9_cast_fp16)[name = tensor<string, []>("op_708_cast_fp16")];
            tensor<bool, []> attn_9_transpose_x_0 = const()[name = tensor<string, []>("attn_9_transpose_x_0"), val = tensor<bool, []>(false)];
            tensor<bool, []> attn_9_transpose_y_0 = const()[name = tensor<string, []>("attn_9_transpose_y_0"), val = tensor<bool, []>(true)];
            tensor<fp16, [1, 16, 64, 1500]> attn_9_cast_fp16 = matmul(transpose_x = attn_9_transpose_x_0, transpose_y = attn_9_transpose_y_0, x = var_708_cast_fp16, y = var_706_cast_fp16)[name = tensor<string, []>("attn_9_cast_fp16")];
            tensor<int32, [4]> var_711 = const()[name = tensor<string, []>("op_711"), val = tensor<int32, [4]>([1, 1024, 1, 1500])];
            tensor<fp16, [1, 1024, 1, 1500]> input_33_cast_fp16 = reshape(shape = var_711, x = attn_9_cast_fp16)[name = tensor<string, []>("input_33_cast_fp16")];
            tensor<string, []> obj_19_pad_type_0 = const()[name = tensor<string, []>("obj_19_pad_type_0"), val = tensor<string, []>("valid")];
            tensor<int32, [2]> obj_19_strides_0 = const()[name = tensor<string, []>("obj_19_strides_0"), val = tensor<int32, [2]>([1, 1])];
            tensor<int32, [4]> obj_19_pad_0 = const()[name = tensor<string, []>("obj_19_pad_0"), val = tensor<int32, [4]>([0, 0, 0, 0])];
            tensor<int32, [2]> obj_19_dilations_0 = const()[name = tensor<string, []>("obj_19_dilations_0"), val = tensor<int32, [2]>([1, 1])];
            tensor<int32, []> obj_19_groups_0 = const()[name = tensor<string, []>("obj_19_groups_0"), val = tensor<int32, []>(1)];
            tensor<fp16, [1024, 1024, 1, 1]> layers_4_self_attn_o_proj_weight_to_fp16 = const()[name = tensor<string, []>("layers_4_self_attn_o_proj_weight_to_fp16"), val = tensor<fp16, [1024, 1024, 1, 1]>(BLOBFILE(path = tensor<string, []>("@model_path/weights/weight.bin"), offset = tensor<uint64, []>(116929216)))];
            tensor<fp16, [1024]> layers_4_self_attn_o_proj_bias_to_fp16 = const()[name = tensor<string, []>("layers_4_self_attn_o_proj_bias_to_fp16"), val = tensor<fp16, [1024]>(BLOBFILE(path = tensor<string, []>("@model_path/weights/weight.bin"), offset = tensor<uint64, []>(119026432)))];
            tensor<fp16, [1, 1024, 1, 1500]> obj_19_cast_fp16 = conv(bias = layers_4_self_attn_o_proj_bias_to_fp16, dilations = obj_19_dilations_0, groups = obj_19_groups_0, pad = obj_19_pad_0, pad_type = obj_19_pad_type_0, strides = obj_19_strides_0, weight = layers_4_self_attn_o_proj_weight_to_fp16, x = input_33_cast_fp16)[name = tensor<string, []>("obj_19_cast_fp16")];
            tensor<fp16, [1, 1024, 1, 1500]> inputs_19_cast_fp16 = add(x = inputs_17_cast_fp16, y = obj_19_cast_fp16)[name = tensor<string, []>("inputs_19_cast_fp16")];
            tensor<int32, [1]> out_19_axes_0 = const()[name = tensor<string, []>("out_19_axes_0"), val = tensor<int32, [1]>([1])];
            tensor<fp16, []> var_729_to_fp16 = const()[name = tensor<string, []>("op_729_to_fp16"), val = tensor<fp16, []>(0x1.5p-17)];
            tensor<fp16, [1, 1024, 1, 1500]> out_19_cast_fp16 = layer_norm(axes = out_19_axes_0, epsilon = var_729_to_fp16, x = inputs_19_cast_fp16)[name = tensor<string, []>("out_19_cast_fp16")];
            tensor<fp16, [1024]> input_35_gamma_0_to_fp16 = const()[name = tensor<string, []>("input_35_gamma_0_to_fp16"), val = tensor<fp16, [1024]>(BLOBFILE(path = tensor<string, []>("@model_path/weights/weight.bin"), offset = tensor<uint64, []>(119028544)))];
            tensor<fp16, [1024]> input_35_beta_0_to_fp16 = const()[name = tensor<string, []>("input_35_beta_0_to_fp16"), val = tensor<fp16, [1024]>(BLOBFILE(path = tensor<string, []>("@model_path/weights/weight.bin"), offset = tensor<uint64, []>(119030656)))];
            tensor<fp16, []> input_35_epsilon_0_to_fp16 = const()[name = tensor<string, []>("input_35_epsilon_0_to_fp16"), val = tensor<fp16, []>(0x1.5p-17)];
            tensor<fp16, [1, 1024, 1, 1500]> input_35_cast_fp16 = batch_norm(beta = input_35_beta_0_to_fp16, epsilon = input_35_epsilon_0_to_fp16, gamma = input_35_gamma_0_to_fp16, mean = obj_1_mean_0_to_fp16, variance = obj_1_variance_0_to_fp16, x = out_19_cast_fp16)[name = tensor<string, []>("input_35_cast_fp16")];
            tensor<string, []> input_37_pad_type_0 = const()[name = tensor<string, []>("input_37_pad_type_0"), val = tensor<string, []>("valid")];
            tensor<int32, [2]> input_37_strides_0 = const()[name = tensor<string, []>("input_37_strides_0"), val = tensor<int32, [2]>([1, 1])];
            tensor<int32, [4]> input_37_pad_0 = const()[name = tensor<string, []>("input_37_pad_0"), val = tensor<int32, [4]>([0, 0, 0, 0])];
            tensor<int32, [2]> input_37_dilations_0 = const()[name = tensor<string, []>("input_37_dilations_0"), val = tensor<int32, [2]>([1, 1])];
            tensor<int32, []> input_37_groups_0 = const()[name = tensor<string, []>("input_37_groups_0"), val = tensor<int32, []>(1)];
            tensor<fp16, [4096, 1024, 1, 1]> layers_4_fc1_weight_to_fp16 = const()[name = tensor<string, []>("layers_4_fc1_weight_to_fp16"), val = tensor<fp16, [4096, 1024, 1, 1]>(BLOBFILE(path = tensor<string, []>("@model_path/weights/weight.bin"), offset = tensor<uint64, []>(119032768)))];
            tensor<fp16, [4096]> layers_4_fc1_bias_to_fp16 = const()[name = tensor<string, []>("layers_4_fc1_bias_to_fp16"), val = tensor<fp16, [4096]>(BLOBFILE(path = tensor<string, []>("@model_path/weights/weight.bin"), offset = tensor<uint64, []>(127421440)))];
            tensor<fp16, [1, 4096, 1, 1500]> input_37_cast_fp16 = conv(bias = layers_4_fc1_bias_to_fp16, dilations = input_37_dilations_0, groups = input_37_groups_0, pad = input_37_pad_0, pad_type = input_37_pad_type_0, strides = input_37_strides_0, weight = layers_4_fc1_weight_to_fp16, x = input_35_cast_fp16)[name = tensor<string, []>("input_37_cast_fp16")];
            tensor<string, []> input_39_mode_0 = const()[name = tensor<string, []>("input_39_mode_0"), val = tensor<string, []>("EXACT")];
            tensor<fp16, [1, 4096, 1, 1500]> input_39_cast_fp16 = gelu(mode = input_39_mode_0, x = input_37_cast_fp16)[name = tensor<string, []>("input_39_cast_fp16")];
            tensor<string, []> hidden_states_13_pad_type_0 = const()[name = tensor<string, []>("hidden_states_13_pad_type_0"), val = tensor<string, []>("valid")];
            tensor<int32, [2]> hidden_states_13_strides_0 = const()[name = tensor<string, []>("hidden_states_13_strides_0"), val = tensor<int32, [2]>([1, 1])];
            tensor<int32, [4]> hidden_states_13_pad_0 = const()[name = tensor<string, []>("hidden_states_13_pad_0"), val = tensor<int32, [4]>([0, 0, 0, 0])];
            tensor<int32, [2]> hidden_states_13_dilations_0 = const()[name = tensor<string, []>("hidden_states_13_dilations_0"), val = tensor<int32, [2]>([1, 1])];
            tensor<int32, []> hidden_states_13_groups_0 = const()[name = tensor<string, []>("hidden_states_13_groups_0"), val = tensor<int32, []>(1)];
            tensor<fp16, [1024, 4096, 1, 1]> layers_4_fc2_weight_to_fp16 = const()[name = tensor<string, []>("layers_4_fc2_weight_to_fp16"), val = tensor<fp16, [1024, 4096, 1, 1]>(BLOBFILE(path = tensor<string, []>("@model_path/weights/weight.bin"), offset = tensor<uint64, []>(127429696)))];
            tensor<fp16, [1024]> layers_4_fc2_bias_to_fp16 = const()[name = tensor<string, []>("layers_4_fc2_bias_to_fp16"), val = tensor<fp16, [1024]>(BLOBFILE(path = tensor<string, []>("@model_path/weights/weight.bin"), offset = tensor<uint64, []>(135818368)))];
            tensor<fp16, [1, 1024, 1, 1500]> hidden_states_13_cast_fp16 = conv(bias = layers_4_fc2_bias_to_fp16, dilations = hidden_states_13_dilations_0, groups = hidden_states_13_groups_0, pad = hidden_states_13_pad_0, pad_type = hidden_states_13_pad_type_0, strides = hidden_states_13_strides_0, weight = layers_4_fc2_weight_to_fp16, x = input_39_cast_fp16)[name = tensor<string, []>("hidden_states_13_cast_fp16")];
            tensor<fp16, [1, 1024, 1, 1500]> inputs_21_cast_fp16 = add(x = inputs_19_cast_fp16, y = hidden_states_13_cast_fp16)[name = tensor<string, []>("inputs_21_cast_fp16")];
            tensor<int32, []> var_758 = const()[name = tensor<string, []>("op_758"), val = tensor<int32, []>(3)];
            tensor<int32, [1]> out_21_axes_0 = const()[name = tensor<string, []>("out_21_axes_0"), val = tensor<int32, [1]>([1])];
            tensor<fp16, []> var_780_to_fp16 = const()[name = tensor<string, []>("op_780_to_fp16"), val = tensor<fp16, []>(0x1.5p-17)];
            tensor<fp16, [1, 1024, 1, 1500]> out_21_cast_fp16 = layer_norm(axes = out_21_axes_0, epsilon = var_780_to_fp16, x = inputs_21_cast_fp16)[name = tensor<string, []>("out_21_cast_fp16")];
            tensor<fp16, [1024]> obj_21_gamma_0_to_fp16 = const()[name = tensor<string, []>("obj_21_gamma_0_to_fp16"), val = tensor<fp16, [1024]>(BLOBFILE(path = tensor<string, []>("@model_path/weights/weight.bin"), offset = tensor<uint64, []>(135820480)))];
            tensor<fp16, [1024]> obj_21_beta_0_to_fp16 = const()[name = tensor<string, []>("obj_21_beta_0_to_fp16"), val = tensor<fp16, [1024]>(BLOBFILE(path = tensor<string, []>("@model_path/weights/weight.bin"), offset = tensor<uint64, []>(135822592)))];
            tensor<fp16, []> obj_21_epsilon_0_to_fp16 = const()[name = tensor<string, []>("obj_21_epsilon_0_to_fp16"), val = tensor<fp16, []>(0x1.5p-17)];
            tensor<fp16, [1, 1024, 1, 1500]> obj_21_cast_fp16 = batch_norm(beta = obj_21_beta_0_to_fp16, epsilon = obj_21_epsilon_0_to_fp16, gamma = obj_21_gamma_0_to_fp16, mean = obj_1_mean_0_to_fp16, variance = obj_1_variance_0_to_fp16, x = out_21_cast_fp16)[name = tensor<string, []>("obj_21_cast_fp16")];
            tensor<string, []> query_11_pad_type_0 = const()[name = tensor<string, []>("query_11_pad_type_0"), val = tensor<string, []>("valid")];
            tensor<int32, [2]> query_11_strides_0 = const()[name = tensor<string, []>("query_11_strides_0"), val = tensor<int32, [2]>([1, 1])];
            tensor<int32, [4]> query_11_pad_0 = const()[name = tensor<string, []>("query_11_pad_0"), val = tensor<int32, [4]>([0, 0, 0, 0])];
            tensor<int32, [2]> query_11_dilations_0 = const()[name = tensor<string, []>("query_11_dilations_0"), val = tensor<int32, [2]>([1, 1])];
            tensor<int32, []> query_11_groups_0 = const()[name = tensor<string, []>("query_11_groups_0"), val = tensor<int32, []>(1)];
            tensor<fp16, [1024, 1024, 1, 1]> layers_5_self_attn_q_proj_weight_to_fp16 = const()[name = tensor<string, []>("layers_5_self_attn_q_proj_weight_to_fp16"), val = tensor<fp16, [1024, 1024, 1, 1]>(BLOBFILE(path = tensor<string, []>("@model_path/weights/weight.bin"), offset = tensor<uint64, []>(135824704)))];
            tensor<fp16, [1024]> layers_5_self_attn_q_proj_bias_to_fp16 = const()[name = tensor<string, []>("layers_5_self_attn_q_proj_bias_to_fp16"), val = tensor<fp16, [1024]>(BLOBFILE(path = tensor<string, []>("@model_path/weights/weight.bin"), offset = tensor<uint64, []>(137921920)))];
            tensor<fp16, [1, 1024, 1, 1500]> query_11_cast_fp16 = conv(bias = layers_5_self_attn_q_proj_bias_to_fp16, dilations = query_11_dilations_0, groups = query_11_groups_0, pad = query_11_pad_0, pad_type = query_11_pad_type_0, strides = query_11_strides_0, weight = layers_5_self_attn_q_proj_weight_to_fp16, x = obj_21_cast_fp16)[name = tensor<string, []>("query_11_cast_fp16")];
            tensor<string, []> key_11_pad_type_0 = const()[name = tensor<string, []>("key_11_pad_type_0"), val = tensor<string, []>("valid")];
            tensor<int32, [2]> key_11_strides_0 = const()[name = tensor<string, []>("key_11_strides_0"), val = tensor<int32, [2]>([1, 1])];
            tensor<int32, [4]> key_11_pad_0 = const()[name = tensor<string, []>("key_11_pad_0"), val = tensor<int32, [4]>([0, 0, 0, 0])];
            tensor<int32, [2]> key_11_dilations_0 = const()[name = tensor<string, []>("key_11_dilations_0"), val = tensor<int32, [2]>([1, 1])];
            tensor<int32, []> key_11_groups_0 = const()[name = tensor<string, []>("key_11_groups_0"), val = tensor<int32, []>(1)];
            tensor<fp16, [1024, 1024, 1, 1]> layers_5_self_attn_k_proj_weight_to_fp16 = const()[name = tensor<string, []>("layers_5_self_attn_k_proj_weight_to_fp16"), val = tensor<fp16, [1024, 1024, 1, 1]>(BLOBFILE(path = tensor<string, []>("@model_path/weights/weight.bin"), offset = tensor<uint64, []>(137924032)))];
            tensor<fp16, [1, 1024, 1, 1500]> key_11_cast_fp16 = conv(dilations = key_11_dilations_0, groups = key_11_groups_0, pad = key_11_pad_0, pad_type = key_11_pad_type_0, strides = key_11_strides_0, weight = layers_5_self_attn_k_proj_weight_to_fp16, x = obj_21_cast_fp16)[name = tensor<string, []>("key_11_cast_fp16")];
            tensor<string, []> value_11_pad_type_0 = const()[name = tensor<string, []>("value_11_pad_type_0"), val = tensor<string, []>("valid")];
            tensor<int32, [2]> value_11_strides_0 = const()[name = tensor<string, []>("value_11_strides_0"), val = tensor<int32, [2]>([1, 1])];
            tensor<int32, [4]> value_11_pad_0 = const()[name = tensor<string, []>("value_11_pad_0"), val = tensor<int32, [4]>([0, 0, 0, 0])];
            tensor<int32, [2]> value_11_dilations_0 = const()[name = tensor<string, []>("value_11_dilations_0"), val = tensor<int32, [2]>([1, 1])];
            tensor<int32, []> value_11_groups_0 = const()[name = tensor<string, []>("value_11_groups_0"), val = tensor<int32, []>(1)];
            tensor<fp16, [1024, 1024, 1, 1]> layers_5_self_attn_v_proj_weight_to_fp16 = const()[name = tensor<string, []>("layers_5_self_attn_v_proj_weight_to_fp16"), val = tensor<fp16, [1024, 1024, 1, 1]>(BLOBFILE(path = tensor<string, []>("@model_path/weights/weight.bin"), offset = tensor<uint64, []>(140021248)))];
            tensor<fp16, [1024]> layers_5_self_attn_v_proj_bias_to_fp16 = const()[name = tensor<string, []>("layers_5_self_attn_v_proj_bias_to_fp16"), val = tensor<fp16, [1024]>(BLOBFILE(path = tensor<string, []>("@model_path/weights/weight.bin"), offset = tensor<uint64, []>(142118464)))];
            tensor<fp16, [1, 1024, 1, 1500]> value_11_cast_fp16 = conv(bias = layers_5_self_attn_v_proj_bias_to_fp16, dilations = value_11_dilations_0, groups = value_11_groups_0, pad = value_11_pad_0, pad_type = value_11_pad_type_0, strides = value_11_strides_0, weight = layers_5_self_attn_v_proj_weight_to_fp16, x = obj_21_cast_fp16)[name = tensor<string, []>("value_11_cast_fp16")];
            tensor<int32, [4]> var_816 = const()[name = tensor<string, []>("op_816"), val = tensor<int32, [4]>([1, 16, 64, 1500])];
            tensor<fp16, [1, 16, 64, 1500]> mh_q_11_cast_fp16 = reshape(shape = var_816, x = query_11_cast_fp16)[name = tensor<string, []>("mh_q_11_cast_fp16")];
            tensor<fp16, []> var_818_to_fp16 = const()[name = tensor<string, []>("op_818_to_fp16"), val = tensor<fp16, []>(0x1p-3)];
            tensor<fp16, [1, 16, 64, 1500]> var_819_cast_fp16 = mul(x = mh_q_11_cast_fp16, y = var_818_to_fp16)[name = tensor<string, []>("op_819_cast_fp16")];
            tensor<int32, [4]> var_822 = const()[name = tensor<string, []>("op_822"), val = tensor<int32, [4]>([1, 16, 64, 1500])];
            tensor<fp16, [1, 16, 64, 1500]> var_823_cast_fp16 = reshape(shape = var_822, x = key_11_cast_fp16)[name = tensor<string, []>("op_823_cast_fp16")];
            tensor<bool, []> mh_w_11_transpose_x_0 = const()[name = tensor<string, []>("mh_w_11_transpose_x_0"), val = tensor<bool, []>(true)];
            tensor<bool, []> mh_w_11_transpose_y_0 = const()[name = tensor<string, []>("mh_w_11_transpose_y_0"), val = tensor<bool, []>(false)];
            tensor<fp16, [1, 16, 1500, 1500]> mh_w_11_cast_fp16 = matmul(transpose_x = mh_w_11_transpose_x_0, transpose_y = mh_w_11_transpose_y_0, x = var_819_cast_fp16, y = var_823_cast_fp16)[name = tensor<string, []>("mh_w_11_cast_fp16")];
            tensor<fp16, [1, 16, 1500, 1500]> var_826_cast_fp16 = softmax(axis = var_758, x = mh_w_11_cast_fp16)[name = tensor<string, []>("op_826_cast_fp16")];
            tensor<int32, [4]> var_827 = const()[name = tensor<string, []>("op_827"), val = tensor<int32, [4]>([1, 16, 64, 1500])];
            tensor<fp16, [1, 16, 64, 1500]> var_828_cast_fp16 = reshape(shape = var_827, x = value_11_cast_fp16)[name = tensor<string, []>("op_828_cast_fp16")];
            tensor<bool, []> attn_11_transpose_x_0 = const()[name = tensor<string, []>("attn_11_transpose_x_0"), val = tensor<bool, []>(false)];
            tensor<bool, []> attn_11_transpose_y_0 = const()[name = tensor<string, []>("attn_11_transpose_y_0"), val = tensor<bool, []>(true)];
            tensor<fp16, [1, 16, 64, 1500]> attn_11_cast_fp16 = matmul(transpose_x = attn_11_transpose_x_0, transpose_y = attn_11_transpose_y_0, x = var_828_cast_fp16, y = var_826_cast_fp16)[name = tensor<string, []>("attn_11_cast_fp16")];
            tensor<int32, [4]> var_831 = const()[name = tensor<string, []>("op_831"), val = tensor<int32, [4]>([1, 1024, 1, 1500])];
            tensor<fp16, [1, 1024, 1, 1500]> input_41_cast_fp16 = reshape(shape = var_831, x = attn_11_cast_fp16)[name = tensor<string, []>("input_41_cast_fp16")];
            tensor<string, []> obj_23_pad_type_0 = const()[name = tensor<string, []>("obj_23_pad_type_0"), val = tensor<string, []>("valid")];
            tensor<int32, [2]> obj_23_strides_0 = const()[name = tensor<string, []>("obj_23_strides_0"), val = tensor<int32, [2]>([1, 1])];
            tensor<int32, [4]> obj_23_pad_0 = const()[name = tensor<string, []>("obj_23_pad_0"), val = tensor<int32, [4]>([0, 0, 0, 0])];
            tensor<int32, [2]> obj_23_dilations_0 = const()[name = tensor<string, []>("obj_23_dilations_0"), val = tensor<int32, [2]>([1, 1])];
            tensor<int32, []> obj_23_groups_0 = const()[name = tensor<string, []>("obj_23_groups_0"), val = tensor<int32, []>(1)];
            tensor<fp16, [1024, 1024, 1, 1]> layers_5_self_attn_o_proj_weight_to_fp16 = const()[name = tensor<string, []>("layers_5_self_attn_o_proj_weight_to_fp16"), val = tensor<fp16, [1024, 1024, 1, 1]>(BLOBFILE(path = tensor<string, []>("@model_path/weights/weight.bin"), offset = tensor<uint64, []>(142120576)))];
            tensor<fp16, [1024]> layers_5_self_attn_o_proj_bias_to_fp16 = const()[name = tensor<string, []>("layers_5_self_attn_o_proj_bias_to_fp16"), val = tensor<fp16, [1024]>(BLOBFILE(path = tensor<string, []>("@model_path/weights/weight.bin"), offset = tensor<uint64, []>(144217792)))];
            tensor<fp16, [1, 1024, 1, 1500]> obj_23_cast_fp16 = conv(bias = layers_5_self_attn_o_proj_bias_to_fp16, dilations = obj_23_dilations_0, groups = obj_23_groups_0, pad = obj_23_pad_0, pad_type = obj_23_pad_type_0, strides = obj_23_strides_0, weight = layers_5_self_attn_o_proj_weight_to_fp16, x = input_41_cast_fp16)[name = tensor<string, []>("obj_23_cast_fp16")];
            tensor<fp16, [1, 1024, 1, 1500]> inputs_23_cast_fp16 = add(x = inputs_21_cast_fp16, y = obj_23_cast_fp16)[name = tensor<string, []>("inputs_23_cast_fp16")];
            tensor<int32, [1]> out_23_axes_0 = const()[name = tensor<string, []>("out_23_axes_0"), val = tensor<int32, [1]>([1])];
            tensor<fp16, []> var_849_to_fp16 = const()[name = tensor<string, []>("op_849_to_fp16"), val = tensor<fp16, []>(0x1.5p-17)];
            tensor<fp16, [1, 1024, 1, 1500]> out_23_cast_fp16 = layer_norm(axes = out_23_axes_0, epsilon = var_849_to_fp16, x = inputs_23_cast_fp16)[name = tensor<string, []>("out_23_cast_fp16")];
            tensor<fp16, [1024]> input_43_gamma_0_to_fp16 = const()[name = tensor<string, []>("input_43_gamma_0_to_fp16"), val = tensor<fp16, [1024]>(BLOBFILE(path = tensor<string, []>("@model_path/weights/weight.bin"), offset = tensor<uint64, []>(144219904)))];
            tensor<fp16, [1024]> input_43_beta_0_to_fp16 = const()[name = tensor<string, []>("input_43_beta_0_to_fp16"), val = tensor<fp16, [1024]>(BLOBFILE(path = tensor<string, []>("@model_path/weights/weight.bin"), offset = tensor<uint64, []>(144222016)))];
            tensor<fp16, []> input_43_epsilon_0_to_fp16 = const()[name = tensor<string, []>("input_43_epsilon_0_to_fp16"), val = tensor<fp16, []>(0x1.5p-17)];
            tensor<fp16, [1, 1024, 1, 1500]> input_43_cast_fp16 = batch_norm(beta = input_43_beta_0_to_fp16, epsilon = input_43_epsilon_0_to_fp16, gamma = input_43_gamma_0_to_fp16, mean = obj_1_mean_0_to_fp16, variance = obj_1_variance_0_to_fp16, x = out_23_cast_fp16)[name = tensor<string, []>("input_43_cast_fp16")];
            tensor<string, []> input_45_pad_type_0 = const()[name = tensor<string, []>("input_45_pad_type_0"), val = tensor<string, []>("valid")];
            tensor<int32, [2]> input_45_strides_0 = const()[name = tensor<string, []>("input_45_strides_0"), val = tensor<int32, [2]>([1, 1])];
            tensor<int32, [4]> input_45_pad_0 = const()[name = tensor<string, []>("input_45_pad_0"), val = tensor<int32, [4]>([0, 0, 0, 0])];
            tensor<int32, [2]> input_45_dilations_0 = const()[name = tensor<string, []>("input_45_dilations_0"), val = tensor<int32, [2]>([1, 1])];
            tensor<int32, []> input_45_groups_0 = const()[name = tensor<string, []>("input_45_groups_0"), val = tensor<int32, []>(1)];
            tensor<fp16, [4096, 1024, 1, 1]> layers_5_fc1_weight_to_fp16 = const()[name = tensor<string, []>("layers_5_fc1_weight_to_fp16"), val = tensor<fp16, [4096, 1024, 1, 1]>(BLOBFILE(path = tensor<string, []>("@model_path/weights/weight.bin"), offset = tensor<uint64, []>(144224128)))];
            tensor<fp16, [4096]> layers_5_fc1_bias_to_fp16 = const()[name = tensor<string, []>("layers_5_fc1_bias_to_fp16"), val = tensor<fp16, [4096]>(BLOBFILE(path = tensor<string, []>("@model_path/weights/weight.bin"), offset = tensor<uint64, []>(152612800)))];
            tensor<fp16, [1, 4096, 1, 1500]> input_45_cast_fp16 = conv(bias = layers_5_fc1_bias_to_fp16, dilations = input_45_dilations_0, groups = input_45_groups_0, pad = input_45_pad_0, pad_type = input_45_pad_type_0, strides = input_45_strides_0, weight = layers_5_fc1_weight_to_fp16, x = input_43_cast_fp16)[name = tensor<string, []>("input_45_cast_fp16")];
            tensor<string, []> input_47_mode_0 = const()[name = tensor<string, []>("input_47_mode_0"), val = tensor<string, []>("EXACT")];
            tensor<fp16, [1, 4096, 1, 1500]> input_47_cast_fp16 = gelu(mode = input_47_mode_0, x = input_45_cast_fp16)[name = tensor<string, []>("input_47_cast_fp16")];
            tensor<string, []> hidden_states_15_pad_type_0 = const()[name = tensor<string, []>("hidden_states_15_pad_type_0"), val = tensor<string, []>("valid")];
            tensor<int32, [2]> hidden_states_15_strides_0 = const()[name = tensor<string, []>("hidden_states_15_strides_0"), val = tensor<int32, [2]>([1, 1])];
            tensor<int32, [4]> hidden_states_15_pad_0 = const()[name = tensor<string, []>("hidden_states_15_pad_0"), val = tensor<int32, [4]>([0, 0, 0, 0])];
            tensor<int32, [2]> hidden_states_15_dilations_0 = const()[name = tensor<string, []>("hidden_states_15_dilations_0"), val = tensor<int32, [2]>([1, 1])];
            tensor<int32, []> hidden_states_15_groups_0 = const()[name = tensor<string, []>("hidden_states_15_groups_0"), val = tensor<int32, []>(1)];
            tensor<fp16, [1024, 4096, 1, 1]> layers_5_fc2_weight_to_fp16 = const()[name = tensor<string, []>("layers_5_fc2_weight_to_fp16"), val = tensor<fp16, [1024, 4096, 1, 1]>(BLOBFILE(path = tensor<string, []>("@model_path/weights/weight.bin"), offset = tensor<uint64, []>(152621056)))];
            tensor<fp16, [1024]> layers_5_fc2_bias_to_fp16 = const()[name = tensor<string, []>("layers_5_fc2_bias_to_fp16"), val = tensor<fp16, [1024]>(BLOBFILE(path = tensor<string, []>("@model_path/weights/weight.bin"), offset = tensor<uint64, []>(161009728)))];
            tensor<fp16, [1, 1024, 1, 1500]> hidden_states_15_cast_fp16 = conv(bias = layers_5_fc2_bias_to_fp16, dilations = hidden_states_15_dilations_0, groups = hidden_states_15_groups_0, pad = hidden_states_15_pad_0, pad_type = hidden_states_15_pad_type_0, strides = hidden_states_15_strides_0, weight = layers_5_fc2_weight_to_fp16, x = input_47_cast_fp16)[name = tensor<string, []>("hidden_states_15_cast_fp16")];
            tensor<fp16, [1, 1024, 1, 1500]> inputs_25_cast_fp16 = add(x = inputs_23_cast_fp16, y = hidden_states_15_cast_fp16)[name = tensor<string, []>("inputs_25_cast_fp16")];
            tensor<int32, []> var_878 = const()[name = tensor<string, []>("op_878"), val = tensor<int32, []>(3)];
            tensor<int32, [1]> out_25_axes_0 = const()[name = tensor<string, []>("out_25_axes_0"), val = tensor<int32, [1]>([1])];
            tensor<fp16, []> var_900_to_fp16 = const()[name = tensor<string, []>("op_900_to_fp16"), val = tensor<fp16, []>(0x1.5p-17)];
            tensor<fp16, [1, 1024, 1, 1500]> out_25_cast_fp16 = layer_norm(axes = out_25_axes_0, epsilon = var_900_to_fp16, x = inputs_25_cast_fp16)[name = tensor<string, []>("out_25_cast_fp16")];
            tensor<fp16, [1024]> obj_25_gamma_0_to_fp16 = const()[name = tensor<string, []>("obj_25_gamma_0_to_fp16"), val = tensor<fp16, [1024]>(BLOBFILE(path = tensor<string, []>("@model_path/weights/weight.bin"), offset = tensor<uint64, []>(161011840)))];
            tensor<fp16, [1024]> obj_25_beta_0_to_fp16 = const()[name = tensor<string, []>("obj_25_beta_0_to_fp16"), val = tensor<fp16, [1024]>(BLOBFILE(path = tensor<string, []>("@model_path/weights/weight.bin"), offset = tensor<uint64, []>(161013952)))];
            tensor<fp16, []> obj_25_epsilon_0_to_fp16 = const()[name = tensor<string, []>("obj_25_epsilon_0_to_fp16"), val = tensor<fp16, []>(0x1.5p-17)];
            tensor<fp16, [1, 1024, 1, 1500]> obj_25_cast_fp16 = batch_norm(beta = obj_25_beta_0_to_fp16, epsilon = obj_25_epsilon_0_to_fp16, gamma = obj_25_gamma_0_to_fp16, mean = obj_1_mean_0_to_fp16, variance = obj_1_variance_0_to_fp16, x = out_25_cast_fp16)[name = tensor<string, []>("obj_25_cast_fp16")];
            tensor<string, []> query_13_pad_type_0 = const()[name = tensor<string, []>("query_13_pad_type_0"), val = tensor<string, []>("valid")];
            tensor<int32, [2]> query_13_strides_0 = const()[name = tensor<string, []>("query_13_strides_0"), val = tensor<int32, [2]>([1, 1])];
            tensor<int32, [4]> query_13_pad_0 = const()[name = tensor<string, []>("query_13_pad_0"), val = tensor<int32, [4]>([0, 0, 0, 0])];
            tensor<int32, [2]> query_13_dilations_0 = const()[name = tensor<string, []>("query_13_dilations_0"), val = tensor<int32, [2]>([1, 1])];
            tensor<int32, []> query_13_groups_0 = const()[name = tensor<string, []>("query_13_groups_0"), val = tensor<int32, []>(1)];
            tensor<fp16, [1024, 1024, 1, 1]> layers_6_self_attn_q_proj_weight_to_fp16 = const()[name = tensor<string, []>("layers_6_self_attn_q_proj_weight_to_fp16"), val = tensor<fp16, [1024, 1024, 1, 1]>(BLOBFILE(path = tensor<string, []>("@model_path/weights/weight.bin"), offset = tensor<uint64, []>(161016064)))];
            tensor<fp16, [1024]> layers_6_self_attn_q_proj_bias_to_fp16 = const()[name = tensor<string, []>("layers_6_self_attn_q_proj_bias_to_fp16"), val = tensor<fp16, [1024]>(BLOBFILE(path = tensor<string, []>("@model_path/weights/weight.bin"), offset = tensor<uint64, []>(163113280)))];
            tensor<fp16, [1, 1024, 1, 1500]> query_13_cast_fp16 = conv(bias = layers_6_self_attn_q_proj_bias_to_fp16, dilations = query_13_dilations_0, groups = query_13_groups_0, pad = query_13_pad_0, pad_type = query_13_pad_type_0, strides = query_13_strides_0, weight = layers_6_self_attn_q_proj_weight_to_fp16, x = obj_25_cast_fp16)[name = tensor<string, []>("query_13_cast_fp16")];
            tensor<string, []> key_13_pad_type_0 = const()[name = tensor<string, []>("key_13_pad_type_0"), val = tensor<string, []>("valid")];
            tensor<int32, [2]> key_13_strides_0 = const()[name = tensor<string, []>("key_13_strides_0"), val = tensor<int32, [2]>([1, 1])];
            tensor<int32, [4]> key_13_pad_0 = const()[name = tensor<string, []>("key_13_pad_0"), val = tensor<int32, [4]>([0, 0, 0, 0])];
            tensor<int32, [2]> key_13_dilations_0 = const()[name = tensor<string, []>("key_13_dilations_0"), val = tensor<int32, [2]>([1, 1])];
            tensor<int32, []> key_13_groups_0 = const()[name = tensor<string, []>("key_13_groups_0"), val = tensor<int32, []>(1)];
            tensor<fp16, [1024, 1024, 1, 1]> layers_6_self_attn_k_proj_weight_to_fp16 = const()[name = tensor<string, []>("layers_6_self_attn_k_proj_weight_to_fp16"), val = tensor<fp16, [1024, 1024, 1, 1]>(BLOBFILE(path = tensor<string, []>("@model_path/weights/weight.bin"), offset = tensor<uint64, []>(163115392)))];
            tensor<fp16, [1, 1024, 1, 1500]> key_13_cast_fp16 = conv(dilations = key_13_dilations_0, groups = key_13_groups_0, pad = key_13_pad_0, pad_type = key_13_pad_type_0, strides = key_13_strides_0, weight = layers_6_self_attn_k_proj_weight_to_fp16, x = obj_25_cast_fp16)[name = tensor<string, []>("key_13_cast_fp16")];
            tensor<string, []> value_13_pad_type_0 = const()[name = tensor<string, []>("value_13_pad_type_0"), val = tensor<string, []>("valid")];
            tensor<int32, [2]> value_13_strides_0 = const()[name = tensor<string, []>("value_13_strides_0"), val = tensor<int32, [2]>([1, 1])];
            tensor<int32, [4]> value_13_pad_0 = const()[name = tensor<string, []>("value_13_pad_0"), val = tensor<int32, [4]>([0, 0, 0, 0])];
            tensor<int32, [2]> value_13_dilations_0 = const()[name = tensor<string, []>("value_13_dilations_0"), val = tensor<int32, [2]>([1, 1])];
            tensor<int32, []> value_13_groups_0 = const()[name = tensor<string, []>("value_13_groups_0"), val = tensor<int32, []>(1)];
            tensor<fp16, [1024, 1024, 1, 1]> layers_6_self_attn_v_proj_weight_to_fp16 = const()[name = tensor<string, []>("layers_6_self_attn_v_proj_weight_to_fp16"), val = tensor<fp16, [1024, 1024, 1, 1]>(BLOBFILE(path = tensor<string, []>("@model_path/weights/weight.bin"), offset = tensor<uint64, []>(165212608)))];
            tensor<fp16, [1024]> layers_6_self_attn_v_proj_bias_to_fp16 = const()[name = tensor<string, []>("layers_6_self_attn_v_proj_bias_to_fp16"), val = tensor<fp16, [1024]>(BLOBFILE(path = tensor<string, []>("@model_path/weights/weight.bin"), offset = tensor<uint64, []>(167309824)))];
            tensor<fp16, [1, 1024, 1, 1500]> value_13_cast_fp16 = conv(bias = layers_6_self_attn_v_proj_bias_to_fp16, dilations = value_13_dilations_0, groups = value_13_groups_0, pad = value_13_pad_0, pad_type = value_13_pad_type_0, strides = value_13_strides_0, weight = layers_6_self_attn_v_proj_weight_to_fp16, x = obj_25_cast_fp16)[name = tensor<string, []>("value_13_cast_fp16")];
            tensor<int32, [4]> var_936 = const()[name = tensor<string, []>("op_936"), val = tensor<int32, [4]>([1, 16, 64, 1500])];
            tensor<fp16, [1, 16, 64, 1500]> mh_q_13_cast_fp16 = reshape(shape = var_936, x = query_13_cast_fp16)[name = tensor<string, []>("mh_q_13_cast_fp16")];
            tensor<fp16, []> var_938_to_fp16 = const()[name = tensor<string, []>("op_938_to_fp16"), val = tensor<fp16, []>(0x1p-3)];
            tensor<fp16, [1, 16, 64, 1500]> var_939_cast_fp16 = mul(x = mh_q_13_cast_fp16, y = var_938_to_fp16)[name = tensor<string, []>("op_939_cast_fp16")];
            tensor<int32, [4]> var_942 = const()[name = tensor<string, []>("op_942"), val = tensor<int32, [4]>([1, 16, 64, 1500])];
            tensor<fp16, [1, 16, 64, 1500]> var_943_cast_fp16 = reshape(shape = var_942, x = key_13_cast_fp16)[name = tensor<string, []>("op_943_cast_fp16")];
            tensor<bool, []> mh_w_13_transpose_x_0 = const()[name = tensor<string, []>("mh_w_13_transpose_x_0"), val = tensor<bool, []>(true)];
            tensor<bool, []> mh_w_13_transpose_y_0 = const()[name = tensor<string, []>("mh_w_13_transpose_y_0"), val = tensor<bool, []>(false)];
            tensor<fp16, [1, 16, 1500, 1500]> mh_w_13_cast_fp16 = matmul(transpose_x = mh_w_13_transpose_x_0, transpose_y = mh_w_13_transpose_y_0, x = var_939_cast_fp16, y = var_943_cast_fp16)[name = tensor<string, []>("mh_w_13_cast_fp16")];
            tensor<fp16, [1, 16, 1500, 1500]> var_946_cast_fp16 = softmax(axis = var_878, x = mh_w_13_cast_fp16)[name = tensor<string, []>("op_946_cast_fp16")];
            tensor<int32, [4]> var_947 = const()[name = tensor<string, []>("op_947"), val = tensor<int32, [4]>([1, 16, 64, 1500])];
            tensor<fp16, [1, 16, 64, 1500]> var_948_cast_fp16 = reshape(shape = var_947, x = value_13_cast_fp16)[name = tensor<string, []>("op_948_cast_fp16")];
            tensor<bool, []> attn_13_transpose_x_0 = const()[name = tensor<string, []>("attn_13_transpose_x_0"), val = tensor<bool, []>(false)];
            tensor<bool, []> attn_13_transpose_y_0 = const()[name = tensor<string, []>("attn_13_transpose_y_0"), val = tensor<bool, []>(true)];
            tensor<fp16, [1, 16, 64, 1500]> attn_13_cast_fp16 = matmul(transpose_x = attn_13_transpose_x_0, transpose_y = attn_13_transpose_y_0, x = var_948_cast_fp16, y = var_946_cast_fp16)[name = tensor<string, []>("attn_13_cast_fp16")];
            tensor<int32, [4]> var_951 = const()[name = tensor<string, []>("op_951"), val = tensor<int32, [4]>([1, 1024, 1, 1500])];
            tensor<fp16, [1, 1024, 1, 1500]> input_49_cast_fp16 = reshape(shape = var_951, x = attn_13_cast_fp16)[name = tensor<string, []>("input_49_cast_fp16")];
            tensor<string, []> obj_27_pad_type_0 = const()[name = tensor<string, []>("obj_27_pad_type_0"), val = tensor<string, []>("valid")];
            tensor<int32, [2]> obj_27_strides_0 = const()[name = tensor<string, []>("obj_27_strides_0"), val = tensor<int32, [2]>([1, 1])];
            tensor<int32, [4]> obj_27_pad_0 = const()[name = tensor<string, []>("obj_27_pad_0"), val = tensor<int32, [4]>([0, 0, 0, 0])];
            tensor<int32, [2]> obj_27_dilations_0 = const()[name = tensor<string, []>("obj_27_dilations_0"), val = tensor<int32, [2]>([1, 1])];
            tensor<int32, []> obj_27_groups_0 = const()[name = tensor<string, []>("obj_27_groups_0"), val = tensor<int32, []>(1)];
            tensor<fp16, [1024, 1024, 1, 1]> layers_6_self_attn_o_proj_weight_to_fp16 = const()[name = tensor<string, []>("layers_6_self_attn_o_proj_weight_to_fp16"), val = tensor<fp16, [1024, 1024, 1, 1]>(BLOBFILE(path = tensor<string, []>("@model_path/weights/weight.bin"), offset = tensor<uint64, []>(167311936)))];
            tensor<fp16, [1024]> layers_6_self_attn_o_proj_bias_to_fp16 = const()[name = tensor<string, []>("layers_6_self_attn_o_proj_bias_to_fp16"), val = tensor<fp16, [1024]>(BLOBFILE(path = tensor<string, []>("@model_path/weights/weight.bin"), offset = tensor<uint64, []>(169409152)))];
            tensor<fp16, [1, 1024, 1, 1500]> obj_27_cast_fp16 = conv(bias = layers_6_self_attn_o_proj_bias_to_fp16, dilations = obj_27_dilations_0, groups = obj_27_groups_0, pad = obj_27_pad_0, pad_type = obj_27_pad_type_0, strides = obj_27_strides_0, weight = layers_6_self_attn_o_proj_weight_to_fp16, x = input_49_cast_fp16)[name = tensor<string, []>("obj_27_cast_fp16")];
            tensor<fp16, [1, 1024, 1, 1500]> inputs_27_cast_fp16 = add(x = inputs_25_cast_fp16, y = obj_27_cast_fp16)[name = tensor<string, []>("inputs_27_cast_fp16")];
            tensor<int32, [1]> out_27_axes_0 = const()[name = tensor<string, []>("out_27_axes_0"), val = tensor<int32, [1]>([1])];
            tensor<fp16, []> var_969_to_fp16 = const()[name = tensor<string, []>("op_969_to_fp16"), val = tensor<fp16, []>(0x1.5p-17)];
            tensor<fp16, [1, 1024, 1, 1500]> out_27_cast_fp16 = layer_norm(axes = out_27_axes_0, epsilon = var_969_to_fp16, x = inputs_27_cast_fp16)[name = tensor<string, []>("out_27_cast_fp16")];
            tensor<fp16, [1024]> input_51_gamma_0_to_fp16 = const()[name = tensor<string, []>("input_51_gamma_0_to_fp16"), val = tensor<fp16, [1024]>(BLOBFILE(path = tensor<string, []>("@model_path/weights/weight.bin"), offset = tensor<uint64, []>(169411264)))];
            tensor<fp16, [1024]> input_51_beta_0_to_fp16 = const()[name = tensor<string, []>("input_51_beta_0_to_fp16"), val = tensor<fp16, [1024]>(BLOBFILE(path = tensor<string, []>("@model_path/weights/weight.bin"), offset = tensor<uint64, []>(169413376)))];
            tensor<fp16, []> input_51_epsilon_0_to_fp16 = const()[name = tensor<string, []>("input_51_epsilon_0_to_fp16"), val = tensor<fp16, []>(0x1.5p-17)];
            tensor<fp16, [1, 1024, 1, 1500]> input_51_cast_fp16 = batch_norm(beta = input_51_beta_0_to_fp16, epsilon = input_51_epsilon_0_to_fp16, gamma = input_51_gamma_0_to_fp16, mean = obj_1_mean_0_to_fp16, variance = obj_1_variance_0_to_fp16, x = out_27_cast_fp16)[name = tensor<string, []>("input_51_cast_fp16")];
            tensor<string, []> input_53_pad_type_0 = const()[name = tensor<string, []>("input_53_pad_type_0"), val = tensor<string, []>("valid")];
            tensor<int32, [2]> input_53_strides_0 = const()[name = tensor<string, []>("input_53_strides_0"), val = tensor<int32, [2]>([1, 1])];
            tensor<int32, [4]> input_53_pad_0 = const()[name = tensor<string, []>("input_53_pad_0"), val = tensor<int32, [4]>([0, 0, 0, 0])];
            tensor<int32, [2]> input_53_dilations_0 = const()[name = tensor<string, []>("input_53_dilations_0"), val = tensor<int32, [2]>([1, 1])];
            tensor<int32, []> input_53_groups_0 = const()[name = tensor<string, []>("input_53_groups_0"), val = tensor<int32, []>(1)];
            tensor<fp16, [4096, 1024, 1, 1]> layers_6_fc1_weight_to_fp16 = const()[name = tensor<string, []>("layers_6_fc1_weight_to_fp16"), val = tensor<fp16, [4096, 1024, 1, 1]>(BLOBFILE(path = tensor<string, []>("@model_path/weights/weight.bin"), offset = tensor<uint64, []>(169415488)))];
            tensor<fp16, [4096]> layers_6_fc1_bias_to_fp16 = const()[name = tensor<string, []>("layers_6_fc1_bias_to_fp16"), val = tensor<fp16, [4096]>(BLOBFILE(path = tensor<string, []>("@model_path/weights/weight.bin"), offset = tensor<uint64, []>(177804160)))];
            tensor<fp16, [1, 4096, 1, 1500]> input_53_cast_fp16 = conv(bias = layers_6_fc1_bias_to_fp16, dilations = input_53_dilations_0, groups = input_53_groups_0, pad = input_53_pad_0, pad_type = input_53_pad_type_0, strides = input_53_strides_0, weight = layers_6_fc1_weight_to_fp16, x = input_51_cast_fp16)[name = tensor<string, []>("input_53_cast_fp16")];
            tensor<string, []> input_55_mode_0 = const()[name = tensor<string, []>("input_55_mode_0"), val = tensor<string, []>("EXACT")];
            tensor<fp16, [1, 4096, 1, 1500]> input_55_cast_fp16 = gelu(mode = input_55_mode_0, x = input_53_cast_fp16)[name = tensor<string, []>("input_55_cast_fp16")];
            tensor<string, []> hidden_states_17_pad_type_0 = const()[name = tensor<string, []>("hidden_states_17_pad_type_0"), val = tensor<string, []>("valid")];
            tensor<int32, [2]> hidden_states_17_strides_0 = const()[name = tensor<string, []>("hidden_states_17_strides_0"), val = tensor<int32, [2]>([1, 1])];
            tensor<int32, [4]> hidden_states_17_pad_0 = const()[name = tensor<string, []>("hidden_states_17_pad_0"), val = tensor<int32, [4]>([0, 0, 0, 0])];
            tensor<int32, [2]> hidden_states_17_dilations_0 = const()[name = tensor<string, []>("hidden_states_17_dilations_0"), val = tensor<int32, [2]>([1, 1])];
            tensor<int32, []> hidden_states_17_groups_0 = const()[name = tensor<string, []>("hidden_states_17_groups_0"), val = tensor<int32, []>(1)];
            tensor<fp16, [1024, 4096, 1, 1]> layers_6_fc2_weight_to_fp16 = const()[name = tensor<string, []>("layers_6_fc2_weight_to_fp16"), val = tensor<fp16, [1024, 4096, 1, 1]>(BLOBFILE(path = tensor<string, []>("@model_path/weights/weight.bin"), offset = tensor<uint64, []>(177812416)))];
            tensor<fp16, [1024]> layers_6_fc2_bias_to_fp16 = const()[name = tensor<string, []>("layers_6_fc2_bias_to_fp16"), val = tensor<fp16, [1024]>(BLOBFILE(path = tensor<string, []>("@model_path/weights/weight.bin"), offset = tensor<uint64, []>(186201088)))];
            tensor<fp16, [1, 1024, 1, 1500]> hidden_states_17_cast_fp16 = conv(bias = layers_6_fc2_bias_to_fp16, dilations = hidden_states_17_dilations_0, groups = hidden_states_17_groups_0, pad = hidden_states_17_pad_0, pad_type = hidden_states_17_pad_type_0, strides = hidden_states_17_strides_0, weight = layers_6_fc2_weight_to_fp16, x = input_55_cast_fp16)[name = tensor<string, []>("hidden_states_17_cast_fp16")];
            tensor<fp16, [1, 1024, 1, 1500]> inputs_29_cast_fp16 = add(x = inputs_27_cast_fp16, y = hidden_states_17_cast_fp16)[name = tensor<string, []>("inputs_29_cast_fp16")];
            tensor<int32, []> var_998 = const()[name = tensor<string, []>("op_998"), val = tensor<int32, []>(3)];
            tensor<int32, [1]> out_29_axes_0 = const()[name = tensor<string, []>("out_29_axes_0"), val = tensor<int32, [1]>([1])];
            tensor<fp16, []> var_1020_to_fp16 = const()[name = tensor<string, []>("op_1020_to_fp16"), val = tensor<fp16, []>(0x1.5p-17)];
            tensor<fp16, [1, 1024, 1, 1500]> out_29_cast_fp16 = layer_norm(axes = out_29_axes_0, epsilon = var_1020_to_fp16, x = inputs_29_cast_fp16)[name = tensor<string, []>("out_29_cast_fp16")];
            tensor<fp16, [1024]> obj_29_gamma_0_to_fp16 = const()[name = tensor<string, []>("obj_29_gamma_0_to_fp16"), val = tensor<fp16, [1024]>(BLOBFILE(path = tensor<string, []>("@model_path/weights/weight.bin"), offset = tensor<uint64, []>(186203200)))];
            tensor<fp16, [1024]> obj_29_beta_0_to_fp16 = const()[name = tensor<string, []>("obj_29_beta_0_to_fp16"), val = tensor<fp16, [1024]>(BLOBFILE(path = tensor<string, []>("@model_path/weights/weight.bin"), offset = tensor<uint64, []>(186205312)))];
            tensor<fp16, []> obj_29_epsilon_0_to_fp16 = const()[name = tensor<string, []>("obj_29_epsilon_0_to_fp16"), val = tensor<fp16, []>(0x1.5p-17)];
            tensor<fp16, [1, 1024, 1, 1500]> obj_29_cast_fp16 = batch_norm(beta = obj_29_beta_0_to_fp16, epsilon = obj_29_epsilon_0_to_fp16, gamma = obj_29_gamma_0_to_fp16, mean = obj_1_mean_0_to_fp16, variance = obj_1_variance_0_to_fp16, x = out_29_cast_fp16)[name = tensor<string, []>("obj_29_cast_fp16")];
            tensor<string, []> query_15_pad_type_0 = const()[name = tensor<string, []>("query_15_pad_type_0"), val = tensor<string, []>("valid")];
            tensor<int32, [2]> query_15_strides_0 = const()[name = tensor<string, []>("query_15_strides_0"), val = tensor<int32, [2]>([1, 1])];
            tensor<int32, [4]> query_15_pad_0 = const()[name = tensor<string, []>("query_15_pad_0"), val = tensor<int32, [4]>([0, 0, 0, 0])];
            tensor<int32, [2]> query_15_dilations_0 = const()[name = tensor<string, []>("query_15_dilations_0"), val = tensor<int32, [2]>([1, 1])];
            tensor<int32, []> query_15_groups_0 = const()[name = tensor<string, []>("query_15_groups_0"), val = tensor<int32, []>(1)];
            tensor<fp16, [1024, 1024, 1, 1]> layers_7_self_attn_q_proj_weight_to_fp16 = const()[name = tensor<string, []>("layers_7_self_attn_q_proj_weight_to_fp16"), val = tensor<fp16, [1024, 1024, 1, 1]>(BLOBFILE(path = tensor<string, []>("@model_path/weights/weight.bin"), offset = tensor<uint64, []>(186207424)))];
            tensor<fp16, [1024]> layers_7_self_attn_q_proj_bias_to_fp16 = const()[name = tensor<string, []>("layers_7_self_attn_q_proj_bias_to_fp16"), val = tensor<fp16, [1024]>(BLOBFILE(path = tensor<string, []>("@model_path/weights/weight.bin"), offset = tensor<uint64, []>(188304640)))];
            tensor<fp16, [1, 1024, 1, 1500]> query_15_cast_fp16 = conv(bias = layers_7_self_attn_q_proj_bias_to_fp16, dilations = query_15_dilations_0, groups = query_15_groups_0, pad = query_15_pad_0, pad_type = query_15_pad_type_0, strides = query_15_strides_0, weight = layers_7_self_attn_q_proj_weight_to_fp16, x = obj_29_cast_fp16)[name = tensor<string, []>("query_15_cast_fp16")];
            tensor<string, []> key_15_pad_type_0 = const()[name = tensor<string, []>("key_15_pad_type_0"), val = tensor<string, []>("valid")];
            tensor<int32, [2]> key_15_strides_0 = const()[name = tensor<string, []>("key_15_strides_0"), val = tensor<int32, [2]>([1, 1])];
            tensor<int32, [4]> key_15_pad_0 = const()[name = tensor<string, []>("key_15_pad_0"), val = tensor<int32, [4]>([0, 0, 0, 0])];
            tensor<int32, [2]> key_15_dilations_0 = const()[name = tensor<string, []>("key_15_dilations_0"), val = tensor<int32, [2]>([1, 1])];
            tensor<int32, []> key_15_groups_0 = const()[name = tensor<string, []>("key_15_groups_0"), val = tensor<int32, []>(1)];
            tensor<fp16, [1024, 1024, 1, 1]> layers_7_self_attn_k_proj_weight_to_fp16 = const()[name = tensor<string, []>("layers_7_self_attn_k_proj_weight_to_fp16"), val = tensor<fp16, [1024, 1024, 1, 1]>(BLOBFILE(path = tensor<string, []>("@model_path/weights/weight.bin"), offset = tensor<uint64, []>(188306752)))];
            tensor<fp16, [1, 1024, 1, 1500]> key_15_cast_fp16 = conv(dilations = key_15_dilations_0, groups = key_15_groups_0, pad = key_15_pad_0, pad_type = key_15_pad_type_0, strides = key_15_strides_0, weight = layers_7_self_attn_k_proj_weight_to_fp16, x = obj_29_cast_fp16)[name = tensor<string, []>("key_15_cast_fp16")];
            tensor<string, []> value_15_pad_type_0 = const()[name = tensor<string, []>("value_15_pad_type_0"), val = tensor<string, []>("valid")];
            tensor<int32, [2]> value_15_strides_0 = const()[name = tensor<string, []>("value_15_strides_0"), val = tensor<int32, [2]>([1, 1])];
            tensor<int32, [4]> value_15_pad_0 = const()[name = tensor<string, []>("value_15_pad_0"), val = tensor<int32, [4]>([0, 0, 0, 0])];
            tensor<int32, [2]> value_15_dilations_0 = const()[name = tensor<string, []>("value_15_dilations_0"), val = tensor<int32, [2]>([1, 1])];
            tensor<int32, []> value_15_groups_0 = const()[name = tensor<string, []>("value_15_groups_0"), val = tensor<int32, []>(1)];
            tensor<fp16, [1024, 1024, 1, 1]> layers_7_self_attn_v_proj_weight_to_fp16 = const()[name = tensor<string, []>("layers_7_self_attn_v_proj_weight_to_fp16"), val = tensor<fp16, [1024, 1024, 1, 1]>(BLOBFILE(path = tensor<string, []>("@model_path/weights/weight.bin"), offset = tensor<uint64, []>(190403968)))];
            tensor<fp16, [1024]> layers_7_self_attn_v_proj_bias_to_fp16 = const()[name = tensor<string, []>("layers_7_self_attn_v_proj_bias_to_fp16"), val = tensor<fp16, [1024]>(BLOBFILE(path = tensor<string, []>("@model_path/weights/weight.bin"), offset = tensor<uint64, []>(192501184)))];
            tensor<fp16, [1, 1024, 1, 1500]> value_15_cast_fp16 = conv(bias = layers_7_self_attn_v_proj_bias_to_fp16, dilations = value_15_dilations_0, groups = value_15_groups_0, pad = value_15_pad_0, pad_type = value_15_pad_type_0, strides = value_15_strides_0, weight = layers_7_self_attn_v_proj_weight_to_fp16, x = obj_29_cast_fp16)[name = tensor<string, []>("value_15_cast_fp16")];
            tensor<int32, [4]> var_1056 = const()[name = tensor<string, []>("op_1056"), val = tensor<int32, [4]>([1, 16, 64, 1500])];
            tensor<fp16, [1, 16, 64, 1500]> mh_q_15_cast_fp16 = reshape(shape = var_1056, x = query_15_cast_fp16)[name = tensor<string, []>("mh_q_15_cast_fp16")];
            tensor<fp16, []> var_1058_to_fp16 = const()[name = tensor<string, []>("op_1058_to_fp16"), val = tensor<fp16, []>(0x1p-3)];
            tensor<fp16, [1, 16, 64, 1500]> var_1059_cast_fp16 = mul(x = mh_q_15_cast_fp16, y = var_1058_to_fp16)[name = tensor<string, []>("op_1059_cast_fp16")];
            tensor<int32, [4]> var_1062 = const()[name = tensor<string, []>("op_1062"), val = tensor<int32, [4]>([1, 16, 64, 1500])];
            tensor<fp16, [1, 16, 64, 1500]> var_1063_cast_fp16 = reshape(shape = var_1062, x = key_15_cast_fp16)[name = tensor<string, []>("op_1063_cast_fp16")];
            tensor<bool, []> mh_w_15_transpose_x_0 = const()[name = tensor<string, []>("mh_w_15_transpose_x_0"), val = tensor<bool, []>(true)];
            tensor<bool, []> mh_w_15_transpose_y_0 = const()[name = tensor<string, []>("mh_w_15_transpose_y_0"), val = tensor<bool, []>(false)];
            tensor<fp16, [1, 16, 1500, 1500]> mh_w_15_cast_fp16 = matmul(transpose_x = mh_w_15_transpose_x_0, transpose_y = mh_w_15_transpose_y_0, x = var_1059_cast_fp16, y = var_1063_cast_fp16)[name = tensor<string, []>("mh_w_15_cast_fp16")];
            tensor<fp16, [1, 16, 1500, 1500]> var_1066_cast_fp16 = softmax(axis = var_998, x = mh_w_15_cast_fp16)[name = tensor<string, []>("op_1066_cast_fp16")];
            tensor<int32, [4]> var_1067 = const()[name = tensor<string, []>("op_1067"), val = tensor<int32, [4]>([1, 16, 64, 1500])];
            tensor<fp16, [1, 16, 64, 1500]> var_1068_cast_fp16 = reshape(shape = var_1067, x = value_15_cast_fp16)[name = tensor<string, []>("op_1068_cast_fp16")];
            tensor<bool, []> attn_15_transpose_x_0 = const()[name = tensor<string, []>("attn_15_transpose_x_0"), val = tensor<bool, []>(false)];
            tensor<bool, []> attn_15_transpose_y_0 = const()[name = tensor<string, []>("attn_15_transpose_y_0"), val = tensor<bool, []>(true)];
            tensor<fp16, [1, 16, 64, 1500]> attn_15_cast_fp16 = matmul(transpose_x = attn_15_transpose_x_0, transpose_y = attn_15_transpose_y_0, x = var_1068_cast_fp16, y = var_1066_cast_fp16)[name = tensor<string, []>("attn_15_cast_fp16")];
            tensor<int32, [4]> var_1071 = const()[name = tensor<string, []>("op_1071"), val = tensor<int32, [4]>([1, 1024, 1, 1500])];
            tensor<fp16, [1, 1024, 1, 1500]> input_57_cast_fp16 = reshape(shape = var_1071, x = attn_15_cast_fp16)[name = tensor<string, []>("input_57_cast_fp16")];
            tensor<string, []> obj_31_pad_type_0 = const()[name = tensor<string, []>("obj_31_pad_type_0"), val = tensor<string, []>("valid")];
            tensor<int32, [2]> obj_31_strides_0 = const()[name = tensor<string, []>("obj_31_strides_0"), val = tensor<int32, [2]>([1, 1])];
            tensor<int32, [4]> obj_31_pad_0 = const()[name = tensor<string, []>("obj_31_pad_0"), val = tensor<int32, [4]>([0, 0, 0, 0])];
            tensor<int32, [2]> obj_31_dilations_0 = const()[name = tensor<string, []>("obj_31_dilations_0"), val = tensor<int32, [2]>([1, 1])];
            tensor<int32, []> obj_31_groups_0 = const()[name = tensor<string, []>("obj_31_groups_0"), val = tensor<int32, []>(1)];
            tensor<fp16, [1024, 1024, 1, 1]> layers_7_self_attn_o_proj_weight_to_fp16 = const()[name = tensor<string, []>("layers_7_self_attn_o_proj_weight_to_fp16"), val = tensor<fp16, [1024, 1024, 1, 1]>(BLOBFILE(path = tensor<string, []>("@model_path/weights/weight.bin"), offset = tensor<uint64, []>(192503296)))];
            tensor<fp16, [1024]> layers_7_self_attn_o_proj_bias_to_fp16 = const()[name = tensor<string, []>("layers_7_self_attn_o_proj_bias_to_fp16"), val = tensor<fp16, [1024]>(BLOBFILE(path = tensor<string, []>("@model_path/weights/weight.bin"), offset = tensor<uint64, []>(194600512)))];
            tensor<fp16, [1, 1024, 1, 1500]> obj_31_cast_fp16 = conv(bias = layers_7_self_attn_o_proj_bias_to_fp16, dilations = obj_31_dilations_0, groups = obj_31_groups_0, pad = obj_31_pad_0, pad_type = obj_31_pad_type_0, strides = obj_31_strides_0, weight = layers_7_self_attn_o_proj_weight_to_fp16, x = input_57_cast_fp16)[name = tensor<string, []>("obj_31_cast_fp16")];
            tensor<fp16, [1, 1024, 1, 1500]> inputs_31_cast_fp16 = add(x = inputs_29_cast_fp16, y = obj_31_cast_fp16)[name = tensor<string, []>("inputs_31_cast_fp16")];
            tensor<int32, [1]> out_31_axes_0 = const()[name = tensor<string, []>("out_31_axes_0"), val = tensor<int32, [1]>([1])];
            tensor<fp16, []> var_1089_to_fp16 = const()[name = tensor<string, []>("op_1089_to_fp16"), val = tensor<fp16, []>(0x1.5p-17)];
            tensor<fp16, [1, 1024, 1, 1500]> out_31_cast_fp16 = layer_norm(axes = out_31_axes_0, epsilon = var_1089_to_fp16, x = inputs_31_cast_fp16)[name = tensor<string, []>("out_31_cast_fp16")];
            tensor<fp16, [1024]> input_59_gamma_0_to_fp16 = const()[name = tensor<string, []>("input_59_gamma_0_to_fp16"), val = tensor<fp16, [1024]>(BLOBFILE(path = tensor<string, []>("@model_path/weights/weight.bin"), offset = tensor<uint64, []>(194602624)))];
            tensor<fp16, [1024]> input_59_beta_0_to_fp16 = const()[name = tensor<string, []>("input_59_beta_0_to_fp16"), val = tensor<fp16, [1024]>(BLOBFILE(path = tensor<string, []>("@model_path/weights/weight.bin"), offset = tensor<uint64, []>(194604736)))];
            tensor<fp16, []> input_59_epsilon_0_to_fp16 = const()[name = tensor<string, []>("input_59_epsilon_0_to_fp16"), val = tensor<fp16, []>(0x1.5p-17)];
            tensor<fp16, [1, 1024, 1, 1500]> input_59_cast_fp16 = batch_norm(beta = input_59_beta_0_to_fp16, epsilon = input_59_epsilon_0_to_fp16, gamma = input_59_gamma_0_to_fp16, mean = obj_1_mean_0_to_fp16, variance = obj_1_variance_0_to_fp16, x = out_31_cast_fp16)[name = tensor<string, []>("input_59_cast_fp16")];
            tensor<string, []> input_61_pad_type_0 = const()[name = tensor<string, []>("input_61_pad_type_0"), val = tensor<string, []>("valid")];
            tensor<int32, [2]> input_61_strides_0 = const()[name = tensor<string, []>("input_61_strides_0"), val = tensor<int32, [2]>([1, 1])];
            tensor<int32, [4]> input_61_pad_0 = const()[name = tensor<string, []>("input_61_pad_0"), val = tensor<int32, [4]>([0, 0, 0, 0])];
            tensor<int32, [2]> input_61_dilations_0 = const()[name = tensor<string, []>("input_61_dilations_0"), val = tensor<int32, [2]>([1, 1])];
            tensor<int32, []> input_61_groups_0 = const()[name = tensor<string, []>("input_61_groups_0"), val = tensor<int32, []>(1)];
            tensor<fp16, [4096, 1024, 1, 1]> layers_7_fc1_weight_to_fp16 = const()[name = tensor<string, []>("layers_7_fc1_weight_to_fp16"), val = tensor<fp16, [4096, 1024, 1, 1]>(BLOBFILE(path = tensor<string, []>("@model_path/weights/weight.bin"), offset = tensor<uint64, []>(194606848)))];
            tensor<fp16, [4096]> layers_7_fc1_bias_to_fp16 = const()[name = tensor<string, []>("layers_7_fc1_bias_to_fp16"), val = tensor<fp16, [4096]>(BLOBFILE(path = tensor<string, []>("@model_path/weights/weight.bin"), offset = tensor<uint64, []>(202995520)))];
            tensor<fp16, [1, 4096, 1, 1500]> input_61_cast_fp16 = conv(bias = layers_7_fc1_bias_to_fp16, dilations = input_61_dilations_0, groups = input_61_groups_0, pad = input_61_pad_0, pad_type = input_61_pad_type_0, strides = input_61_strides_0, weight = layers_7_fc1_weight_to_fp16, x = input_59_cast_fp16)[name = tensor<string, []>("input_61_cast_fp16")];
            tensor<string, []> input_63_mode_0 = const()[name = tensor<string, []>("input_63_mode_0"), val = tensor<string, []>("EXACT")];
            tensor<fp16, [1, 4096, 1, 1500]> input_63_cast_fp16 = gelu(mode = input_63_mode_0, x = input_61_cast_fp16)[name = tensor<string, []>("input_63_cast_fp16")];
            tensor<string, []> hidden_states_19_pad_type_0 = const()[name = tensor<string, []>("hidden_states_19_pad_type_0"), val = tensor<string, []>("valid")];
            tensor<int32, [2]> hidden_states_19_strides_0 = const()[name = tensor<string, []>("hidden_states_19_strides_0"), val = tensor<int32, [2]>([1, 1])];
            tensor<int32, [4]> hidden_states_19_pad_0 = const()[name = tensor<string, []>("hidden_states_19_pad_0"), val = tensor<int32, [4]>([0, 0, 0, 0])];
            tensor<int32, [2]> hidden_states_19_dilations_0 = const()[name = tensor<string, []>("hidden_states_19_dilations_0"), val = tensor<int32, [2]>([1, 1])];
            tensor<int32, []> hidden_states_19_groups_0 = const()[name = tensor<string, []>("hidden_states_19_groups_0"), val = tensor<int32, []>(1)];
            tensor<fp16, [1024, 4096, 1, 1]> layers_7_fc2_weight_to_fp16 = const()[name = tensor<string, []>("layers_7_fc2_weight_to_fp16"), val = tensor<fp16, [1024, 4096, 1, 1]>(BLOBFILE(path = tensor<string, []>("@model_path/weights/weight.bin"), offset = tensor<uint64, []>(203003776)))];
            tensor<fp16, [1024]> layers_7_fc2_bias_to_fp16 = const()[name = tensor<string, []>("layers_7_fc2_bias_to_fp16"), val = tensor<fp16, [1024]>(BLOBFILE(path = tensor<string, []>("@model_path/weights/weight.bin"), offset = tensor<uint64, []>(211392448)))];
            tensor<fp16, [1, 1024, 1, 1500]> hidden_states_19_cast_fp16 = conv(bias = layers_7_fc2_bias_to_fp16, dilations = hidden_states_19_dilations_0, groups = hidden_states_19_groups_0, pad = hidden_states_19_pad_0, pad_type = hidden_states_19_pad_type_0, strides = hidden_states_19_strides_0, weight = layers_7_fc2_weight_to_fp16, x = input_63_cast_fp16)[name = tensor<string, []>("hidden_states_19_cast_fp16")];
            tensor<fp16, [1, 1024, 1, 1500]> inputs_33_cast_fp16 = add(x = inputs_31_cast_fp16, y = hidden_states_19_cast_fp16)[name = tensor<string, []>("inputs_33_cast_fp16")];
            tensor<int32, []> var_1118 = const()[name = tensor<string, []>("op_1118"), val = tensor<int32, []>(3)];
            tensor<int32, [1]> out_33_axes_0 = const()[name = tensor<string, []>("out_33_axes_0"), val = tensor<int32, [1]>([1])];
            tensor<fp16, []> var_1140_to_fp16 = const()[name = tensor<string, []>("op_1140_to_fp16"), val = tensor<fp16, []>(0x1.5p-17)];
            tensor<fp16, [1, 1024, 1, 1500]> out_33_cast_fp16 = layer_norm(axes = out_33_axes_0, epsilon = var_1140_to_fp16, x = inputs_33_cast_fp16)[name = tensor<string, []>("out_33_cast_fp16")];
            tensor<fp16, [1024]> obj_33_gamma_0_to_fp16 = const()[name = tensor<string, []>("obj_33_gamma_0_to_fp16"), val = tensor<fp16, [1024]>(BLOBFILE(path = tensor<string, []>("@model_path/weights/weight.bin"), offset = tensor<uint64, []>(211394560)))];
            tensor<fp16, [1024]> obj_33_beta_0_to_fp16 = const()[name = tensor<string, []>("obj_33_beta_0_to_fp16"), val = tensor<fp16, [1024]>(BLOBFILE(path = tensor<string, []>("@model_path/weights/weight.bin"), offset = tensor<uint64, []>(211396672)))];
            tensor<fp16, []> obj_33_epsilon_0_to_fp16 = const()[name = tensor<string, []>("obj_33_epsilon_0_to_fp16"), val = tensor<fp16, []>(0x1.5p-17)];
            tensor<fp16, [1, 1024, 1, 1500]> obj_33_cast_fp16 = batch_norm(beta = obj_33_beta_0_to_fp16, epsilon = obj_33_epsilon_0_to_fp16, gamma = obj_33_gamma_0_to_fp16, mean = obj_1_mean_0_to_fp16, variance = obj_1_variance_0_to_fp16, x = out_33_cast_fp16)[name = tensor<string, []>("obj_33_cast_fp16")];
            tensor<string, []> query_17_pad_type_0 = const()[name = tensor<string, []>("query_17_pad_type_0"), val = tensor<string, []>("valid")];
            tensor<int32, [2]> query_17_strides_0 = const()[name = tensor<string, []>("query_17_strides_0"), val = tensor<int32, [2]>([1, 1])];
            tensor<int32, [4]> query_17_pad_0 = const()[name = tensor<string, []>("query_17_pad_0"), val = tensor<int32, [4]>([0, 0, 0, 0])];
            tensor<int32, [2]> query_17_dilations_0 = const()[name = tensor<string, []>("query_17_dilations_0"), val = tensor<int32, [2]>([1, 1])];
            tensor<int32, []> query_17_groups_0 = const()[name = tensor<string, []>("query_17_groups_0"), val = tensor<int32, []>(1)];
            tensor<fp16, [1024, 1024, 1, 1]> layers_8_self_attn_q_proj_weight_to_fp16 = const()[name = tensor<string, []>("layers_8_self_attn_q_proj_weight_to_fp16"), val = tensor<fp16, [1024, 1024, 1, 1]>(BLOBFILE(path = tensor<string, []>("@model_path/weights/weight.bin"), offset = tensor<uint64, []>(211398784)))];
            tensor<fp16, [1024]> layers_8_self_attn_q_proj_bias_to_fp16 = const()[name = tensor<string, []>("layers_8_self_attn_q_proj_bias_to_fp16"), val = tensor<fp16, [1024]>(BLOBFILE(path = tensor<string, []>("@model_path/weights/weight.bin"), offset = tensor<uint64, []>(213496000)))];
            tensor<fp16, [1, 1024, 1, 1500]> query_17_cast_fp16 = conv(bias = layers_8_self_attn_q_proj_bias_to_fp16, dilations = query_17_dilations_0, groups = query_17_groups_0, pad = query_17_pad_0, pad_type = query_17_pad_type_0, strides = query_17_strides_0, weight = layers_8_self_attn_q_proj_weight_to_fp16, x = obj_33_cast_fp16)[name = tensor<string, []>("query_17_cast_fp16")];
            tensor<string, []> key_17_pad_type_0 = const()[name = tensor<string, []>("key_17_pad_type_0"), val = tensor<string, []>("valid")];
            tensor<int32, [2]> key_17_strides_0 = const()[name = tensor<string, []>("key_17_strides_0"), val = tensor<int32, [2]>([1, 1])];
            tensor<int32, [4]> key_17_pad_0 = const()[name = tensor<string, []>("key_17_pad_0"), val = tensor<int32, [4]>([0, 0, 0, 0])];
            tensor<int32, [2]> key_17_dilations_0 = const()[name = tensor<string, []>("key_17_dilations_0"), val = tensor<int32, [2]>([1, 1])];
            tensor<int32, []> key_17_groups_0 = const()[name = tensor<string, []>("key_17_groups_0"), val = tensor<int32, []>(1)];
            tensor<fp16, [1024, 1024, 1, 1]> layers_8_self_attn_k_proj_weight_to_fp16 = const()[name = tensor<string, []>("layers_8_self_attn_k_proj_weight_to_fp16"), val = tensor<fp16, [1024, 1024, 1, 1]>(BLOBFILE(path = tensor<string, []>("@model_path/weights/weight.bin"), offset = tensor<uint64, []>(213498112)))];
            tensor<fp16, [1, 1024, 1, 1500]> key_17_cast_fp16 = conv(dilations = key_17_dilations_0, groups = key_17_groups_0, pad = key_17_pad_0, pad_type = key_17_pad_type_0, strides = key_17_strides_0, weight = layers_8_self_attn_k_proj_weight_to_fp16, x = obj_33_cast_fp16)[name = tensor<string, []>("key_17_cast_fp16")];
            tensor<string, []> value_17_pad_type_0 = const()[name = tensor<string, []>("value_17_pad_type_0"), val = tensor<string, []>("valid")];
            tensor<int32, [2]> value_17_strides_0 = const()[name = tensor<string, []>("value_17_strides_0"), val = tensor<int32, [2]>([1, 1])];
            tensor<int32, [4]> value_17_pad_0 = const()[name = tensor<string, []>("value_17_pad_0"), val = tensor<int32, [4]>([0, 0, 0, 0])];
            tensor<int32, [2]> value_17_dilations_0 = const()[name = tensor<string, []>("value_17_dilations_0"), val = tensor<int32, [2]>([1, 1])];
            tensor<int32, []> value_17_groups_0 = const()[name = tensor<string, []>("value_17_groups_0"), val = tensor<int32, []>(1)];
            tensor<fp16, [1024, 1024, 1, 1]> layers_8_self_attn_v_proj_weight_to_fp16 = const()[name = tensor<string, []>("layers_8_self_attn_v_proj_weight_to_fp16"), val = tensor<fp16, [1024, 1024, 1, 1]>(BLOBFILE(path = tensor<string, []>("@model_path/weights/weight.bin"), offset = tensor<uint64, []>(215595328)))];
            tensor<fp16, [1024]> layers_8_self_attn_v_proj_bias_to_fp16 = const()[name = tensor<string, []>("layers_8_self_attn_v_proj_bias_to_fp16"), val = tensor<fp16, [1024]>(BLOBFILE(path = tensor<string, []>("@model_path/weights/weight.bin"), offset = tensor<uint64, []>(217692544)))];
            tensor<fp16, [1, 1024, 1, 1500]> value_17_cast_fp16 = conv(bias = layers_8_self_attn_v_proj_bias_to_fp16, dilations = value_17_dilations_0, groups = value_17_groups_0, pad = value_17_pad_0, pad_type = value_17_pad_type_0, strides = value_17_strides_0, weight = layers_8_self_attn_v_proj_weight_to_fp16, x = obj_33_cast_fp16)[name = tensor<string, []>("value_17_cast_fp16")];
            tensor<int32, [4]> var_1176 = const()[name = tensor<string, []>("op_1176"), val = tensor<int32, [4]>([1, 16, 64, 1500])];
            tensor<fp16, [1, 16, 64, 1500]> mh_q_17_cast_fp16 = reshape(shape = var_1176, x = query_17_cast_fp16)[name = tensor<string, []>("mh_q_17_cast_fp16")];
            tensor<fp16, []> var_1178_to_fp16 = const()[name = tensor<string, []>("op_1178_to_fp16"), val = tensor<fp16, []>(0x1p-3)];
            tensor<fp16, [1, 16, 64, 1500]> var_1179_cast_fp16 = mul(x = mh_q_17_cast_fp16, y = var_1178_to_fp16)[name = tensor<string, []>("op_1179_cast_fp16")];
            tensor<int32, [4]> var_1182 = const()[name = tensor<string, []>("op_1182"), val = tensor<int32, [4]>([1, 16, 64, 1500])];
            tensor<fp16, [1, 16, 64, 1500]> var_1183_cast_fp16 = reshape(shape = var_1182, x = key_17_cast_fp16)[name = tensor<string, []>("op_1183_cast_fp16")];
            tensor<bool, []> mh_w_17_transpose_x_0 = const()[name = tensor<string, []>("mh_w_17_transpose_x_0"), val = tensor<bool, []>(true)];
            tensor<bool, []> mh_w_17_transpose_y_0 = const()[name = tensor<string, []>("mh_w_17_transpose_y_0"), val = tensor<bool, []>(false)];
            tensor<fp16, [1, 16, 1500, 1500]> mh_w_17_cast_fp16 = matmul(transpose_x = mh_w_17_transpose_x_0, transpose_y = mh_w_17_transpose_y_0, x = var_1179_cast_fp16, y = var_1183_cast_fp16)[name = tensor<string, []>("mh_w_17_cast_fp16")];
            tensor<fp16, [1, 16, 1500, 1500]> var_1186_cast_fp16 = softmax(axis = var_1118, x = mh_w_17_cast_fp16)[name = tensor<string, []>("op_1186_cast_fp16")];
            tensor<int32, [4]> var_1187 = const()[name = tensor<string, []>("op_1187"), val = tensor<int32, [4]>([1, 16, 64, 1500])];
            tensor<fp16, [1, 16, 64, 1500]> var_1188_cast_fp16 = reshape(shape = var_1187, x = value_17_cast_fp16)[name = tensor<string, []>("op_1188_cast_fp16")];
            tensor<bool, []> attn_17_transpose_x_0 = const()[name = tensor<string, []>("attn_17_transpose_x_0"), val = tensor<bool, []>(false)];
            tensor<bool, []> attn_17_transpose_y_0 = const()[name = tensor<string, []>("attn_17_transpose_y_0"), val = tensor<bool, []>(true)];
            tensor<fp16, [1, 16, 64, 1500]> attn_17_cast_fp16 = matmul(transpose_x = attn_17_transpose_x_0, transpose_y = attn_17_transpose_y_0, x = var_1188_cast_fp16, y = var_1186_cast_fp16)[name = tensor<string, []>("attn_17_cast_fp16")];
            tensor<int32, [4]> var_1191 = const()[name = tensor<string, []>("op_1191"), val = tensor<int32, [4]>([1, 1024, 1, 1500])];
            tensor<fp16, [1, 1024, 1, 1500]> input_65_cast_fp16 = reshape(shape = var_1191, x = attn_17_cast_fp16)[name = tensor<string, []>("input_65_cast_fp16")];
            tensor<string, []> obj_35_pad_type_0 = const()[name = tensor<string, []>("obj_35_pad_type_0"), val = tensor<string, []>("valid")];
            tensor<int32, [2]> obj_35_strides_0 = const()[name = tensor<string, []>("obj_35_strides_0"), val = tensor<int32, [2]>([1, 1])];
            tensor<int32, [4]> obj_35_pad_0 = const()[name = tensor<string, []>("obj_35_pad_0"), val = tensor<int32, [4]>([0, 0, 0, 0])];
            tensor<int32, [2]> obj_35_dilations_0 = const()[name = tensor<string, []>("obj_35_dilations_0"), val = tensor<int32, [2]>([1, 1])];
            tensor<int32, []> obj_35_groups_0 = const()[name = tensor<string, []>("obj_35_groups_0"), val = tensor<int32, []>(1)];
            tensor<fp16, [1024, 1024, 1, 1]> layers_8_self_attn_o_proj_weight_to_fp16 = const()[name = tensor<string, []>("layers_8_self_attn_o_proj_weight_to_fp16"), val = tensor<fp16, [1024, 1024, 1, 1]>(BLOBFILE(path = tensor<string, []>("@model_path/weights/weight.bin"), offset = tensor<uint64, []>(217694656)))];
            tensor<fp16, [1024]> layers_8_self_attn_o_proj_bias_to_fp16 = const()[name = tensor<string, []>("layers_8_self_attn_o_proj_bias_to_fp16"), val = tensor<fp16, [1024]>(BLOBFILE(path = tensor<string, []>("@model_path/weights/weight.bin"), offset = tensor<uint64, []>(219791872)))];
            tensor<fp16, [1, 1024, 1, 1500]> obj_35_cast_fp16 = conv(bias = layers_8_self_attn_o_proj_bias_to_fp16, dilations = obj_35_dilations_0, groups = obj_35_groups_0, pad = obj_35_pad_0, pad_type = obj_35_pad_type_0, strides = obj_35_strides_0, weight = layers_8_self_attn_o_proj_weight_to_fp16, x = input_65_cast_fp16)[name = tensor<string, []>("obj_35_cast_fp16")];
            tensor<fp16, [1, 1024, 1, 1500]> inputs_35_cast_fp16 = add(x = inputs_33_cast_fp16, y = obj_35_cast_fp16)[name = tensor<string, []>("inputs_35_cast_fp16")];
            tensor<int32, [1]> out_35_axes_0 = const()[name = tensor<string, []>("out_35_axes_0"), val = tensor<int32, [1]>([1])];
            tensor<fp16, []> var_1209_to_fp16 = const()[name = tensor<string, []>("op_1209_to_fp16"), val = tensor<fp16, []>(0x1.5p-17)];
            tensor<fp16, [1, 1024, 1, 1500]> out_35_cast_fp16 = layer_norm(axes = out_35_axes_0, epsilon = var_1209_to_fp16, x = inputs_35_cast_fp16)[name = tensor<string, []>("out_35_cast_fp16")];
            tensor<fp16, [1024]> input_67_gamma_0_to_fp16 = const()[name = tensor<string, []>("input_67_gamma_0_to_fp16"), val = tensor<fp16, [1024]>(BLOBFILE(path = tensor<string, []>("@model_path/weights/weight.bin"), offset = tensor<uint64, []>(219793984)))];
            tensor<fp16, [1024]> input_67_beta_0_to_fp16 = const()[name = tensor<string, []>("input_67_beta_0_to_fp16"), val = tensor<fp16, [1024]>(BLOBFILE(path = tensor<string, []>("@model_path/weights/weight.bin"), offset = tensor<uint64, []>(219796096)))];
            tensor<fp16, []> input_67_epsilon_0_to_fp16 = const()[name = tensor<string, []>("input_67_epsilon_0_to_fp16"), val = tensor<fp16, []>(0x1.5p-17)];
            tensor<fp16, [1, 1024, 1, 1500]> input_67_cast_fp16 = batch_norm(beta = input_67_beta_0_to_fp16, epsilon = input_67_epsilon_0_to_fp16, gamma = input_67_gamma_0_to_fp16, mean = obj_1_mean_0_to_fp16, variance = obj_1_variance_0_to_fp16, x = out_35_cast_fp16)[name = tensor<string, []>("input_67_cast_fp16")];
            tensor<string, []> input_69_pad_type_0 = const()[name = tensor<string, []>("input_69_pad_type_0"), val = tensor<string, []>("valid")];
            tensor<int32, [2]> input_69_strides_0 = const()[name = tensor<string, []>("input_69_strides_0"), val = tensor<int32, [2]>([1, 1])];
            tensor<int32, [4]> input_69_pad_0 = const()[name = tensor<string, []>("input_69_pad_0"), val = tensor<int32, [4]>([0, 0, 0, 0])];
            tensor<int32, [2]> input_69_dilations_0 = const()[name = tensor<string, []>("input_69_dilations_0"), val = tensor<int32, [2]>([1, 1])];
            tensor<int32, []> input_69_groups_0 = const()[name = tensor<string, []>("input_69_groups_0"), val = tensor<int32, []>(1)];
            tensor<fp16, [4096, 1024, 1, 1]> layers_8_fc1_weight_to_fp16 = const()[name = tensor<string, []>("layers_8_fc1_weight_to_fp16"), val = tensor<fp16, [4096, 1024, 1, 1]>(BLOBFILE(path = tensor<string, []>("@model_path/weights/weight.bin"), offset = tensor<uint64, []>(219798208)))];
            tensor<fp16, [4096]> layers_8_fc1_bias_to_fp16 = const()[name = tensor<string, []>("layers_8_fc1_bias_to_fp16"), val = tensor<fp16, [4096]>(BLOBFILE(path = tensor<string, []>("@model_path/weights/weight.bin"), offset = tensor<uint64, []>(228186880)))];
            tensor<fp16, [1, 4096, 1, 1500]> input_69_cast_fp16 = conv(bias = layers_8_fc1_bias_to_fp16, dilations = input_69_dilations_0, groups = input_69_groups_0, pad = input_69_pad_0, pad_type = input_69_pad_type_0, strides = input_69_strides_0, weight = layers_8_fc1_weight_to_fp16, x = input_67_cast_fp16)[name = tensor<string, []>("input_69_cast_fp16")];
            tensor<string, []> input_71_mode_0 = const()[name = tensor<string, []>("input_71_mode_0"), val = tensor<string, []>("EXACT")];
            tensor<fp16, [1, 4096, 1, 1500]> input_71_cast_fp16 = gelu(mode = input_71_mode_0, x = input_69_cast_fp16)[name = tensor<string, []>("input_71_cast_fp16")];
            tensor<string, []> hidden_states_21_pad_type_0 = const()[name = tensor<string, []>("hidden_states_21_pad_type_0"), val = tensor<string, []>("valid")];
            tensor<int32, [2]> hidden_states_21_strides_0 = const()[name = tensor<string, []>("hidden_states_21_strides_0"), val = tensor<int32, [2]>([1, 1])];
            tensor<int32, [4]> hidden_states_21_pad_0 = const()[name = tensor<string, []>("hidden_states_21_pad_0"), val = tensor<int32, [4]>([0, 0, 0, 0])];
            tensor<int32, [2]> hidden_states_21_dilations_0 = const()[name = tensor<string, []>("hidden_states_21_dilations_0"), val = tensor<int32, [2]>([1, 1])];
            tensor<int32, []> hidden_states_21_groups_0 = const()[name = tensor<string, []>("hidden_states_21_groups_0"), val = tensor<int32, []>(1)];
            tensor<fp16, [1024, 4096, 1, 1]> layers_8_fc2_weight_to_fp16 = const()[name = tensor<string, []>("layers_8_fc2_weight_to_fp16"), val = tensor<fp16, [1024, 4096, 1, 1]>(BLOBFILE(path = tensor<string, []>("@model_path/weights/weight.bin"), offset = tensor<uint64, []>(228195136)))];
            tensor<fp16, [1024]> layers_8_fc2_bias_to_fp16 = const()[name = tensor<string, []>("layers_8_fc2_bias_to_fp16"), val = tensor<fp16, [1024]>(BLOBFILE(path = tensor<string, []>("@model_path/weights/weight.bin"), offset = tensor<uint64, []>(236583808)))];
…
            tensor<fp16, []> var_2700_to_fp16 = const()[name = tensor<string, []>("op_2700_to_fp16"), val = tensor<fp16, []>(0x1.5p-17)];
            tensor<fp16, [1, 1024, 1, 1500]> out_85_cast_fp16 = layer_norm(axes = out_85_axes_0, epsilon = var_2700_to_fp16, x = inputs_85_cast_fp16)[name = tensor<string, []>("out_85_cast_fp16")];
            tensor<fp16, [1024]> obj_85_gamma_0_to_fp16 = const()[name = tensor<string, []>("obj_85_gamma_0_to_fp16"), val = tensor<fp16, [1024]>(BLOBFILE(path = tensor<string, []>("@model_path/weights/weight.bin"), offset = tensor<uint64, []>(538882240)))];
            tensor<fp16, [1024]> obj_85_beta_0_to_fp16 = const()[name = tensor<string, []>("obj_85_beta_0_to_fp16"), val = tensor<fp16, [1024]>(BLOBFILE(path = tensor<string, []>("@model_path/weights/weight.bin"), offset = tensor<uint64, []>(538884352)))];
            tensor<fp16, []> obj_85_epsilon_0_to_fp16 = const()[name = tensor<string, []>("obj_85_epsilon_0_to_fp16"), val = tensor<fp16, []>(0x1.5p-17)];
            tensor<fp16, [1, 1024, 1, 1500]> obj_85_cast_fp16 = batch_norm(beta = obj_85_beta_0_to_fp16, epsilon = obj_85_epsilon_0_to_fp16, gamma = obj_85_gamma_0_to_fp16, mean = obj_1_mean_0_to_fp16, variance = obj_1_variance_0_to_fp16, x = out_85_cast_fp16)[name = tensor<string, []>("obj_85_cast_fp16")];
            tensor<string, []> query_43_pad_type_0 = const()[name = tensor<string, []>("query_43_pad_type_0"), val = tensor<string, []>("valid")];
            tensor<int32, [2]> query_43_strides_0 = const()[name = tensor<string, []>("query_43_strides_0"), val = tensor<int32, [2]>([1, 1])];
            tensor<int32, [4]> query_43_pad_0 = const()[name = tensor<string, []>("query_43_pad_0"), val = tensor<int32, [4]>([0, 0, 0, 0])];
            tensor<int32, [2]> query_43_dilations_0 = const()[name = tensor<string, []>("query_43_dilations_0"), val = tensor<int32, [2]>([1, 1])];
            tensor<int32, []> query_43_groups_0 = const()[name = tensor<string, []>("query_43_groups_0"), val = tensor<int32, []>(1)];
            tensor<fp16, [1024, 1024, 1, 1]> layers_21_self_attn_q_proj_weight_to_fp16 = const()[name = tensor<string, []>("layers_21_self_attn_q_proj_weight_to_fp16"), val = tensor<fp16, [1024, 1024, 1, 1]>(BLOBFILE(path = tensor<string, []>("@model_path/weights/weight.bin"), offset = tensor<uint64, []>(538886464)))];
            tensor<fp16, [1024]> layers_21_self_attn_q_proj_bias_to_fp16 = const()[name = tensor<string, []>("layers_21_self_attn_q_proj_bias_to_fp16"), val = tensor<fp16, [1024]>(BLOBFILE(path = tensor<string, []>("@model_path/weights/weight.bin"), offset = tensor<uint64, []>(540983680)))];
            tensor<fp16, [1, 1024, 1, 1500]> query_43_cast_fp16 = conv(bias = layers_21_self_attn_q_proj_bias_to_fp16, dilations = query_43_dilations_0, groups = query_43_groups_0, pad = query_43_pad_0, pad_type = query_43_pad_type_0, strides = query_43_strides_0, weight = layers_21_self_attn_q_proj_weight_to_fp16, x = obj_85_cast_fp16)[name = tensor<string, []>("query_43_cast_fp16")];
            tensor<string, []> key_43_pad_type_0 = const()[name = tensor<string, []>("key_43_pad_type_0"), val = tensor<string, []>("valid")];
            tensor<int32, [2]> key_43_strides_0 = const()[name = tensor<string, []>("key_43_strides_0"), val = tensor<int32, [2]>([1, 1])];
            tensor<int32, [4]> key_43_pad_0 = const()[name = tensor<string, []>("key_43_pad_0"), val = tensor<int32, [4]>([0, 0, 0, 0])];
            tensor<int32, [2]> key_43_dilations_0 = const()[name = tensor<string, []>("key_43_dilations_0"), val = tensor<int32, [2]>([1, 1])];
            tensor<int32, []> key_43_groups_0 = const()[name = tensor<string, []>("key_43_groups_0"), val = tensor<int32, []>(1)];
            tensor<fp16, [1024, 1024, 1, 1]> layers_21_self_attn_k_proj_weight_to_fp16 = const()[name = tensor<string, []>("layers_21_self_attn_k_proj_weight_to_fp16"), val = tensor<fp16, [1024, 1024, 1, 1]>(BLOBFILE(path = tensor<string, []>("@model_path/weights/weight.bin"), offset = tensor<uint64, []>(540985792)))];
            tensor<fp16, [1, 1024, 1, 1500]> key_43_cast_fp16 = conv(dilations = key_43_dilations_0, groups = key_43_groups_0, pad = key_43_pad_0, pad_type = key_43_pad_type_0, strides = key_43_strides_0, weight = layers_21_self_attn_k_proj_weight_to_fp16, x = obj_85_cast_fp16)[name = tensor<string, []>("key_43_cast_fp16")];
            tensor<string, []> value_43_pad_type_0 = const()[name = tensor<string, []>("value_43_pad_type_0"), val = tensor<string, []>("valid")];
            tensor<int32, [2]> value_43_strides_0 = const()[name = tensor<string, []>("value_43_strides_0"), val = tensor<int32, [2]>([1, 1])];
            tensor<int32, [4]> value_43_pad_0 = const()[name = tensor<string, []>("value_43_pad_0"), val = tensor<int32, [4]>([0, 0, 0, 0])];
            tensor<int32, [2]> value_43_dilations_0 = const()[name = tensor<string, []>("value_43_dilations_0"), val = tensor<int32, [2]>([1, 1])];
            tensor<int32, []> value_43_groups_0 = const()[name = tensor<string, []>("value_43_groups_0"), val = tensor<int32, []>(1)];
            tensor<fp16, [1024, 1024, 1, 1]> layers_21_self_attn_v_proj_weight_to_fp16 = const()[name = tensor<string, []>("layers_21_self_attn_v_proj_weight_to_fp16"), val = tensor<fp16, [1024, 1024, 1, 1]>(BLOBFILE(path = tensor<string, []>("@model_path/weights/weight.bin"), offset = tensor<uint64, []>(543083008)))];
            tensor<fp16, [1024]> layers_21_self_attn_v_proj_bias_to_fp16 = const()[name = tensor<string, []>("layers_21_self_attn_v_proj_bias_to_fp16"), val = tensor<fp16, [1024]>(BLOBFILE(path = tensor<string, []>("@model_path/weights/weight.bin"), offset = tensor<uint64, []>(545180224)))];
            tensor<fp16, [1, 1024, 1, 1500]> value_43_cast_fp16 = conv(bias = layers_21_self_attn_v_proj_bias_to_fp16, dilations = value_43_dilations_0, groups = value_43_groups_0, pad = value_43_pad_0, pad_type = value_43_pad_type_0, strides = value_43_strides_0, weight = layers_21_self_attn_v_proj_weight_to_fp16, x = obj_85_cast_fp16)[name = tensor<string, []>("value_43_cast_fp16")];
            tensor<int32, [4]> var_2736 = const()[name = tensor<string, []>("op_2736"), val = tensor<int32, [4]>([1, 16, 64, 1500])];
            tensor<fp16, [1, 16, 64, 1500]> mh_q_43_cast_fp16 = reshape(shape = var_2736, x = query_43_cast_fp16)[name = tensor<string, []>("mh_q_43_cast_fp16")];
            tensor<fp16, []> var_2738_to_fp16 = const()[name = tensor<string, []>("op_2738_to_fp16"), val = tensor<fp16, []>(0x1p-3)];
            tensor<fp16, [1, 16, 64, 1500]> var_2739_cast_fp16 = mul(x = mh_q_43_cast_fp16, y = var_2738_to_fp16)[name = tensor<string, []>("op_2739_cast_fp16")];
            tensor<int32, [4]> var_2742 = const()[name = tensor<string, []>("op_2742"), val = tensor<int32, [4]>([1, 16, 64, 1500])];
            tensor<fp16, [1, 16, 64, 1500]> var_2743_cast_fp16 = reshape(shape = var_2742, x = key_43_cast_fp16)[name = tensor<string, []>("op_2743_cast_fp16")];
            tensor<bool, []> mh_w_43_transpose_x_0 = const()[name = tensor<string, []>("mh_w_43_transpose_x_0"), val = tensor<bool, []>(true)];
            tensor<bool, []> mh_w_43_transpose_y_0 = const()[name = tensor<string, []>("mh_w_43_transpose_y_0"), val = tensor<bool, []>(false)];
            tensor<fp16, [1, 16, 1500, 1500]> mh_w_43_cast_fp16 = matmul(transpose_x = mh_w_43_transpose_x_0, transpose_y = mh_w_43_transpose_y_0, x = var_2739_cast_fp16, y = var_2743_cast_fp16)[name = tensor<string, []>("mh_w_43_cast_fp16")];
            tensor<fp16, [1, 16, 1500, 1500]> var_2746_cast_fp16 = softmax(axis = var_2678, x = mh_w_43_cast_fp16)[name = tensor<string, []>("op_2746_cast_fp16")];
            tensor<int32, [4]> var_2747 = const()[name = tensor<string, []>("op_2747"), val = tensor<int32, [4]>([1, 16, 64, 1500])];
            tensor<fp16, [1, 16, 64, 1500]> var_2748_cast_fp16 = reshape(shape = var_2747, x = value_43_cast_fp16)[name = tensor<string, []>("op_2748_cast_fp16")];
            tensor<bool, []> attn_43_transpose_x_0 = const()[name = tensor<string, []>("attn_43_transpose_x_0"), val = tensor<bool, []>(false)];
            tensor<bool, []> attn_43_transpose_y_0 = const()[name = tensor<string, []>("attn_43_transpose_y_0"), val = tensor<bool, []>(true)];
            tensor<fp16, [1, 16, 64, 1500]> attn_43_cast_fp16 = matmul(transpose_x = attn_43_transpose_x_0, transpose_y = attn_43_transpose_y_0, x = var_2748_cast_fp16, y = var_2746_cast_fp16)[name = tensor<string, []>("attn_43_cast_fp16")];
            tensor<int32, [4]> var_2751 = const()[name = tensor<string, []>("op_2751"), val = tensor<int32, [4]>([1, 1024, 1, 1500])];
            tensor<fp16, [1, 1024, 1, 1500]> input_169_cast_fp16 = reshape(shape = var_2751, x = attn_43_cast_fp16)[name = tensor<string, []>("input_169_cast_fp16")];
            tensor<string, []> obj_87_pad_type_0 = const()[name = tensor<string, []>("obj_87_pad_type_0"), val = tensor<string, []>("valid")];
            tensor<int32, [2]> obj_87_strides_0 = const()[name = tensor<string, []>("obj_87_strides_0"), val = tensor<int32, [2]>([1, 1])];
            tensor<int32, [4]> obj_87_pad_0 = const()[name = tensor<string, []>("obj_87_pad_0"), val = tensor<int32, [4]>([0, 0, 0, 0])];
            tensor<int32, [2]> obj_87_dilations_0 = const()[name = tensor<string, []>("obj_87_dilations_0"), val = tensor<int32, [2]>([1, 1])];
            tensor<int32, []> obj_87_groups_0 = const()[name = tensor<string, []>("obj_87_groups_0"), val = tensor<int32, []>(1)];
            tensor<fp16, [1024, 1024, 1, 1]> layers_21_self_attn_o_proj_weight_to_fp16 = const()[name = tensor<string, []>("layers_21_self_attn_o_proj_weight_to_fp16"), val = tensor<fp16, [1024, 1024, 1, 1]>(BLOBFILE(path = tensor<string, []>("@model_path/weights/weight.bin"), offset = tensor<uint64, []>(545182336)))];
            tensor<fp16, [1024]> layers_21_self_attn_o_proj_bias_to_fp16 = const()[name = tensor<string, []>("layers_21_self_attn_o_proj_bias_to_fp16"), val = tensor<fp16, [1024]>(BLOBFILE(path = tensor<string, []>("@model_path/weights/weight.bin"), offset = tensor<uint64, []>(547279552)))];
            tensor<fp16, [1, 1024, 1, 1500]> obj_87_cast_fp16 = conv(bias = layers_21_self_attn_o_proj_bias_to_fp16, dilations = obj_87_dilations_0, groups = obj_87_groups_0, pad = obj_87_pad_0, pad_type = obj_87_pad_type_0, strides = obj_87_strides_0, weight = layers_21_self_attn_o_proj_weight_to_fp16, x = input_169_cast_fp16)[name = tensor<string, []>("obj_87_cast_fp16")];
            tensor<fp16, [1, 1024, 1, 1500]> inputs_87_cast_fp16 = add(x = inputs_85_cast_fp16, y = obj_87_cast_fp16)[name = tensor<string, []>("inputs_87_cast_fp16")];
            tensor<int32, [1]> out_87_axes_0 = const()[name = tensor<string, []>("out_87_axes_0"), val = tensor<int32, [1]>([1])];
            tensor<fp16, []> var_2769_to_fp16 = const()[name = tensor<string, []>("op_2769_to_fp16"), val = tensor<fp16, []>(0x1.5p-17)];
            tensor<fp16, [1, 1024, 1, 1500]> out_87_cast_fp16 = layer_norm(axes = out_87_axes_0, epsilon = var_2769_to_fp16, x = inputs_87_cast_fp16)[name = tensor<string, []>("out_87_cast_fp16")];
            tensor<fp16, [1024]> input_171_gamma_0_to_fp16 = const()[name = tensor<string, []>("input_171_gamma_0_to_fp16"), val = tensor<fp16, [1024]>(BLOBFILE(path = tensor<string, []>("@model_path/weights/weight.bin"), offset = tensor<uint64, []>(547281664)))];
            tensor<fp16, [1024]> input_171_beta_0_to_fp16 = const()[name = tensor<string, []>("input_171_beta_0_to_fp16"), val = tensor<fp16, [1024]>(BLOBFILE(path = tensor<string, []>("@model_path/weights/weight.bin"), offset = tensor<uint64, []>(547283776)))];
            tensor<fp16, []> input_171_epsilon_0_to_fp16 = const()[name = tensor<string, []>("input_171_epsilon_0_to_fp16"), val = tensor<fp16, []>(0x1.5p-17)];
            tensor<fp16, [1, 1024, 1, 1500]> input_171_cast_fp16 = batch_norm(beta = input_171_beta_0_to_fp16, epsilon = input_171_epsilon_0_to_fp16, gamma = input_171_gamma_0_to_fp16, mean = obj_1_mean_0_to_fp16, variance = obj_1_variance_0_to_fp16, x = out_87_cast_fp16)[name = tensor<string, []>("input_171_cast_fp16")];
            tensor<string, []> input_173_pad_type_0 = const()[name = tensor<string, []>("input_173_pad_type_0"), val = tensor<string, []>("valid")];
            tensor<int32, [2]> input_173_strides_0 = const()[name = tensor<string, []>("input_173_strides_0"), val = tensor<int32, [2]>([1, 1])];
            tensor<int32, [4]> input_173_pad_0 = const()[name = tensor<string, []>("input_173_pad_0"), val = tensor<int32, [4]>([0, 0, 0, 0])];
            tensor<int32, [2]> input_173_dilations_0 = const()[name = tensor<string, []>("input_173_dilations_0"), val = tensor<int32, [2]>([1, 1])];
            tensor<int32, []> input_173_groups_0 = const()[name = tensor<string, []>("input_173_groups_0"), val = tensor<int32, []>(1)];
            tensor<fp16, [4096, 1024, 1, 1]> layers_21_fc1_weight_to_fp16 = const()[name = tensor<string, []>("layers_21_fc1_weight_to_fp16"), val = tensor<fp16, [4096, 1024, 1, 1]>(BLOBFILE(path = tensor<string, []>("@model_path/weights/weight.bin"), offset = tensor<uint64, []>(547285888)))];
            tensor<fp16, [4096]> layers_21_fc1_bias_to_fp16 = const()[name = tensor<string, []>("layers_21_fc1_bias_to_fp16"), val = tensor<fp16, [4096]>(BLOBFILE(path = tensor<string, []>("@model_path/weights/weight.bin"), offset = tensor<uint64, []>(555674560)))];
            tensor<fp16, [1, 4096, 1, 1500]> input_173_cast_fp16 = conv(bias = layers_21_fc1_bias_to_fp16, dilations = input_173_dilations_0, groups = input_173_groups_0, pad = input_173_pad_0, pad_type = input_173_pad_type_0, strides = input_173_strides_0, weight = layers_21_fc1_weight_to_fp16, x = input_171_cast_fp16)[name = tensor<string, []>("input_173_cast_fp16")];
            tensor<string, []> input_175_mode_0 = const()[name = tensor<string, []>("input_175_mode_0"), val = tensor<string, []>("EXACT")];
            tensor<fp16, [1, 4096, 1, 1500]> input_175_cast_fp16 = gelu(mode = input_175_mode_0, x = input_173_cast_fp16)[name = tensor<string, []>("input_175_cast_fp16")];
            tensor<string, []> hidden_states_47_pad_type_0 = const()[name = tensor<string, []>("hidden_states_47_pad_type_0"), val = tensor<string, []>("valid")];
            tensor<int32, [2]> hidden_states_47_strides_0 = const()[name = tensor<string, []>("hidden_states_47_strides_0"), val = tensor<int32, [2]>([1, 1])];
            tensor<int32, [4]> hidden_states_47_pad_0 = const()[name = tensor<string, []>("hidden_states_47_pad_0"), val = tensor<int32, [4]>([0, 0, 0, 0])];
            tensor<int32, [2]> hidden_states_47_dilations_0 = const()[name = tensor<string, []>("hidden_states_47_dilations_0"), val = tensor<int32, [2]>([1, 1])];
            tensor<int32, []> hidden_states_47_groups_0 = const()[name = tensor<string, []>("hidden_states_47_groups_0"), val = tensor<int32, []>(1)];
            tensor<fp16, [1024, 4096, 1, 1]> layers_21_fc2_weight_to_fp16 = const()[name = tensor<string, []>("layers_21_fc2_weight_to_fp16"), val = tensor<fp16, [1024, 4096, 1, 1]>(BLOBFILE(path = tensor<string, []>("@model_path/weights/weight.bin"), offset = tensor<uint64, []>(555682816)))];
            tensor<fp16, [1024]> layers_21_fc2_bias_to_fp16 = const()[name = tensor<string, []>("layers_21_fc2_bias_to_fp16"), val = tensor<fp16, [1024]>(BLOBFILE(path = tensor<string, []>("@model_path/weights/weight.bin"), offset = tensor<uint64, []>(564071488)))];
            tensor<fp16, [1, 1024, 1, 1500]> hidden_states_47_cast_fp16 = conv(bias = layers_21_fc2_bias_to_fp16, dilations = hidden_states_47_dilations_0, groups = hidden_states_47_groups_0, pad = hidden_states_47_pad_0, pad_type = hidden_states_47_pad_type_0, strides = hidden_states_47_strides_0, weight = layers_21_fc2_weight_to_fp16, x = input_175_cast_fp16)[name = tensor<string, []>("hidden_states_47_cast_fp16")];
            tensor<fp16, [1, 1024, 1, 1500]> inputs_89_cast_fp16 = add(x = inputs_87_cast_fp16, y = hidden_states_47_cast_fp16)[name = tensor<string, []>("inputs_89_cast_fp16")];
            tensor<int32, []> var_2798 = const()[name = tensor<string, []>("op_2798"), val = tensor<int32, []>(3)];
            tensor<int32, [1]> out_89_axes_0 = const()[name = tensor<string, []>("out_89_axes_0"), val = tensor<int32, [1]>([1])];
            tensor<fp16, []> var_2820_to_fp16 = const()[name = tensor<string, []>("op_2820_to_fp16"), val = tensor<fp16, []>(0x1.5p-17)];
            tensor<fp16, [1, 1024, 1, 1500]> out_89_cast_fp16 = layer_norm(axes = out_89_axes_0, epsilon = var_2820_to_fp16, x = inputs_89_cast_fp16)[name = tensor<string, []>("out_89_cast_fp16")];
            tensor<fp16, [1024]> obj_89_gamma_0_to_fp16 = const()[name = tensor<string, []>("obj_89_gamma_0_to_fp16"), val = tensor<fp16, [1024]>(BLOBFILE(path = tensor<string, []>("@model_path/weights/weight.bin"), offset = tensor<uint64, []>(564073600)))];
            tensor<fp16, [1024]> obj_89_beta_0_to_fp16 = const()[name = tensor<string, []>("obj_89_beta_0_to_fp16"), val = tensor<fp16, [1024]>(BLOBFILE(path = tensor<string, []>("@model_path/weights/weight.bin"), offset = tensor<uint64, []>(564075712)))];
            tensor<fp16, []> obj_89_epsilon_0_to_fp16 = const()[name = tensor<string, []>("obj_89_epsilon_0_to_fp16"), val = tensor<fp16, []>(0x1.5p-17)];
            tensor<fp16, [1, 1024, 1, 1500]> obj_89_cast_fp16 = batch_norm(beta = obj_89_beta_0_to_fp16, epsilon = obj_89_epsilon_0_to_fp16, gamma = obj_89_gamma_0_to_fp16, mean = obj_1_mean_0_to_fp16, variance = obj_1_variance_0_to_fp16, x = out_89_cast_fp16)[name = tensor<string, []>("obj_89_cast_fp16")];
            tensor<string, []> query_45_pad_type_0 = const()[name = tensor<string, []>("query_45_pad_type_0"), val = tensor<string, []>("valid")];
            tensor<int32, [2]> query_45_strides_0 = const()[name = tensor<string, []>("query_45_strides_0"), val = tensor<int32, [2]>([1, 1])];
            tensor<int32, [4]> query_45_pad_0 = const()[name = tensor<string, []>("query_45_pad_0"), val = tensor<int32, [4]>([0, 0, 0, 0])];
            tensor<int32, [2]> query_45_dilations_0 = const()[name = tensor<string, []>("query_45_dilations_0"), val = tensor<int32, [2]>([1, 1])];
            tensor<int32, []> query_45_groups_0 = const()[name = tensor<string, []>("query_45_groups_0"), val = tensor<int32, []>(1)];
            tensor<fp16, [1024, 1024, 1, 1]> layers_22_self_attn_q_proj_weight_to_fp16 = const()[name = tensor<string, []>("layers_22_self_attn_q_proj_weight_to_fp16"), val = tensor<fp16, [1024, 1024, 1, 1]>(BLOBFILE(path = tensor<string, []>("@model_path/weights/weight.bin"), offset = tensor<uint64, []>(564077824)))];
            tensor<fp16, [1024]> layers_22_self_attn_q_proj_bias_to_fp16 = const()[name = tensor<string, []>("layers_22_self_attn_q_proj_bias_to_fp16"), val = tensor<fp16, [1024]>(BLOBFILE(path = tensor<string, []>("@model_path/weights/weight.bin"), offset = tensor<uint64, []>(566175040)))];
            tensor<fp16, [1, 1024, 1, 1500]> query_45_cast_fp16 = conv(bias = layers_22_self_attn_q_proj_bias_to_fp16, dilations = query_45_dilations_0, groups = query_45_groups_0, pad = query_45_pad_0, pad_type = query_45_pad_type_0, strides = query_45_strides_0, weight = layers_22_self_attn_q_proj_weight_to_fp16, x = obj_89_cast_fp16)[name = tensor<string, []>("query_45_cast_fp16")];
            tensor<string, []> key_45_pad_type_0 = const()[name = tensor<string, []>("key_45_pad_type_0"), val = tensor<string, []>("valid")];
            tensor<int32, [2]> key_45_strides_0 = const()[name = tensor<string, []>("key_45_strides_0"), val = tensor<int32, [2]>([1, 1])];
            tensor<int32, [4]> key_45_pad_0 = const()[name = tensor<string, []>("key_45_pad_0"), val = tensor<int32, [4]>([0, 0, 0, 0])];
            tensor<int32, [2]> key_45_dilations_0 = const()[name = tensor<string, []>("key_45_dilations_0"), val = tensor<int32, [2]>([1, 1])];
            tensor<int32, []> key_45_groups_0 = const()[name = tensor<string, []>("key_45_groups_0"), val = tensor<int32, []>(1)];
            tensor<fp16, [1024, 1024, 1, 1]> layers_22_self_attn_k_proj_weight_to_fp16 = const()[name = tensor<string, []>("layers_22_self_attn_k_proj_weight_to_fp16"), val = tensor<fp16, [1024, 1024, 1, 1]>(BLOBFILE(path = tensor<string, []>("@model_path/weights/weight.bin"), offset = tensor<uint64, []>(566177152)))];
            tensor<fp16, [1, 1024, 1, 1500]> key_45_cast_fp16 = conv(dilations = key_45_dilations_0, groups = key_45_groups_0, pad = key_45_pad_0, pad_type = key_45_pad_type_0, strides = key_45_strides_0, weight = layers_22_self_attn_k_proj_weight_to_fp16, x = obj_89_cast_fp16)[name = tensor<string, []>("key_45_cast_fp16")];
            tensor<string, []> value_45_pad_type_0 = const()[name = tensor<string, []>("value_45_pad_type_0"), val = tensor<string, []>("valid")];
            tensor<int32, [2]> value_45_strides_0 = const()[name = tensor<string, []>("value_45_strides_0"), val = tensor<int32, [2]>([1, 1])];
            tensor<int32, [4]> value_45_pad_0 = const()[name = tensor<string, []>("value_45_pad_0"), val = tensor<int32, [4]>([0, 0, 0, 0])];
            tensor<int32, [2]> value_45_dilations_0 = const()[name = tensor<string, []>("value_45_dilations_0"), val = tensor<int32, [2]>([1, 1])];
            tensor<int32, []> value_45_groups_0 = const()[name = tensor<string, []>("value_45_groups_0"), val = tensor<int32, []>(1)];
            tensor<fp16, [1024, 1024, 1, 1]> layers_22_self_attn_v_proj_weight_to_fp16 = const()[name = tensor<string, []>("layers_22_self_attn_v_proj_weight_to_fp16"), val = tensor<fp16, [1024, 1024, 1, 1]>(BLOBFILE(path = tensor<string, []>("@model_path/weights/weight.bin"), offset = tensor<uint64, []>(568274368)))];
            tensor<fp16, [1024]> layers_22_self_attn_v_proj_bias_to_fp16 = const()[name = tensor<string, []>("layers_22_self_attn_v_proj_bias_to_fp16"), val = tensor<fp16, [1024]>(BLOBFILE(path = tensor<string, []>("@model_path/weights/weight.bin"), offset = tensor<uint64, []>(570371584)))];
            tensor<fp16, [1, 1024, 1, 1500]> value_45_cast_fp16 = conv(bias = layers_22_self_attn_v_proj_bias_to_fp16, dilations = value_45_dilations_0, groups = value_45_groups_0, pad = value_45_pad_0, pad_type = value_45_pad_type_0, strides = value_45_strides_0, weight = layers_22_self_attn_v_proj_weight_to_fp16, x = obj_89_cast_fp16)[name = tensor<string, []>("value_45_cast_fp16")];
            tensor<int32, [4]> var_2856 = const()[name = tensor<string, []>("op_2856"), val = tensor<int32, [4]>([1, 16, 64, 1500])];
            tensor<fp16, [1, 16, 64, 1500]> mh_q_45_cast_fp16 = reshape(shape = var_2856, x = query_45_cast_fp16)[name = tensor<string, []>("mh_q_45_cast_fp16")];
            tensor<fp16, []> var_2858_to_fp16 = const()[name = tensor<string, []>("op_2858_to_fp16"), val = tensor<fp16, []>(0x1p-3)];
            tensor<fp16, [1, 16, 64, 1500]> var_2859_cast_fp16 = mul(x = mh_q_45_cast_fp16, y = var_2858_to_fp16)[name = tensor<string, []>("op_2859_cast_fp16")];
            tensor<int32, [4]> var_2862 = const()[name = tensor<string, []>("op_2862"), val = tensor<int32, [4]>([1, 16, 64, 1500])];
            tensor<fp16, [1, 16, 64, 1500]> var_2863_cast_fp16 = reshape(shape = var_2862, x = key_45_cast_fp16)[name = tensor<string, []>("op_2863_cast_fp16")];
            tensor<bool, []> mh_w_45_transpose_x_0 = const()[name = tensor<string, []>("mh_w_45_transpose_x_0"), val = tensor<bool, []>(true)];
            tensor<bool, []> mh_w_45_transpose_y_0 = const()[name = tensor<string, []>("mh_w_45_transpose_y_0"), val = tensor<bool, []>(false)];
            tensor<fp16, [1, 16, 1500, 1500]> mh_w_45_cast_fp16 = matmul(transpose_x = mh_w_45_transpose_x_0, transpose_y = mh_w_45_transpose_y_0, x = var_2859_cast_fp16, y = var_2863_cast_fp16)[name = tensor<string, []>("mh_w_45_cast_fp16")];
            tensor<fp16, [1, 16, 1500, 1500]> var_2866_cast_fp16 = softmax(axis = var_2798, x = mh_w_45_cast_fp16)[name = tensor<string, []>("op_2866_cast_fp16")];
            tensor<int32, [4]> var_2867 = const()[name = tensor<string, []>("op_2867"), val = tensor<int32, [4]>([1, 16, 64, 1500])];
            tensor<fp16, [1, 16, 64, 1500]> var_2868_cast_fp16 = reshape(shape = var_2867, x = value_45_cast_fp16)[name = tensor<string, []>("op_2868_cast_fp16")];
            tensor<bool, []> attn_45_transpose_x_0 = const()[name = tensor<string, []>("attn_45_transpose_x_0"), val = tensor<bool, []>(false)];
            tensor<bool, []> attn_45_transpose_y_0 = const()[name = tensor<string, []>("attn_45_transpose_y_0"), val = tensor<bool, []>(true)];
            tensor<fp16, [1, 16, 64, 1500]> attn_45_cast_fp16 = matmul(transpose_x = attn_45_transpose_x_0, transpose_y = attn_45_transpose_y_0, x = var_2868_cast_fp16, y = var_2866_cast_fp16)[name = tensor<string, []>("attn_45_cast_fp16")];
            tensor<int32, [4]> var_2871 = const()[name = tensor<string, []>("op_2871"), val = tensor<int32, [4]>([1, 1024, 1, 1500])];
            tensor<fp16, [1, 1024, 1, 1500]> input_177_cast_fp16 = reshape(shape = var_2871, x = attn_45_cast_fp16)[name = tensor<string, []>("input_177_cast_fp16")];
            tensor<string, []> obj_91_pad_type_0 = const()[name = tensor<string, []>("obj_91_pad_type_0"), val = tensor<string, []>("valid")];
            tensor<int32, [2]> obj_91_strides_0 = const()[name = tensor<string, []>("obj_91_strides_0"), val = tensor<int32, [2]>([1, 1])];
            tensor<int32, [4]> obj_91_pad_0 = const()[name = tensor<string, []>("obj_91_pad_0"), val = tensor<int32, [4]>([0, 0, 0, 0])];
            tensor<int32, [2]> obj_91_dilations_0 = const()[name = tensor<string, []>("obj_91_dilations_0"), val = tensor<int32, [2]>([1, 1])];
            tensor<int32, []> obj_91_groups_0 = const()[name = tensor<string, []>("obj_91_groups_0"), val = tensor<int32, []>(1)];
            tensor<fp16, [1024, 1024, 1, 1]> layers_22_self_attn_o_proj_weight_to_fp16 = const()[name = tensor<string, []>("layers_22_self_attn_o_proj_weight_to_fp16"), val = tensor<fp16, [1024, 1024, 1, 1]>(BLOBFILE(path = tensor<string, []>("@model_path/weights/weight.bin"), offset = tensor<uint64, []>(570373696)))];
            tensor<fp16, [1024]> layers_22_self_attn_o_proj_bias_to_fp16 = const()[name = tensor<string, []>("layers_22_self_attn_o_proj_bias_to_fp16"), val = tensor<fp16, [1024]>(BLOBFILE(path = tensor<string, []>("@model_path/weights/weight.bin"), offset = tensor<uint64, []>(572470912)))];
            tensor<fp16, [1, 1024, 1, 1500]> obj_91_cast_fp16 = conv(bias = layers_22_self_attn_o_proj_bias_to_fp16, dilations = obj_91_dilations_0, groups = obj_91_groups_0, pad = obj_91_pad_0, pad_type = obj_91_pad_type_0, strides = obj_91_strides_0, weight = layers_22_self_attn_o_proj_weight_to_fp16, x = input_177_cast_fp16)[name = tensor<string, []>("obj_91_cast_fp16")];
            tensor<fp16, [1, 1024, 1, 1500]> inputs_91_cast_fp16 = add(x = inputs_89_cast_fp16, y = obj_91_cast_fp16)[name = tensor<string, []>("inputs_91_cast_fp16")];
            tensor<int32, [1]> out_91_axes_0 = const()[name = tensor<string, []>("out_91_axes_0"), val = tensor<int32, [1]>([1])];
            tensor<fp16, []> var_2889_to_fp16 = const()[name = tensor<string, []>("op_2889_to_fp16"), val = tensor<fp16, []>(0x1.5p-17)];
            tensor<fp16, [1, 1024, 1, 1500]> out_91_cast_fp16 = layer_norm(axes = out_91_axes_0, epsilon = var_2889_to_fp16, x = inputs_91_cast_fp16)[name = tensor<string, []>("out_91_cast_fp16")];
            tensor<fp16, [1024]> input_179_gamma_0_to_fp16 = const()[name = tensor<string, []>("input_179_gamma_0_to_fp16"), val = tensor<fp16, [1024]>(BLOBFILE(path = tensor<string, []>("@model_path/weights/weight.bin"), offset = tensor<uint64, []>(572473024)))];
            tensor<fp16, [1024]> input_179_beta_0_to_fp16 = const()[name = tensor<string, []>("input_179_beta_0_to_fp16"), val = tensor<fp16, [1024]>(BLOBFILE(path = tensor<string, []>("@model_path/weights/weight.bin"), offset = tensor<uint64, []>(572475136)))];
            tensor<fp16, []> input_179_epsilon_0_to_fp16 = const()[name = tensor<string, []>("input_179_epsilon_0_to_fp16"), val = tensor<fp16, []>(0x1.5p-17)];
            tensor<fp16, [1, 1024, 1, 1500]> input_179_cast_fp16 = batch_norm(beta = input_179_beta_0_to_fp16, epsilon = input_179_epsilon_0_to_fp16, gamma = input_179_gamma_0_to_fp16, mean = obj_1_mean_0_to_fp16, variance = obj_1_variance_0_to_fp16, x = out_91_cast_fp16)[name = tensor<string, []>("input_179_cast_fp16")];
            tensor<string, []> input_181_pad_type_0 = const()[name = tensor<string, []>("input_181_pad_type_0"), val = tensor<string, []>("valid")];
            tensor<int32, [2]> input_181_strides_0 = const()[name = tensor<string, []>("input_181_strides_0"), val = tensor<int32, [2]>([1, 1])];
            tensor<int32, [4]> input_181_pad_0 = const()[name = tensor<string, []>("input_181_pad_0"), val = tensor<int32, [4]>([0, 0, 0, 0])];
            tensor<int32, [2]> input_181_dilations_0 = const()[name = tensor<string, []>("input_181_dilations_0"), val = tensor<int32, [2]>([1, 1])];
            tensor<int32, []> input_181_groups_0 = const()[name = tensor<string, []>("input_181_groups_0"), val = tensor<int32, []>(1)];
            tensor<fp16, [4096, 1024, 1, 1]> layers_22_fc1_weight_to_fp16 = const()[name = tensor<string, []>("layers_22_fc1_weight_to_fp16"), val = tensor<fp16, [4096, 1024, 1, 1]>(BLOBFILE(path = tensor<string, []>("@model_path/weights/weight.bin"), offset = tensor<uint64, []>(572477248)))];
            tensor<fp16, [4096]> layers_22_fc1_bias_to_fp16 = const()[name = tensor<string, []>("layers_22_fc1_bias_to_fp16"), val = tensor<fp16, [4096]>(BLOBFILE(path = tensor<string, []>("@model_path/weights/weight.bin"), offset = tensor<uint64, []>(580865920)))];
            tensor<fp16, [1, 4096, 1, 1500]> input_181_cast_fp16 = conv(bias = layers_22_fc1_bias_to_fp16, dilations = input_181_dilations_0, groups = input_181_groups_0, pad = input_181_pad_0, pad_type = input_181_pad_type_0, strides = input_181_strides_0, weight = layers_22_fc1_weight_to_fp16, x = input_179_cast_fp16)[name = tensor<string, []>("input_181_cast_fp16")];
            tensor<string, []> input_183_mode_0 = const()[name = tensor<string, []>("input_183_mode_0"), val = tensor<string, []>("EXACT")];
            tensor<fp16, [1, 4096, 1, 1500]> input_183_cast_fp16 = gelu(mode = input_183_mode_0, x = input_181_cast_fp16)[name = tensor<string, []>("input_183_cast_fp16")];
            tensor<string, []> hidden_states_49_pad_type_0 = const()[name = tensor<string, []>("hidden_states_49_pad_type_0"), val = tensor<string, []>("valid")];
            tensor<int32, [2]> hidden_states_49_strides_0 = const()[name = tensor<string, []>("hidden_states_49_strides_0"), val = tensor<int32, [2]>([1, 1])];
            tensor<int32, [4]> hidden_states_49_pad_0 = const()[name = tensor<string, []>("hidden_states_49_pad_0"), val = tensor<int32, [4]>([0, 0, 0, 0])];
            tensor<int32, [2]> hidden_states_49_dilations_0 = const()[name = tensor<string, []>("hidden_states_49_dilations_0"), val = tensor<int32, [2]>([1, 1])];
            tensor<int32, []> hidden_states_49_groups_0 = const()[name = tensor<string, []>("hidden_states_49_groups_0"), val = tensor<int32, []>(1)];
            tensor<fp16, [1024, 4096, 1, 1]> layers_22_fc2_weight_to_fp16 = const()[name = tensor<string, []>("layers_22_fc2_weight_to_fp16"), val = tensor<fp16, [1024, 4096, 1, 1]>(BLOBFILE(path = tensor<string, []>("@model_path/weights/weight.bin"), offset = tensor<uint64, []>(580874176)))];
            tensor<fp16, [1024]> layers_22_fc2_bias_to_fp16 = const()[name = tensor<string, []>("layers_22_fc2_bias_to_fp16"), val = tensor<fp16, [1024]>(BLOBFILE(path = tensor<string, []>("@model_path/weights/weight.bin"), offset = tensor<uint64, []>(589262848)))];
            tensor<fp16, [1, 1024, 1, 1500]> hidden_states_49_cast_fp16 = conv(bias = layers_22_fc2_bias_to_fp16, dilations = hidden_states_49_dilations_0, groups = hidden_states_49_groups_0, pad = hidden_states_49_pad_0, pad_type = hidden_states_49_pad_type_0, strides = hidden_states_49_strides_0, weight = layers_22_fc2_weight_to_fp16, x = input_183_cast_fp16)[name = tensor<string, []>("hidden_states_49_cast_fp16")];
            tensor<fp16, [1, 1024, 1, 1500]> inputs_93_cast_fp16 = add(x = inputs_91_cast_fp16, y = hidden_states_49_cast_fp16)[name = tensor<string, []>("inputs_93_cast_fp16")];
            tensor<int32, []> var_2918 = const()[name = tensor<string, []>("op_2918"), val = tensor<int32, []>(3)];
            tensor<int32, [1]> out_93_axes_0 = const()[name = tensor<string, []>("out_93_axes_0"), val = tensor<int32, [1]>([1])];
            tensor<fp16, []> var_2940_to_fp16 = const()[name = tensor<string, []>("op_2940_to_fp16"), val = tensor<fp16, []>(0x1.5p-17)];
            tensor<fp16, [1, 1024, 1, 1500]> out_93_cast_fp16 = layer_norm(axes = out_93_axes_0, epsilon = var_2940_to_fp16, x = inputs_93_cast_fp16)[name = tensor<string, []>("out_93_cast_fp16")];
            tensor<fp16, [1024]> obj_93_gamma_0_to_fp16 = const()[name = tensor<string, []>("obj_93_gamma_0_to_fp16"), val = tensor<fp16, [1024]>(BLOBFILE(path = tensor<string, []>("@model_path/weights/weight.bin"), offset = tensor<uint64, []>(589264960)))];
            tensor<fp16, [1024]> obj_93_beta_0_to_fp16 = const()[name = tensor<string, []>("obj_93_beta_0_to_fp16"), val = tensor<fp16, [1024]>(BLOBFILE(path = tensor<string, []>("@model_path/weights/weight.bin"), offset = tensor<uint64, []>(589267072)))];
            tensor<fp16, []> obj_93_epsilon_0_to_fp16 = const()[name = tensor<string, []>("obj_93_epsilon_0_to_fp16"), val = tensor<fp16, []>(0x1.5p-17)];
            tensor<fp16, [1, 1024, 1, 1500]> obj_93_cast_fp16 = batch_norm(beta = obj_93_beta_0_to_fp16, epsilon = obj_93_epsilon_0_to_fp16, gamma = obj_93_gamma_0_to_fp16, mean = obj_1_mean_0_to_fp16, variance = obj_1_variance_0_to_fp16, x = out_93_cast_fp16)[name = tensor<string, []>("obj_93_cast_fp16")];
            tensor<string, []> query_pad_type_0 = const()[name = tensor<string, []>("query_pad_type_0"), val = tensor<string, []>("valid")];
            tensor<int32, [2]> query_strides_0 = const()[name = tensor<string, []>("query_strides_0"), val = tensor<int32, [2]>([1, 1])];
            tensor<int32, [4]> query_pad_0 = const()[name = tensor<string, []>("query_pad_0"), val = tensor<int32, [4]>([0, 0, 0, 0])];
            tensor<int32, [2]> query_dilations_0 = const()[name = tensor<string, []>("query_dilations_0"), val = tensor<int32, [2]>([1, 1])];
            tensor<int32, []> query_groups_0 = const()[name = tensor<string, []>("query_groups_0"), val = tensor<int32, []>(1)];
            tensor<fp16, [1024, 1024, 1, 1]> layers_23_self_attn_q_proj_weight_to_fp16 = const()[name = tensor<string, []>("layers_23_self_attn_q_proj_weight_to_fp16"), val = tensor<fp16, [1024, 1024, 1, 1]>(BLOBFILE(path = tensor<string, []>("@model_path/weights/weight.bin"), offset = tensor<uint64, []>(589269184)))];
            tensor<fp16, [1024]> layers_23_self_attn_q_proj_bias_to_fp16 = const()[name = tensor<string, []>("layers_23_self_attn_q_proj_bias_to_fp16"), val = tensor<fp16, [1024]>(BLOBFILE(path = tensor<string, []>("@model_path/weights/weight.bin"), offset = tensor<uint64, []>(591366400)))];
            tensor<fp16, [1, 1024, 1, 1500]> query_cast_fp16 = conv(bias = layers_23_self_attn_q_proj_bias_to_fp16, dilations = query_dilations_0, groups = query_groups_0, pad = query_pad_0, pad_type = query_pad_type_0, strides = query_strides_0, weight = layers_23_self_attn_q_proj_weight_to_fp16, x = obj_93_cast_fp16)[name = tensor<string, []>("query_cast_fp16")];
            tensor<string, []> key_pad_type_0 = const()[name = tensor<string, []>("key_pad_type_0"), val = tensor<string, []>("valid")];
            tensor<int32, [2]> key_strides_0 = const()[name = tensor<string, []>("key_strides_0"), val = tensor<int32, [2]>([1, 1])];
            tensor<int32, [4]> key_pad_0 = const()[name = tensor<string, []>("key_pad_0"), val = tensor<int32, [4]>([0, 0, 0, 0])];
            tensor<int32, [2]> key_dilations_0 = const()[name = tensor<string, []>("key_dilations_0"), val = tensor<int32, [2]>([1, 1])];
            tensor<int32, []> key_groups_0 = const()[name = tensor<string, []>("key_groups_0"), val = tensor<int32, []>(1)];
            tensor<fp16, [1024, 1024, 1, 1]> layers_23_self_attn_k_proj_weight_to_fp16 = const()[name = tensor<string, []>("layers_23_self_attn_k_proj_weight_to_fp16"), val = tensor<fp16, [1024, 1024, 1, 1]>(BLOBFILE(path = tensor<string, []>("@model_path/weights/weight.bin"), offset = tensor<uint64, []>(591368512)))];
            tensor<fp16, [1, 1024, 1, 1500]> key_cast_fp16 = conv(dilations = key_dilations_0, groups = key_groups_0, pad = key_pad_0, pad_type = key_pad_type_0, strides = key_strides_0, weight = layers_23_self_attn_k_proj_weight_to_fp16, x = obj_93_cast_fp16)[name = tensor<string, []>("key_cast_fp16")];
            tensor<string, []> value_pad_type_0 = const()[name = tensor<string, []>("value_pad_type_0"), val = tensor<string, []>("valid")];
            tensor<int32, [2]> value_strides_0 = const()[name = tensor<string, []>("value_strides_0"), val = tensor<int32, [2]>([1, 1])];
            tensor<int32, [4]> value_pad_0 = const()[name = tensor<string, []>("value_pad_0"), val = tensor<int32, [4]>([0, 0, 0, 0])];
            tensor<int32, [2]> value_dilations_0 = const()[name = tensor<string, []>("value_dilations_0"), val = tensor<int32, [2]>([1, 1])];
            tensor<int32, []> value_groups_0 = const()[name = tensor<string, []>("value_groups_0"), val = tensor<int32, []>(1)];
            tensor<fp16, [1024, 1024, 1, 1]> layers_23_self_attn_v_proj_weight_to_fp16 = const()[name = tensor<string, []>("layers_23_self_attn_v_proj_weight_to_fp16"), val = tensor<fp16, [1024, 1024, 1, 1]>(BLOBFILE(path = tensor<string, []>("@model_path/weights/weight.bin"), offset = tensor<uint64, []>(593465728)))];
            tensor<fp16, [1024]> layers_23_self_attn_v_proj_bias_to_fp16 = const()[name = tensor<string, []>("layers_23_self_attn_v_proj_bias_to_fp16"), val = tensor<fp16, [1024]>(BLOBFILE(path = tensor<string, []>("@model_path/weights/weight.bin"), offset = tensor<uint64, []>(595562944)))];
            tensor<fp16, [1, 1024, 1, 1500]> value_cast_fp16 = conv(bias = layers_23_self_attn_v_proj_bias_to_fp16, dilations = value_dilations_0, groups = value_groups_0, pad = value_pad_0, pad_type = value_pad_type_0, strides = value_strides_0, weight = layers_23_self_attn_v_proj_weight_to_fp16, x = obj_93_cast_fp16)[name = tensor<string, []>("value_cast_fp16")];
            tensor<int32, [4]> var_2976 = const()[name = tensor<string, []>("op_2976"), val = tensor<int32, [4]>([1, 16, 64, 1500])];
            tensor<fp16, [1, 16, 64, 1500]> mh_q_cast_fp16 = reshape(shape = var_2976, x = query_cast_fp16)[name = tensor<string, []>("mh_q_cast_fp16")];
            tensor<fp16, []> var_2978_to_fp16 = const()[name = tensor<string, []>("op_2978_to_fp16"), val = tensor<fp16, []>(0x1p-3)];
            tensor<fp16, [1, 16, 64, 1500]> var_2979_cast_fp16 = mul(x = mh_q_cast_fp16, y = var_2978_to_fp16)[name = tensor<string, []>("op_2979_cast_fp16")];
            tensor<int32, [4]> var_2982 = const()[name = tensor<string, []>("op_2982"), val = tensor<int32, [4]>([1, 16, 64, 1500])];
            tensor<fp16, [1, 16, 64, 1500]> var_2983_cast_fp16 = reshape(shape = var_2982, x = key_cast_fp16)[name = tensor<string, []>("op_2983_cast_fp16")];
            tensor<bool, []> mh_w_transpose_x_0 = const()[name = tensor<string, []>("mh_w_transpose_x_0"), val = tensor<bool, []>(true)];
            tensor<bool, []> mh_w_transpose_y_0 = const()[name = tensor<string, []>("mh_w_transpose_y_0"), val = tensor<bool, []>(false)];
            tensor<fp16, [1, 16, 1500, 1500]> mh_w_cast_fp16 = matmul(transpose_x = mh_w_transpose_x_0, transpose_y = mh_w_transpose_y_0, x = var_2979_cast_fp16, y = var_2983_cast_fp16)[name = tensor<string, []>("mh_w_cast_fp16")];
            tensor<fp16, [1, 16, 1500, 1500]> var_2986_cast_fp16 = softmax(axis = var_2918, x = mh_w_cast_fp16)[name = tensor<string, []>("op_2986_cast_fp16")];
            tensor<int32, [4]> var_2987 = const()[name = tensor<string, []>("op_2987"), val = tensor<int32, [4]>([1, 16, 64, 1500])];
            tensor<fp16, [1, 16, 64, 1500]> var_2988_cast_fp16 = reshape(shape = var_2987, x = value_cast_fp16)[name = tensor<string, []>("op_2988_cast_fp16")];
            tensor<bool, []> attn_transpose_x_0 = const()[name = tensor<string, []>("attn_transpose_x_0"), val = tensor<bool, []>(false)];
            tensor<bool, []> attn_transpose_y_0 = const()[name = tensor<string, []>("attn_transpose_y_0"), val = tensor<bool, []>(true)];
            tensor<fp16, [1, 16, 64, 1500]> attn_cast_fp16 = matmul(transpose_x = attn_transpose_x_0, transpose_y = attn_transpose_y_0, x = var_2988_cast_fp16, y = var_2986_cast_fp16)[name = tensor<string, []>("attn_cast_fp16")];
            tensor<int32, [4]> var_2991 = const()[name = tensor<string, []>("op_2991"), val = tensor<int32, [4]>([1, 1024, 1, 1500])];
            tensor<fp16, [1, 1024, 1, 1500]> input_185_cast_fp16 = reshape(shape = var_2991, x = attn_cast_fp16)[name = tensor<string, []>("input_185_cast_fp16")];
            tensor<string, []> obj_pad_type_0 = const()[name = tensor<string, []>("obj_pad_type_0"), val = tensor<string, []>("valid")];
            tensor<int32, [2]> obj_strides_0 = const()[name = tensor<string, []>("obj_strides_0"), val = tensor<int32, [2]>([1, 1])];
            tensor<int32, [4]> obj_pad_0 = const()[name = tensor<string, []>("obj_pad_0"), val = tensor<int32, [4]>([0, 0, 0, 0])];
            tensor<int32, [2]> obj_dilations_0 = const()[name = tensor<string, []>("obj_dilations_0"), val = tensor<int32, [2]>([1, 1])];
            tensor<int32, []> obj_groups_0 = const()[name = tensor<string, []>("obj_groups_0"), val = tensor<int32, []>(1)];
            tensor<fp16, [1024, 1024, 1, 1]> layers_23_self_attn_o_proj_weight_to_fp16 = const()[name = tensor<string, []>("layers_23_self_attn_o_proj_weight_to_fp16"), val = tensor<fp16, [1024, 1024, 1, 1]>(BLOBFILE(path = tensor<string, []>("@model_path/weights/weight.bin"), offset = tensor<uint64, []>(595565056)))];
            tensor<fp16, [1024]> layers_23_self_attn_o_proj_bias_to_fp16 = const()[name = tensor<string, []>("layers_23_self_attn_o_proj_bias_to_fp16"), val = tensor<fp16, [1024]>(BLOBFILE(path = tensor<string, []>("@model_path/weights/weight.bin"), offset = tensor<uint64, []>(597662272)))];
            tensor<fp16, [1, 1024, 1, 1500]> obj_cast_fp16 = conv(bias = layers_23_self_attn_o_proj_bias_to_fp16, dilations = obj_dilations_0, groups = obj_groups_0, pad = obj_pad_0, pad_type = obj_pad_type_0, strides = obj_strides_0, weight = layers_23_self_attn_o_proj_weight_to_fp16, x = input_185_cast_fp16)[name = tensor<string, []>("obj_cast_fp16")];
            tensor<fp16, [1, 1024, 1, 1500]> inputs_95_cast_fp16 = add(x = inputs_93_cast_fp16, y = obj_cast_fp16)[name = tensor<string, []>("inputs_95_cast_fp16")];
            tensor<int32, [1]> out_95_axes_0 = const()[name = tensor<string, []>("out_95_axes_0"), val = tensor<int32, [1]>([1])];
            tensor<fp16, []> var_3009_to_fp16 = const()[name = tensor<string, []>("op_3009_to_fp16"), val = tensor<fp16, []>(0x1.5p-17)];
            tensor<fp16, [1, 1024, 1, 1500]> out_95_cast_fp16 = layer_norm(axes = out_95_axes_0, epsilon = var_3009_to_fp16, x = inputs_95_cast_fp16)[name = tensor<string, []>("out_95_cast_fp16")];
            tensor<fp16, [1024]> input_187_gamma_0_to_fp16 = const()[name = tensor<string, []>("input_187_gamma_0_to_fp16"), val = tensor<fp16, [1024]>(BLOBFILE(path = tensor<string, []>("@model_path/weights/weight.bin"), offset = tensor<uint64, []>(597664384)))];
            tensor<fp16, [1024]> input_187_beta_0_to_fp16 = const()[name = tensor<string, []>("input_187_beta_0_to_fp16"), val = tensor<fp16, [1024]>(BLOBFILE(path = tensor<string, []>("@model_path/weights/weight.bin"), offset = tensor<uint64, []>(597666496)))];
            tensor<fp16, []> input_187_epsilon_0_to_fp16 = const()[name = tensor<string, []>("input_187_epsilon_0_to_fp16"), val = tensor<fp16, []>(0x1.5p-17)];
            tensor<fp16, [1, 1024, 1, 1500]> input_187_cast_fp16 = batch_norm(beta = input_187_beta_0_to_fp16, epsilon = input_187_epsilon_0_to_fp16, gamma = input_187_gamma_0_to_fp16, mean = obj_1_mean_0_to_fp16, variance = obj_1_variance_0_to_fp16, x = out_95_cast_fp16)[name = tensor<string, []>("input_187_cast_fp16")];
            tensor<string, []> input_189_pad_type_0 = const()[name = tensor<string, []>("input_189_pad_type_0"), val = tensor<string, []>("valid")];
            tensor<int32, [2]> input_189_strides_0 = const()[name = tensor<string, []>("input_189_strides_0"), val = tensor<int32, [2]>([1, 1])];
            tensor<int32, [4]> input_189_pad_0 = const()[name = tensor<string, []>("input_189_pad_0"), val = tensor<int32, [4]>([0, 0, 0, 0])];
            tensor<int32, [2]> input_189_dilations_0 = const()[name = tensor<string, []>("input_189_dilations_0"), val = tensor<int32, [2]>([1, 1])];
            tensor<int32, []> input_189_groups_0 = const()[name = tensor<string, []>("input_189_groups_0"), val = tensor<int32, []>(1)];
            tensor<fp16, [4096, 1024, 1, 1]> layers_23_fc1_weight_to_fp16 = const()[name = tensor<string, []>("layers_23_fc1_weight_to_fp16"), val = tensor<fp16, [4096, 1024, 1, 1]>(BLOBFILE(path = tensor<string, []>("@model_path/weights/weight.bin"), offset = tensor<uint64, []>(597668608)))];
            tensor<fp16, [4096]> layers_23_fc1_bias_to_fp16 = const()[name = tensor<string, []>("layers_23_fc1_bias_to_fp16"), val = tensor<fp16, [4096]>(BLOBFILE(path = tensor<string, []>("@model_path/weights/weight.bin"), offset = tensor<uint64, []>(606057280)))];
            tensor<fp16, [1, 4096, 1, 1500]> input_189_cast_fp16 = conv(bias = layers_23_fc1_bias_to_fp16, dilations = input_189_dilations_0, groups = input_189_groups_0, pad = input_189_pad_0, pad_type = input_189_pad_type_0, strides = input_189_strides_0, weight = layers_23_fc1_weight_to_fp16, x = input_187_cast_fp16)[name = tensor<string, []>("input_189_cast_fp16")];
            tensor<string, []> input_mode_0 = const()[name = tensor<string, []>("input_mode_0"), val = tensor<string, []>("EXACT")];
            tensor<fp16, [1, 4096, 1, 1500]> input_cast_fp16 = gelu(mode = input_mode_0, x = input_189_cast_fp16)[name = tensor<string, []>("input_cast_fp16")];
            tensor<string, []> hidden_states_pad_type_0 = const()[name = tensor<string, []>("hidden_states_pad_type_0"), val = tensor<string, []>("valid")];
            tensor<int32, [2]> hidden_states_strides_0 = const()[name = tensor<string, []>("hidden_states_strides_0"), val = tensor<int32, [2]>([1, 1])];
            tensor<int32, [4]> hidden_states_pad_0 = const()[name = tensor<string, []>("hidden_states_pad_0"), val = tensor<int32, [4]>([0, 0, 0, 0])];
            tensor<int32, [2]> hidden_states_dilations_0 = const()[name = tensor<string, []>("hidden_states_dilations_0"), val = tensor<int32, [2]>([1, 1])];
            tensor<int32, []> hidden_states_groups_0 = const()[name = tensor<string, []>("hidden_states_groups_0"), val = tensor<int32, []>(1)];
            tensor<fp16, [1024, 4096, 1, 1]> layers_23_fc2_weight_to_fp16 = const()[name = tensor<string, []>("layers_23_fc2_weight_to_fp16"), val = tensor<fp16, [1024, 4096, 1, 1]>(BLOBFILE(path = tensor<string, []>("@model_path/weights/weight.bin"), offset = tensor<uint64, []>(606065536)))];
            tensor<fp16, [1024]> layers_23_fc2_bias_to_fp16 = const()[name = tensor<string, []>("layers_23_fc2_bias_to_fp16"), val = tensor<fp16, [1024]>(BLOBFILE(path = tensor<string, []>("@model_path/weights/weight.bin"), offset = tensor<uint64, []>(614454208)))];
            tensor<fp16, [1, 1024, 1, 1500]> hidden_states_cast_fp16 = conv(bias = layers_23_fc2_bias_to_fp16, dilations = hidden_states_dilations_0, groups = hidden_states_groups_0, pad = hidden_states_pad_0, pad_type = hidden_states_pad_type_0, strides = hidden_states_strides_0, weight = layers_23_fc2_weight_to_fp16, x = input_cast_fp16)[name = tensor<string, []>("hidden_states_cast_fp16")];
            tensor<fp16, [1, 1024, 1, 1500]> inputs_cast_fp16 = add(x = inputs_95_cast_fp16, y = hidden_states_cast_fp16)[name = tensor<string, []>("inputs_cast_fp16")];
            tensor<int32, [1]> out_axes_0 = const()[name = tensor<string, []>("out_axes_0"), val = tensor<int32, [1]>([1])];
            tensor<fp16, []> var_3047_to_fp16 = const()[name = tensor<string, []>("op_3047_to_fp16"), val = tensor<fp16, []>(0x1.5p-17)];
            tensor<fp16, [1, 1024, 1, 1500]> out_cast_fp16 = layer_norm(axes = out_axes_0, epsilon = var_3047_to_fp16, x = inputs_cast_fp16)[name = tensor<string, []>("out_cast_fp16")];
            tensor<fp16, [1024]> encoder_output_embeds_type_fp32_gamma_0_to_fp16 = const()[name = tensor<string, []>("encoder_output_embeds_type_fp32_gamma_0_to_fp16"), val = tensor<fp16, [1024]>(BLOBFILE(path = tensor<string, []>("@model_path/weights/weight.bin"), offset = tensor<uint64, []>(614456320)))];
            tensor<fp16, [1024]> encoder_output_embeds_type_fp32_beta_0_to_fp16 = const()[name = tensor<string, []>("encoder_output_embeds_type_fp32_beta_0_to_fp16"), val = tensor<fp16, [1024]>(BLOBFILE(path = tensor<string, []>("@model_path/weights/weight.bin"), offset = tensor<uint64, []>(614458432)))];
            tensor<fp16, []> encoder_output_embeds_type_fp32_epsilon_0_to_fp16 = const()[name = tensor<string, []>("encoder_output_embeds_type_fp32_epsilon_0_to_fp16"), val = tensor<fp16, []>(0x1.5p-17)];
            tensor<fp16, [1, 1024, 1, 1500]> encoder_output_embeds = batch_norm(beta = encoder_output_embeds_type_fp32_beta_0_to_fp16, epsilon = encoder_output_embeds_type_fp32_epsilon_0_to_fp16, gamma = encoder_output_embeds_type_fp32_gamma_0_to_fp16, mean = obj_1_mean_0_to_fp16, variance = obj_1_variance_0_to_fp16, x = out_cast_fp16)[name = tensor<string, []>("encoder_output_embeds_type_fp32_cast_fp16")];
        } -> (encoder_output_embeds);
}